checkpoints/MLP_bs32_lr0.001_win50-30-20_vTrue_scTrue_ep9.pth (torch, 178894 bytes, 24 tensors)

layer1.weight f4 [32, 22]
0	0xbd89ac03	-0.06722262
1	0x3d8a017c	0.06738564
2	0x3f105e04	0.56393456
3	0x3e9521ac	0.29127252
4	0x3d75c449	0.060001645
5	0xbe71d790	-0.23617387
6	0xbe5c24c8	-0.21498406
7	0xbfdaeabf	-1.7102889
8	0xbdfab6c4	-0.12241891
9	0xbf1bfdc8	-0.60934114
10	0x3e1cb8cb	0.15304868
11	0x3f4bd190	0.7961664
12	0x3f3bb8ff	0.73329157
13	0x3e8f6c7e	0.2801246
14	0x3cd26120	0.025681078
15	0xbda62620	-0.081127405
16	0x3d147947	0.03624847
17	0xbfd0b0a1	-1.6303903
18	0xbdc808ae	-0.097672805
19	0xbf412223	-0.75442713
20	0xbe2a3b21	-0.16624118
21	0x3f21ccd3	0.6320316
22	0xbe133bbd	-0.14378257
23	0xbdff94fd	-0.12479589
24	0xbe339361	-0.1753669
25	0xbf2a59d3	-0.6654331
26	0xbec2dcbf	-0.3805904
27	0x3f858bd1	1.0433294
28	0xbde0926a	-0.10965426
29	0x3d561c42	0.052273043
30	0xbd8a1f75	-0.06744281
31	0xbf5380d1	-0.82618433
32	0x3ef624a7	0.4807484
33	0x3fb772c8	1.4331903
34	0xbe4dabe0	-0.20085096
35	0xbf8700b1	-1.0547086
36	0xbef84c37	-0.48495647
37	0x3f7045ba	0.93856394
38	0xbe70f572	-0.2353113
39	0xbe5814db	-0.21101706
40	0xbeaaf64c	-0.33391035
41	0xbf2aa90c	-0.66664195
42	0x3f247239	0.6423679
43	0x3fd04d36	1.6273563
44	0x3d68cc7a	0.05683563
45	0x3a05bea5	0.00051019556
46	0xbf37b58e	-0.71761405
47	0x3e799c45	0.24376018
48	0x3d9864f8	0.07441133
49	0x3e82455c	0.25443542
50	0xbf0d7830	-0.55261517
51	0xbdeef6e0	-0.116681814
52	0xbf85b25b	-1.0445055
53	0x3edee91c	0.43537223
54	0x3f3e975b	0.744497
55	0x3f45847f	0.771553
56	0xbf325104	-0.6965487
57	0x3e525bd2	0.20542839
58	0x3dc7a450	0.09748137
59	0xbe2152c4	-0.15754229
60	0xbe922b00	-0.2854843
61	0xbe5871b5	-0.21137126
62	0xbf4f856b	-0.81062955
63	0x3e7343c9	0.23756327
64	0x3f6a71ac	0.915797
65	0x3f7bbc0f	0.9833383
66	0xbe0dec90	-0.13859773
67	0x3cf418c2	0.029796962
68	0x3e998adf	0.29988763
69	0xbef21012	-0.47277886
70	0xbe088410	-0.13331628
71	0x3d4b11ac	0.0495774
72	0x3def828f	0.11694824
73	0x3ee00ab7	0.43758175
74	0xbf719654	-0.9437001
75	0xbe0b3f5f	-0.13598393
76	0x3d2a7f22	0.04162515
77	0xbea256dd	-0.31706896
78	0x3f04d5ce	0.5188874
79	0xbf09038f	-0.53521055
80	0x3d84931c	0.064733714
81	0x3e07be1c	0.13256115
82	0x3ef71213	0.48255977
83	0x3ea65ca4	0.32492554
84	0xbf37154f	-0.7151689
85	0xbe1f6b2c	-0.15568227
86	0x3e5f29ad	0.21793242
87	0xbe954040	-0.2915058
88	0xbf0e4b7b	-0.55583924
89	0xbe2838fa	-0.16427985
90	0x3ed97c27	0.42477533
91	0x3e3d0d2f	0.1846206
92	0x3d4eb32f	0.05046385
93	0x3d86532d	0.06558833
94	0x3f367a82	0.7128068
95	0x3ef9a912	0.48761803
96	0x3f71e7ea	0.944945
97	0x3e4f8a85	0.20267685
98	0x3f079d70	0.52974606
99	0x3efc07d6	0.49224728
100	0x3ea63aea	0.32466823
101	0x3d891e82	0.06695272
102	0x3c566489	0.013085493
103	0x3e2f11b2	0.17096594
104	0x3eace23c	0.33766353
105	0x3e7f7170	0.24945617
106	0x3f71e239	0.94485813
107	0x3effd29c	0.4996537
108	0x3ed31010	0.41223192
109	0x3f0a0aee	0.5392293
110	0x3d51bd0f	0.05120569
111	0xbc678cd6	-0.014132699
112	0xbe44b4f6	-0.19209656
113	0xbe7ae86b	-0.24502723
114	0xbf641277	-0.89090675
115	0x3e64d9c8	0.22348702
116	0x3e99acfe	0.30014795
117	0x3bf1ee10	0.0073831156
118	0x3e689034	0.22711259
119	0xbea84cac	-0.32870996
120	0xbd678110	-0.056519568
121	0x3f2977d0	0.66198444
122	0xbe5a07a1	-0.21291973
123	0xbd9430a5	-0.07235841
124	0xbf4e0975	-0.8048318
125	0x3e3ba8d0	0.18326116
126	0x3ee51685	0.44743744
127	0x3c90d73e	0.01768076
128	0xbdd1413e	-0.10217522
129	0xbe5c198b	-0.21494119
130	0xbe63836c	-0.22218102
131	0x3f080ad1	0.53141505
132	0x3df30dc0	0.11867857
133	0x3dd4e2cb	0.1039482
134	0xbe5e81cd	-0.21729203
135	0x3e753695	0.23946603
136	0x3dc547c1	0.096328266
137	0x3e13cffd	0.1443481
138	0x3f47044e	0.77740943
139	0x3ea8f8e8	0.330024
140	0x3eb260af	0.3483939
141	0x3e59c09e	0.21264884
142	0x3fac816c	1.3476996
143	0xbf07d26c	-0.53055453
144	0xbeab82e5	-0.33498302
145	0x3e3bcea0	0.1834054
146	0x3c3d7014	0.011562366
147	0x3bdf84d9	0.0068212566
148	0x3f6bf561	0.92171293
149	0x3e9fd825	0.31219593
150	0x3ce0581c	0.027385764
151	0x3e925e08	0.28587365
152	0x3f9276fe	1.1442564
153	0xbf114929	-0.5675226
154	0xbebc08ed	-0.3672556
155	0xbeba611d	-0.36402217
156	0x3ea32ee4	0.31871712
157	0x3f14bc3c	0.5809972
158	0x3f30329c	0.68827224
159	0x3f275ae9	0.6537309
160	0xbeda314b	-0.42615733
161	0xbfae3f69	-1.3613101
162	0x3edacb9f	0.42733476
163	0xbd7b6993	-0.06137998
164	0x3eb9264b	0.36162028
165	0xbf41656c	-0.7554538
166	0x3eabb929	0.33539703
167	0x3f0515b9	0.5198627
168	0x3f725077	0.9465403
169	0x3f1a60f6	0.603042
170	0xbe1ab9a8	-0.15109885
171	0xbfa43ebe	-1.2831647
172	0x3ed5b1da	0.41737252
173	0xbe15f42e	-0.14643928
174	0x3d87e2c4	0.06635049
175	0xbf5712f7	-0.84013313
176	0xbe833873	-0.25629005
177	0x3e4cdc55	0.20005925
178	0xbe56d90c	-0.20981234
179	0x3f1a2d43	0.60225314
180	0x3f3bcec5	0.7336238
181	0x3df9fabb	0.12206026
182	0x3ed9d513	0.42545375
183	0xbe1ffe52	-0.15624359
184	0xbe79a859	-0.24380626
185	0xbe2936fe	-0.16524884
186	0x3d6e4377	0.05816981
187	0xba8e3460	-0.0010849349
188	0xbe9886e4	-0.29790413
189	0x3f3a8388	0.7285695
190	0x3f20beba	0.62791026
191	0x3e81f0a3	0.25378904
192	0x3f27b2c4	0.6550715
193	0xbe1e7de8	-0.15477717
194	0xbedc372b	-0.4301084
195	0xbe681f02	-0.22668079
196	0x3d05597f	0.032556053
197	0xbe3bc6fa	-0.18337622
198	0xbbc92111	-0.006137975
199	0x3db8625d	0.09003136
200	0x3e5ea627	0.2174307
201	0xbe8003ab	-0.25002798
202	0x3e948965	0.29011074
203	0xbe1942c6	-0.14966878
204	0xbe59daca	-0.21274868
205	0x3ebf14e9	0.3732064
206	0x3e1c3a8a	0.15256706
207	0xbff0df19	-1.8818084
208	0x3ec60ea2	0.3868304
209	0x3c2d1908	0.01056505
210	0x3e147c9e	0.14500663
211	0x3ce2bf0a	0.027678985
212	0x3ebb9138	0.3663423
213	0x3daafa80	0.0834856
214	0x3dbf0d2c	0.09328684
215	0x3dce3ed2	0.10070576
216	0x3e4c1c0d	0.19932576
217	0xbff6a2a5	-1.9268385
218	0x3ea4003c	0.3203143
219	0x3e052815	0.13003571
220	0x3f03c50a	0.5147253
221	0x3d9b700f	0.07589733
222	0x3e2ff802	0.17184451
223	0xbf5ded51	-0.8669024
224	0x3f0ff4a3	0.5623266
225	0xbeddbf48	-0.4331
226	0x3edf17ef	0.43572947
227	0x3ee129dd	0.43977252
228	0xbe7f0368	-0.24903643
229	0xbf2d4b08	-0.67692614
230	0x3e23493f	0.1594591
231	0xbda7b48a	-0.08188732
232	0x3e87373a	0.26409322
233	0xbf3e8f4a	-0.7443739
234	0x3f5027c1	0.8131066
235	0xbec0d719	-0.37664106
236	0x3ec0fab4	0.3769127
237	0x3eef9380	0.4679222
238	0xbe690068	-0.22754061
239	0xbebbc744	-0.36675465
240	0x3ddcc644	0.10780004
241	0xbdba0915	-0.090837635
242	0xbd383950	-0.044976532
243	0xbcb3ee6e	-0.021964278
244	0xbebb7162	-0.36609942
245	0xbeb0daf0	-0.34542036
246	0x3f2536c4	0.6453669
247	0x3ef9aaf4	0.4876324
248	0xbe395154	-0.1809743
249	0xbe87f3a7	-0.2655308
250	0xbe43fd66	-0.19139633
251	0xbe6465aa	-0.22304407
252	0xbf33095c	-0.69936156
253	0x3ee5cffd	0.44885245
254	0xbe8495d4	-0.2589556
255	0xbeb3540f	-0.3502507

layer1.bias f4 [32]
0	0xbf31b27f	-0.6941299
1	0xbf76012e	-0.9609555
2	0xbe788e0f	-0.24272941
3	0x3e0ce554	0.13759357
4	0xbf54f536	-0.8318666
5	0x3e47444f	0.19459651
6	0xbfe3268d	-1.774614
7	0xbf87a8b7	-1.0598363
8	0xbf2e3e23	-0.68063563
9	0xbf21b124	-0.6316092
10	0xbf2dba10	-0.67862034
11	0x3de623b1	0.11237276
12	0x3e629548	0.22127259
13	0xbf8c556d	-1.096357
14	0xbf22e1f8	-0.6362605
15	0xbf59105f	-0.84790605
16	0x3e1ad86e	0.15121624
17	0xbeaf4162	-0.3422957
18	0x3e25081b	0.16116373
19	0xbe1bd6c3	-0.15218644
20	0xbe8fd718	-0.2809379
21	0xbdae4214	-0.08508697
22	0x3d86778d	0.06565771
23	0x3d95782d	0.07298312
24	0xbe2fbd2d	-0.17162009
25	0x3e885600	0.26628113
26	0xbf73b28e	-0.9519433
27	0x3e0275df	0.12740277
28	0xbe340fd8	-0.17584169
29	0xbe3ae135	-0.18249972
30	0x3e702f94	0.2345565
31	0xbf8cc61d	-1.0997959

layer2.weight f4 [64, 32]
0	0xbea6dd17	-0.32590553
1	0xbe90ac69	-0.2825654
2	0x3d8769e6	0.066119954
3	0xbe7fbf0b	-0.24975221
4	0x3cbc7b0e	0.023007896
5	0x3e782c65	0.24235685
6	0x3dad2b94	0.084555775
7	0xbe8f01cb	-0.27931055
8	0xbecca133	-0.39966735
9	0xbe99a7c5	-0.3001081
10	0xbe4cbe3c	-0.19994444
11	0x3c44b648	0.01200635
12	0xbedaf075	-0.4276158
13	0xbe46a09e	-0.19397208
14	0xbf19caea	-0.6007525
15	0xbebef0b1	-0.37293008
16	0xbde64e3b	-0.1124539
17	0xbed46365	-0.41482082
18	0xbed6b364	-0.4193374
19	0xbe7a49c7	-0.24442206
20	0xbe24a5d3	-0.16078882
21	0xbdfdbb35	-0.123892225
22	0xbdbca1fe	-0.09210585
23	0xbf2e1feb	-0.6801745
24	0xbd4bba9b	-0.049738508
25	0xbdef071d	-0.116712786
26	0xbdd16c4c	-0.10225734
27	0xbdc4c015	-0.09606949
28	0x3d131f4b	0.035918515
29	0x3db327c6	0.087478206
30	0x3dd2f106	0.10299878
31	0xbf02cfd3	-0.51098365
32	0xbe1481bb	-0.14502613
33	0xbd71973a	-0.05898211
34	0xbe002cd2	-0.12517098
35	0x3d7ed32b	0.062213104
36	0xbe31b86c	-0.17355508
37	0xbe9dd0c9	-0.30823353
38	0x3e23c415	0.15992768
39	0xbdceff16	-0.101072475
40	0x3c21fdfc	0.009887215
41	0xbed4e3f4	-0.41580164
42	0xbe0abdd3	-0.13548975
43	0xbf24b393	-0.6433651
44	0xbeede842	-0.4646626
45	0xbe595c51	-0.21226622
46	0xbeaae1f0	-0.33375502
47	0xbed646fd	-0.41851035
48	0xbf0fb383	-0.5613329
49	0xbe61b97c	-0.22043413
50	0xbd1c70a2	-0.038193353
51	0xbc8214b1	-0.015879007
52	0xbdc21169	-0.09475977
53	0xbc35af45	-0.011089151
54	0xbe99b832	-0.30023342
55	0xbdd8669b	-0.105664454
56	0x3cbd43d2	0.023103628
57	0xbb37d28c	-0.002804908
58	0xbc1f74c2	-0.009732427
59	0xbe81a766	-0.25323027
60	0x3e3401b3	0.17578773
61	0x3d1a2a36	0.03763791
62	0xbdc4172c	-0.09574732
63	0xbde97005	-0.11398319
64	0xbe88f385	-0.2674829
65	0x3d8de6ff	0.06928825
66	0xbbfbd025	-0.007684725
67	0x3e473b01	0.19456102
68	0xbecda0e4	-0.40161812
69	0x3caf1107	0.021370424
70	0x3dfdf660	0.12400508
71	0x3e55189e	0.20810172
72	0xbed39f91	-0.41332677
73	0xbf0d62ad	-0.5522869
74	0xbf13a3dc	-0.57671905
75	0x3efa1b0e	0.48848766
76	0x3e7925f4	0.24330884
77	0xbe891330	-0.2677245
78	0xbefed582	-0.4977227
79	0x3dbce50f	0.09223377
80	0xbd56a63d	-0.05240463
81	0xbe3011db	-0.17194311
82	0xbbb97ef5	-0.0056608864
83	0xbed97254	-0.42470038
84	0xbe7e9437	-0.24861227
85	0x3f07654a	0.5288893
86	0xbf2ee045	-0.6831096
87	0xbea04ef2	-0.3131023
88	0x3d4830fe	0.048874848
89	0xbefd52a1	-0.49477103
90	0xbec64bde	-0.38729757
91	0x3f084922	0.5323659
92	0x3e865f6d	0.2624468
93	0xbe2bed9e	-0.16789863
94	0x3d02a56f	0.03189605
95	0xbf4842d0	-0.7822695
96	0xbe150c25	-0.14555414
97	0xbcd642dd	-0.02615493
98	0x3d5a4835	0.05329152
99	0xbe5dfa5e	-0.21677539
100	0xbad53ceb	-0.0016268765
101	0xbd82e9a6	-0.06392221
102	0x3d8e8ff6	0.06961052
103	0xbf0075c6	-0.5017971
104	0x3e0b0fd4	0.13580257
105	0x3de643ef	0.11243426
106	0xbe906964	-0.28205407
107	0x3e244be5	0.16044576
108	0x3e39c9ac	0.18143338
109	0xbf38ab3c	-0.7213628
110	0xbdfd2362	-0.12360264
111	0xbeef6cc7	-0.46762678
112	0x3c8338e7	0.016018344
113	0x3e0942b6	0.13404354
114	0xbd13d17e	-0.03608846
115	0xbd862533	-0.06550064
116	0x3e5472e2	0.2074695
117	0xbe8d7b36	-0.27633065
118	0x3eba2205	0.3635408
119	0xbe7545df	-0.23952435
120	0x3ccfb86f	0.0253565
121	0x3e670987	0.22562228
122	0x3cc500a8	0.024048164
123	0x3d8b1769	0.067915745
124	0x3e866516	0.26248997
125	0xbe17b424	-0.14814812
126	0x3f61ffca	0.8828093
127	0xbe847c19	-0.2587593
128	0x3f6b9d17	0.92036575
129	0xbcd61b77	-0.026136143
130	0x3f084edd	0.53245336
131	0xbe769f51	-0.24084212
132	0x3e690e63	0.22759394
133	0xbea799a8	-0.32734418
134	0x3eac1432	0.33609158
135	0x3eb733f2	0.3578182
136	0x3e8236a8	0.25432324
137	0x3f007848	0.50183535
138	0x3f011938	0.50429106
139	0x3eba9fc1	0.36450008
140	0xbecb8ed9	-0.39757422
141	0x3eedb239	0.46425036
142	0xbf1659d2	-0.58730805
143	0x3f2a9adf	0.66642565
144	0x3ed7f242	0.42177016
145	0xbe911e42	-0.28343397
146	0x3e5f359b	0.21797793
147	0x3ef65938	0.48114944
148	0xbf3ffe5e	-0.7499751
149	0x3efa0aa8	0.48836255
150	0xbefa6b20	-0.48909855
151	0x3de0e767	0.109816365
152	0x3ef3cd02	0.47617346
153	0xbf27baa1	-0.6551915
154	0x3f0956ad	0.5364788
155	0x3e716ac5	0.23575886
156	0xbd6a8548	-0.057256013
157	0x3e9cddbc	0.3063792
158	0xbf1082da	-0.56449664
159	0x3f4ca709	0.79942375
160	0xbec02c60	-0.37533855
161	0x3e03d2e0	0.12873411
162	0xbe9fb1e3	-0.31190404
163	0xbf4aca3e	-0.7921485
164	0x3ed46463	0.4148284
165	0xbea3e80f	-0.32012984
166	0xbeedbe02	-0.46434027
167	0xbd33cbf7	-0.043895688
168	0xbe7ebccc	-0.24876708
169	0x3e1e3222	0.15448812
170	0xbe7a7ad4	-0.24460918
171	0xbf01bd72	-0.50679696
172	0xc00a17d0	-2.1577034
173	0x3f13eb87	0.5778126
174	0xbeae73b9	-0.34072664
175	0x3f0690c7	0.5256466
176	0x3e1b5791	0.15170123
177	0xbe8fb49b	-0.2806748
178	0xbf31a0b1	-0.6938582
179	0xbce89792	-0.028392587
180	0xbea6bcdd	-0.32565966
181	0xbd89ba25	-0.067249574
182	0xbebc5eca	-0.36791068
183	0xbf0d9ed3	-0.5532047
184	0xbd764b06	-0.06013014
185	0x3db2a375	0.08722583
186	0xbdba25d5	-0.09089247
187	0xbf3139a9	-0.6922861
188	0xbbbdf428	-0.005796928
189	0x3e8c992f	0.2746062
190	0xbe2aec64	-0.16691738
191	0x3ddbf51f	0.107401125
192	0xbef94efc	-0.48693073
193	0xbe4916ed	-0.19637652
194	0x3e2b4f49	0.16729464
195	0x3e0c8b20	0.13724947
196	0xbea78aad	-0.3272299
197	0xbe02e55a	-0.12782803
198	0x3dda68f4	0.106645495
199	0xbd06f205	-0.03294565
200	0xbf03ae25	-0.514376
201	0xbe52ecec	-0.20598191
202	0xbee19d7c	-0.44065464
203	0xbdc573a2	-0.09641196
204	0xbedb7989	-0.4286616
205	0x3ecbc2f0	0.39797163
206	0xbf01403c	-0.5048864
207	0xbd5be782	-0.05368758
208	0x3e0b1ad1	0.13584448
209	0xbd6b02ab	-0.05737559
210	0x3d8c672b	0.06855615
211	0xbeb14825	-0.34625354
212	0xbe9989ae	-0.29987854
213	0xbe5aaa7c	-0.21354097
214	0xbf70a76b	-0.9400546
215	0xbeb44f11	-0.35216573
216	0xbe8a0c46	-0.2696249
217	0xbe9570c3	-0.29187593
218	0xbe829157	-0.2550151
219	0xbeca1b3e	-0.3947391
220	0xbc0a3130	-0.008434579
221	0x3e0d53ed	0.13801546
222	0xbe7534b8	-0.23945892
223	0x3d7f7f9d	0.06237756
224	0xbe1ccb9b	-0.15312044
225	0x3e8cef8d	0.27526513
226	0x3de9b5eb	0.11411651
227	0xbe757059	-0.23968638
228	0x3e29712e	0.16547081
229	0xbe83ab80	-0.25716782
230	0xbcf50273	-0.029908394
231	0xbe97a363	-0.29616842
232	0xbcb63c0a	-0.022245426
233	0xbdd49e87	-0.10381799
234	0xbe8a1dbd	-0.26975814
235	0xbe1ae1d2	-0.15125206
236	0xbf0e2b07	-0.55534405
237	0xbd9f6a3f	-0.07783937
238	0xbd0da26a	-0.03457872
239	0x3dad2214	0.084537655
240	0xbe05d8ef	-0.13071035
241	0xbf1522d9	-0.582563
242	0xbdab46c3	-0.08363106
243	0x3e1d7df5	0.1538008
244	0xbed5ef72	-0.41784245
245	0xbcdfb037	-0.027305705
246	0xbee7dc26	-0.45285147
247	0xbf10917a	-0.5647198
248	0xbe512638	-0.20424736
249	0xbe77da94	-0.24204475
250	0xbab9b775	-0.0014169054
251	0xbe0dff6f	-0.13866971
252	0xbce015aa	-0.02735408
253	0xbe07a80d	-0.132477
254	0xbf05669c	-0.52109694
255	0x3d9a892c	0.07545695

layer2.bias f4 [64]
0	0xbe502e93	-0.20330267
1	0xbda1115b	-0.078646384
2	0xbd20ff52	-0.039305992
3	0xbe03e986	-0.12882051
4	0xbf796c2f	-0.974307
5	0xbea71896	-0.32635945
6	0xbe9543d8	-0.29153323
7	0xbef38823	-0.47564802
8	0xbea10896	-0.31451863
9	0x3d6c54a0	0.057697892
10	0xbdaf762a	-0.0856746
11	0xbf01bef4	-0.50681996
12	0xbe61067f	-0.21975134
13	0xbf07fb16	-0.531175
14	0xbdf219ce	-0.11821328
15	0xbee1602f	-0.44018695
16	0x3d1380a1	0.036011342
17	0x3de58d3d	0.1120858
18	0xbecf4091	-0.40478948
19	0x3e815847	0.25262663
20	0xbd871ded	-0.06597505
21	0xbca91647	-0.020640505
22	0xbe8c9444	-0.27456868
23	0xbce4a78e	-0.027911928
24	0xbefde7f8	-0.4959104
25	0xbe307958	-0.17233789
26	0xbf312203	-0.6919252
27	0xbe319272	-0.1734102
28	0x3d2bfe3c	0.041990504
29	0xbe0300e6	-0.12793311
30	0xbef75193	-0.48304424
31	0xbdf6e799	-0.120558925
32	0xbcbe6245	-0.023240218
33	0xbeb39183	-0.35071954
34	0xbec60328	-0.38674283
35	0xbeb1241d	-0.34597865
36	0xbc0c6763	-0.008569571
37	0xbf43efdd	-0.7653788
38	0xbdaa43f2	-0.08313741
39	0x3e467bd8	0.1938318
40	0xbeb3df9a	-0.35131532
41	0x3e31af52	0.17352036
42	0xbe0d83b7	-0.13819776
43	0xbdf2d3cc	-0.11856803
44	0xbfdbf36e	-1.7183664
45	0xbd1be176	-0.038056813
46	0xbecbfaf2	-0.39839894
47	0x3e9cf1e2	0.30653292
48	0xbf9b61ff	-1.2139281
49	0xbe0e0225	-0.13868006
50	0xbef3b827	-0.47601435
51	0xbe678ecf	-0.22613071
52	0xbd2f97bd	-0.04286932
53	0xbe586e9c	-0.21135944
54	0xbf026b5b	-0.5094506
55	0xbe9efb31	-0.3105102
56	0x3e3697cf	0.17831348
57	0x3c9d3ab3	0.019193029
58	0x3ea62533	0.32450256
59	0xbe68483c	-0.22683805
60	0xbdf9d709	-0.12199218
61	0xbe7f0170	-0.24902892
62	0xbe572a96	-0.21012339
63	0xbe34f5cd	-0.1767189

layer3.weight f4 [128, 64]
0	0xbe0d0717	-0.13772236
1	0x3df609a8	0.120135605
2	0xbf2e62f7	-0.6811976
3	0xbfbaafa0	-1.4584846
4	0xbf27a16d	-0.6548069
5	0xbe3c6fbb	-0.18401997
6	0xbe69c2ff	-0.22828291
7	0xbd250dda	-0.040296413
8	0xbe5fc0c8	-0.21850884
9	0xbe25c00f	-0.16186546
10	0xbf30b7db	-0.6903054
11	0xbe530d88	-0.2061063
12	0xbda0007e	-0.07812594
13	0xbf495dcc	-0.7865875
14	0xbc791d52	-0.015204744
15	0xbec7fcd3	-0.39060077
16	0x3edab2af	0.4271445
17	0x3eb0b3fb	0.34512314
18	0xbef9b7eb	-0.4877313
19	0xbe6de75d	-0.2323279
20	0x3cd5e455	0.026109854
21	0xbdc52e51	-0.09627975
22	0xbe289d8a	-0.16466346
23	0xbeab5414	-0.33462584
24	0xbd9de34e	-0.077093706
25	0xbebf72c2	-0.3739224
26	0xbe3b6e75	-0.18303855
27	0x3eb27ef7	0.3486249
28	0x3e79cd29	0.24394669
29	0xbd58782d	-0.052848984
30	0xbe549136	-0.20758519
31	0xbd042ba5	-0.032268185
32	0xbe0416e8	-0.12899363
33	0xbece88fa	-0.4033888
34	0x3cd63bca	0.026151557
35	0xbebc2de6	-0.36753768
36	0xbedf2f57	-0.43590805
37	0xbe0416ba	-0.12899294
38	0x3e6f7005	0.23382576
39	0x3d9dbdb8	0.077022016
40	0x3e250cf9	0.1611823
41	0x3d40f64d	0.04710989
42	0xbdd21919	-0.10258693
43	0x3cc7c238	0.024384603
44	0xbe1a8987	-0.15091525
45	0xbe0a877e	-0.13528249
46	0xbdbccefd	-0.092191674
47	0xbec71a8e	-0.38887447
48	0xbef337c6	-0.4750349
49	0xbb12b9d2	-0.002238859
50	0xbf011038	-0.5041537
51	0xbb82eecb	-0.0039957515
52	0xbc13dc3b	-0.009024675
53	0x3e55ac42	0.20866492
54	0x3e8cbcb2	0.27487713
55	0xbe2720e1	-0.16321136
56	0xbead97dc	-0.33904922
57	0xbeef2eb3	-0.46715316
58	0xbe4ddadb	-0.20103018
59	0xbb3cc024	-0.0028801048
60	0xbbcce1b5	-0.0062524923
61	0x3d663e4d	0.05621176
62	0xbe291c62	-0.16514733
63	0x3eb7dc3c	0.35910213
64	0x3d520249	0.05127171
65	0xbda52cb3	-0.08065166
66	0xbe9d63b2	-0.30740124
67	0xbdd188cb	-0.10231169
68	0xbe7db3fa	-0.24775687
69	0xbe455c0b	-0.19273393
70	0x3c16ce96	0.009204527
71	0xbb9b57f7	-0.004740711
72	0xbdfce590	-0.12348473
73	0x3cef0486	0.029176962
74	0xbebb383b	-0.36566338
75	0xbd41da11	-0.047327105
76	0x3b329c80	0.0027253926
77	0x3c99b7e6	0.018764447
78	0x3cb2c2f8	0.021821484
79	0x3b4190a8	0.0029535685
80	0xbdf7864c	-0.12086162
81	0xbec339f1	-0.38130143
82	0xbdb1d0ed	-0.086824276
83	0xbdd01063	-0.101593755
84	0x3c63b618	0.013898395
85	0xbd0b1384	-0.03395416
86	0xbe968aa2	-0.29402643
87	0xbd4e0892	-0.050301142
88	0xbd2108f9	-0.039315198
89	0xbdec3046	-0.11532645
90	0x3d06962c	0.03285806
91	0xbdd6a21d	-0.104801394
92	0xbd94f0be	-0.072724804
93	0xbdbc85be	-0.09205197
94	0x3e148588	0.14504063
95	0xbd43a899	-0.04776821
96	0xbe4bfbd3	-0.19920282
97	0xbe440215	-0.19141419
98	0xbd94fa40	-0.07274294
99	0xbd8533f5	-0.06504051
100	0xbe6f338c	-0.23359507
101	0xbd803e58	-0.06261891
102	0x3d774348	0.0603669
103	0xbe08bae6	-0.13352546
104	0x3d17b999	0.037042234
105	0xbd7a78d1	-0.061150376
106	0x3d649da6	0.055814408
107	0xbc310a48	-0.010805674
108	0xbdd54f58	-0.10415524
109	0xbdc8599d	-0.097827174
110	0x3dada6fe	0.08479117
111	0x3b64fd03	0.0034940846
112	0xbadf7299	-0.0017047703
113	0x3d8e53a1	0.06949545
114	0xbcb3394d	-0.02187791
115	0x3d78cc1a	0.06074152
116	0xbec27f3f	-0.37987706
117	0xbdfb1cd4	-0.12261358
118	0xbd5e5c94	-0.054287508
119	0xbde79ba7	-0.11308985
120	0xbebb0755	-0.3652903
121	0xbe35bb6f	-0.17747281
122	0x3d160d2b	0.03663365
123	0x3c4a89c6	0.012361949
124	0xbdd9b439	-0.10630078
125	0xbd97dd16	-0.07415216
126	0xbd79c27a	-0.060976483
127	0xbe60e44a	-0.21962085
128	0xbd93fad3	-0.07225575
129	0x3c86f08f	0.01647213
130	0x3c0b6d46	0.00850994
131	0xbd61f3b4	-0.055164054
132	0xbe3ea92c	-0.18619221
133	0xbd9281c6	-0.071536586
134	0xbdf4143d	-0.11917923
135	0xba042e5e	-0.00050423096
136	0xbdf68e3c	-0.12038848
137	0x3d98a97a	0.074542
138	0xbd882538	-0.06647724
139	0xbe81f96e	-0.25385612
140	0xbdda4df4	-0.106594
141	0x3d0d309a	0.03447018
142	0x3df76b25	0.12080983
143	0xbe568440	-0.20948887
144	0xbcc17044	-0.023613103
145	0xbda45270	-0.08023536
146	0x3da23a9a	0.079213336
147	0x3d50625a	0.050875045
148	0xbd0b952c	-0.03407781
149	0x3e0efdb9	0.13963975
150	0xbe04bbfd	-0.12962337
151	0xbe27474c	-0.16335791
152	0x3d8c48ef	0.068498485
153	0xbd3ab738	-0.045584887
154	0xbe2d8aab	-0.16947429
155	0xbd7206f1	-0.05908865
156	0xbb274724	-0.002552458
157	0xbc86f844	-0.016475804
158	0xbdb9c66f	-0.09071051
159	0x3d2d65e8	0.042333513
160	0x3d653340	0.05595708
161	0xbde47025	-0.11154202
162	0xbd9c19a3	-0.07622077
163	0xbe0ce081	-0.13757516
164	0xbe0a1727	-0.13485394
165	0xbbb555d4	-0.005533913
166	0x3d17f50b	0.037098926
167	0xbe29f72a	-0.16598192
168	0xbd52e3bf	-0.051486727
169	0xbdb4d3e5	-0.08829478
170	0x3ddd6286	0.108098075
171	0x3d3cbda4	0.046079293
172	0xbccf58f0	-0.025310963
173	0xbdab6346	-0.08368544
174	0xbe50d30d	-0.2039301
175	0xbe03fd20	-0.12889528
176	0xbe02149b	-0.12703173
177	0xbe01d7fb	-0.12680046
178	0xbcef5a5b	-0.02921789
179	0x3dbc193e	0.09184502
180	0x3d4d8614	0.050176695
181	0x3cded113	0.027199304
182	0xbb9135c0	-0.0044314563
183	0xbe05af32	-0.13055113
184	0xbd3d22d0	-0.046175778
185	0xbd8fe856	-0.070267364
186	0xbdf43801	-0.119247444
187	0xbdf8f934	-0.12156907
188	0xbe36407c	-0.17798036
189	0xbccbd7f0	-0.02488324
190	0xbcb41721	-0.021983685
191	0xbd6af18b	-0.05735926
192	0xbd737c06	-0.05944445
193	0xbd1df578	-0.038564175
194	0xbe023ac3	-0.12717728
195	0xbc82f25f	-0.015984712
196	0xbdc900c9	-0.09814603
197	0x3b8a321e	0.0042174
198	0xbc3e2160	-0.011604637
199	0x3d960c4b	0.073265634
200	0x3ce46130	0.027878374
201	0xbd9b0c67	-0.07570725
202	0xbdad7f76	-0.08471577
203	0xbe0baaff	-0.13639449
204	0xbd323c7a	-0.043514706
205	0x3d16a88d	0.036781836
206	0xbcdbfe44	-0.026854642
207	0x3c9fc0a7	0.019501043
208	0xbe01afce	-0.1266472
209	0xbe0c203e	-0.13684174
210	0xbd65c4b2	-0.056095786
211	0xbe27e902	-0.16397479
212	0x3c6a0661	0.014283747
213	0xbddd8c5e	-0.108177885
214	0xbdd804fe	-0.10547827
215	0xbd6376e7	-0.055533316
216	0x3ca7eae4	0.020497747
217	0xbd15ab08	-0.03654006
218	0xbd2dbd71	-0.042416994
219	0xbda3fba9	-0.08006985
220	0xbe18403c	-0.14868253
221	0x3d47752d	0.048695732
222	0xbe1a1bb6	-0.15049633
223	0xbe1586ce	-0.14602205
224	0xbd8e5d5b	-0.069514
225	0xbe1ccfc8	-0.15313637
226	0xbdbe4aeb	-0.09291633
227	0xbe0f10b9	-0.13971223
228	0xbd695768	-0.056968123
229	0xbdacfb1c	-0.08446333
230	0xbcda90e8	-0.026680425
231	0xbb82f1e7	-0.003996122
232	0x3dbe4205	0.09289936
233	0xbd062657	-0.032751407
234	0xbd2fa418	-0.0428811
235	0xbca2be6f	-0.019866196
236	0xbd3f7f6e	-0.046752386
237	0x3ceb8922	0.028751913
238	0xbd839657	-0.064251594
239	0xbd9d3152	-0.07675423
240	0xbd980a5b	-0.0742385
241	0x3dcde8b6	0.10054152
242	0xbcb7465a	-0.022372413
243	0xbdc4cc22	-0.09609248
244	0xbdeb31d2	-0.11484112
245	0xbd3498eb	-0.044091146
246	0xbd7428e3	-0.059609305
247	0x3c8a12c9	0.01685466
248	0xbe0877bf	-0.1332693
249	0xbe1fb4e3	-0.15596347
250	0xbd54b03e	-0.05192589
251	0x3cd858dd	0.02640956
252	0x3c8dbf91	0.01730326
253	0x3e0ce2e5	0.13758428
254	0x3ca6a7fb	0.020343771
255	0xbd262246	-0.04056003

layer3.bias f4 [128]
0	0xbe75a743	-0.23989587
1	0xbd816187	-0.0631743
2	0xbe1f4fda	-0.15557805
3	0xbd603efe	-0.054747574
4	0xbdc7ffa7	-0.09765559
5	0xbdc1bd3f	-0.09459924
6	0xbdc0b139	-0.094088025
7	0xbe2629bb	-0.16226856
8	0xbda720e4	-0.0816057
9	0xbc7a815e	-0.015289633
10	0xbe046644	-0.12929636
11	0xbe9294e8	-0.2862923
12	0xbe05901c	-0.13043255
13	0xbe381e4f	-0.17980312
14	0xbdccb612	-0.09995665
15	0xbdf98490	-0.121834874
16	0xbc5d0f6a	-0.0134924445
17	0xbe0285ce	-0.12746355
18	0xbe807949	-0.25092533
19	0x3d8bc9a5	0.0682557
20	0xbe855c93	-0.2604719
21	0xbe323de9	-0.1740643
22	0xbe8145b5	-0.25248495
23	0xbdad0f5f	-0.084501974
24	0xbddebc4b	-0.10875758
25	0xbe30314c	-0.17206305
26	0xbec9b4a9	-0.39395645
27	0x3e308c84	0.17241102
28	0xbe18ad12	-0.14909771
29	0xbe57a5ce	-0.21059343
30	0xbe8a5c0a	-0.27023345
31	0x3e6184bf	0.22023295
32	0xbdc026b6	-0.093823835
33	0xbdb12e0b	-0.0865136
34	0xbe65681d	-0.22402997
35	0xbe68b72b	-0.22726123
36	0xbe5f7139	-0.21820535
37	0x3e11e6b3	0.14248161
38	0xbe6ca2a1	-0.23108913
39	0xbe323b9a	-0.17405549
40	0xbe1dce6f	-0.1541078
41	0xbe8328dd	-0.25617114
42	0xbe5a83c5	-0.21339329
43	0xbe0614e7	-0.13093911
44	0x3e09465c	0.13405746
45	0xbe1843f2	-0.14869669
46	0xbe985829	-0.2975476
47	0xbe87bce2	-0.26511294
48	0x3d9096dc	0.07060024
49	0xbe39519b	-0.18097536
50	0xbe282d36	-0.16423497
51	0xbe3def90	-0.18548417
52	0xbe31c45c	-0.17360061
53	0xbe4fcfa8	-0.20294058
54	0xbe420fca	-0.18951336
55	0xbe693967	-0.22775804
56	0xbe156f1a	-0.14593163
57	0xbdff3a46	-0.12462287
58	0xbe2d752c	-0.16939229
59	0xbe1899dd	-0.14902444
60	0xbe35dc5f	-0.17759846
61	0xbd9d4a65	-0.07680205
62	0xbdd0c041	-0.101929195
63	0xbe460b83	-0.19340329
64	0xbd0d6b15	-0.03452595
65	0xbe64ea9c	-0.22355121
66	0xbdff0187	-0.12451463
67	0xbdcb9718	-0.09940928
68	0xbded29a5	-0.11580209
69	0x3dcbe865	0.09956435
70	0xbe597602	-0.21236423
71	0xbe5d948f	-0.21638702
72	0xbe274f33	-0.16338806
73	0xbe103976	-0.1408442
74	0xbe1d3f92	-0.15356281
75	0xbdce0063	-0.100586675
76	0xbe20ae36	-0.15691456
77	0xbe8092ef	-0.251121
78	0xbe1bb149	-0.15204348
79	0xbe96caff	-0.2945175
80	0x3e4b5e98	0.19860303
81	0xbe1dbe19	-0.15404548
82	0xbe768db6	-0.24077496
83	0x3e36b423	0.17842154
84	0xbdb3f32d	-0.087866165
85	0xbe242d3c	-0.1603288
86	0xbe411871	-0.1885698
87	0xbe31258e	-0.17299482
88	0xbdb5d964	-0.088793546
89	0x3dc3c8da	0.09559794
90	0xbe40da58	-0.18833292
91	0xbdb29646	-0.08720069
92	0xbe227c3d	-0.15867706
93	0xbc4a1f80	-0.012336612
94	0xbe590253	-0.21192293
95	0xbe296328	-0.16541731
96	0xbe82b799	-0.255307
97	0xbe888574	-0.26664317
98	0xbe7fbb5d	-0.24973817
99	0xbe3aecda	-0.18254414
100	0xbe1071e6	-0.14105949
101	0xbe835f05	-0.25658432
102	0xbe07ea23	-0.1327291
103	0xbe3d476b	-0.18484275
104	0xbdc2fc8a	-0.09520824
105	0xbe261775	-0.16219886
106	0xbe48217d	-0.19544025
107	0xbda1b47f	-0.07895755
108	0xbdbdcaba	-0.09267183
109	0xbd373a21	-0.04473317
110	0xbdb7a3f7	-0.08966821
111	0xbe2cc726	-0.16872844
112	0xbdedb0df	-0.11606001
113	0xbda10379	-0.078619905
114	0xbe20cd2e	-0.1570327
115	0xbdc77e4e	-0.097408876
116	0xbe08bf72	-0.1335428
117	0xbe7ff84a	-0.24997059
118	0xbe0546da	-0.13015309
119	0xbe672255	-0.2257169
120	0xbe822755	-0.25420633
121	0xbe41e434	-0.18934709
122	0xbe24d3eb	-0.16096465
123	0xbe2a75e8	-0.1664654
124	0xbe2d50f2	-0.1692541
125	0xbe654521	-0.22389652
126	0xbdb0b319	-0.0862791
127	0xbe4e2c18	-0.20134008

layer4.weight f4 [22, 128]
0	0x3c899c8a	0.016798276
1	0x3ca6f661	0.020381154
2	0xbdc1c285	-0.0946093
3	0x3dc364ef	0.09540736
4	0x3d4fb5a6	0.050710343
5	0x3cf5752b	0.029963097
6	0x3cdf612b	0.027268013
7	0xba27013f	-0.000637073
8	0xbd8a8be9	-0.06764967
9	0x3dccc74a	0.09998949
10	0x3c6e8fca	0.014560649
11	0x3eb51d41	0.3537388
12	0xbd69ecdd	-0.057110656
13	0xbd4a9502	-0.04945851
14	0xbc9fbc19	-0.019498872
15	0xbd8d7006	-0.069061324
16	0xbd2a4267	-0.041567232
17	0xbd85b2e4	-0.06528261
18	0x3bcbeeba	0.006223527
19	0x3c00ebfd	0.007868764
20	0xbdee08a9	-0.116227455
21	0x3e017f4b	0.12646215
22	0x3e163203	0.14667515
23	0xbd9c8822	-0.07643153
24	0x3e60b3f1	0.21943642
25	0x3cbb91ad	0.022896612
26	0xbef8042b	-0.4844068
27	0x3d68b2b8	0.056811064
28	0x3d81700e	0.06320201
29	0x3bf2fec6	0.0074156253
30	0xbd0cc9c0	-0.03437209
31	0xbe19662b	-0.1498038
32	0x3e3228a6	0.17398319
33	0xbdd6b3e0	-0.10483527
34	0xbdbbdf2b	-0.09173425
35	0x3dcece9a	0.10098
36	0xbe1ed905	-0.15512474
37	0xbcee5098	-0.029091164
38	0x3c5434e8	0.012952067
39	0xbd958506	-0.07300763
40	0x3d6b25a2	0.057408936
41	0xbd7d965e	-0.06191098
42	0x3cb80603	0.022463804
43	0xbbccda45	-0.0062516057
44	0xbcf97ac2	-0.030454043
45	0x3d914451	0.070931084
46	0x3def1ae0	0.11675048
47	0xbe4f2c98	-0.20231855
48	0xbb7fa9ff	-0.0039011238
49	0x3c9bd2b2	0.019021366
50	0xbd09df20	-0.033660054
51	0xbe87e798	-0.2654388
52	0xbee3966c	-0.444507
53	0xbdb005e2	-0.08594872
54	0x3dd8d2b9	0.10587067
55	0xbdbeeb17	-0.093221836
56	0x3d018983	0.031625282
57	0x3e0048f3	0.12527828
58	0xbd60f543	-0.0549214
59	0x3b57ef2a	0.003294895
60	0xbb64a36b	-0.0034887444
61	0x3dd04d41	0.10170985
62	0x3d77aaa9	0.06046549
63	0x3c6bc42a	0.014390031
64	0xbd13a9d8	-0.036050647
65	0x3d595080	0.053055286
66	0xbcd96ff7	-0.026542647
67	0xbe2da1c7	-0.16956244
68	0xbd2db4fb	-0.042408925
69	0x3d120d83	0.035657417
70	0xbc016a2a	-0.007898847
71	0x3d8a5967	0.067553334
72	0xbccb8413	-0.024843251
73	0x3cb9491d	0.022617871
74	0xbd155d0f	-0.0364657
75	0xbdef22aa	-0.116765335
76	0xbd433716	-0.047659956
77	0xbd22ca05	-0.039743442
78	0x3d52010a	0.051270522
79	0x3e5aafae	0.21356079
80	0x3d17c85a	0.037056305
81	0x3dd7075c	0.104994506
82	0xbdaa82a8	-0.08325702
83	0xbba9d313	-0.0051826327
84	0xbd7172fe	-0.058947556
85	0xbe098520	-0.1342969
86	0x3d843a20	0.06456399
87	0xbdc832eb	-0.09775337
88	0x3e07db9c	0.13267368
89	0x3d78faa6	0.060785912
90	0x3cf870e4	0.030327268
91	0x3d0ed273	0.03486867
92	0x3da922a9	0.08258564
93	0xbb7b8cd8	-0.003838351
94	0xbd0e459a	-0.034734346
95	0x3d91d903	0.0712147
96	0x3b252104	0.002519668
97	0x3dd3f5b7	0.10349601
98	0xbdbf8b01	-0.09352685
99	0xbddcf12c	-0.107881874
100	0xbcf21dc4	-0.029555209
101	0x3d43e927	0.047829773
102	0x3d0212a1	0.031756047
103	0x3d66fca5	0.056393284
104	0xbe4733d9	-0.19453372
105	0xb7f15ec9	-2.8773577e-05
106	0x3bdd82a8	0.00675996
107	0x3d68ae1b	0.056806665
108	0x3b84bac7	0.004050586
109	0xbda6e965	-0.08149985
110	0xbdb66eed	-0.08907876
111	0xbda6a150	-0.08136237
112	0xbc6a1fbe	-0.0142897945
113	0x3d1c4ba5	0.038158078
114	0xbd8c72d3	-0.068578385
115	0xbc00a9d5	-0.007852991
116	0x3e1ccb8e	0.15312025
117	0xbd567dbb	-0.052366
118	0xbbe49d44	-0.0069767553
119	0x3e1f3388	0.15547001
120	0x3d5019b3	0.05080576
121	0xbd230da9	-0.03980795
122	0x3ce939b9	0.028469907
123	0x3d4dfa60	0.050287604
124	0xbcfbcffe	-0.030738827
125	0x3d8a44b7	0.067513876
126	0x3cbcab4c	0.0230309
127	0xbe018ff0	-0.12652564
128	0x3d9de059	0.077088065
129	0x3d0a87ad	0.033820797
130	0xbd2aac6e	-0.041668348
131	0xbd09bc1d	-0.033626664
132	0x3d59621b	0.053072076
133	0x3d01a426	0.031650685
134	0xbcec4ac4	-0.028844245
135	0xbe43c065	-0.19116361
136	0xbd26e1d4	-0.04074271
137	0x3ca0375d	0.01955765
138	0xbd98f38b	-0.07468327
139	0x3dc3c93f	0.09559869
140	0x3deb518b	0.114901625
141	0x3e138bc3	0.14408784
142	0x3da22423	0.07917049
143	0x3d5bfd3e	0.053708307
144	0xbe1096b3	-0.14119987
145	0x3de8ac52	0.113609925
146	0x3e2b5fd2	0.16735771
147	0x3d19cc71	0.037548486
148	0xbe9ec4f0	-0.31009626
149	0x3e07f833	0.13278274
150	0x38f749b3	0.00011791605
151	0x3dd33eb2	0.103146926
152	0x3e56f57a	0.2099208
153	0xbcc2a100	-0.023758411
154	0x3e7487be	0.23879907
155	0xbe357e52	-0.17723969
156	0xbe1a0e61	-0.15044548
157	0x3b69c19c	0.0035668379
158	0x3d91e7c5	0.07124285
159	0xb9300390	-0.00016785995
160	0x3d6f47a1	0.05841792
161	0x3d8187ae	0.06324707
162	0xbe001ef7	-0.12511812
163	0xbe0c9021	-0.13726856
164	0x3d37a47c	0.0448346
165	0x3d4d5531	0.050130073
166	0xbd4ad7df	-0.049522277
167	0x3a14daee	0.0005678375
168	0x3dec1584	0.11527541
169	0xbd4b3639	-0.049612258
170	0x3d449e9a	0.048002817
171	0xbe53921e	-0.20661208
172	0xbd0f62d6	-0.035006367
173	0x3e6f6997	0.23380123
174	0x3e55d171	0.20880677
175	0xbdb2b436	-0.08725779
176	0xbd36540b	-0.044513743
177	0x3d054f2c	0.032546207
178	0xbc19ec6a	-0.009394744
179	0x3ede543d	0.43423644
180	0x3e2c59f0	0.16831183
181	0xbdad203b	-0.08453413
182	0x3ccacbff	0.024755476
183	0x3dc2056a	0.09473689
184	0x3d93f7a3	0.07224967
185	0x3e49417d	0.19653888
186	0xbd9ea19a	-0.07745667
187	0x3d2608dc	0.040535793
188	0x3d9d4271	0.07678688
189	0xbd1ce363	-0.03830279
190	0x3d2c420f	0.042055186
191	0xbc7b8c69	-0.015353301
192	0xbc276ca6	-0.010218775
193	0x3de24794	0.11048809
194	0xbbe2c3ee	-0.0069203293
195	0xbe90e01c	-0.28295982
196	0x3dbce609	0.09223563
197	0xbd8820f6	-0.06646912
198	0xbe1bfeb1	-0.15233876
199	0x3d9974ca	0.07492979
200	0xbe2609c9	-0.1621467
201	0xbdcddb39	-0.10051579
202	0xbb1ad87b	-0.0023627568
203	0xbc3eb020	-0.011638671
204	0x3ce3cd69	0.027807908
205	0x3d657e91	0.056028906
206	0x3ba0be00	0.0049054623
207	0x3d117e05	0.035520572
208	0xbd14266b	-0.03616945
209	0xbd5f2fd2	-0.054488964
210	0x3decdfb8	0.115661085
211	0xbd35680a	-0.044288673
212	0xbda8214e	-0.08209477
213	0x3dd37a4a	0.10326059
214	0xbeb70263	-0.35744008
215	0x3c8c9ce1	0.01716465
216	0x3e4c20be	0.19934365
217	0x3d2135cc	0.039357945
218	0x3d9b09e4	0.07570246
219	0x3d6eefb5	0.05833407
220	0xbd117e32	-0.03552074
221	0xbd589450	-0.052875817
222	0x3d9da8c3	0.07698204
223	0xbede3229	-0.43397644
224	0xbd6f0d28	-0.058362156
225	0x3e89b22e	0.26893753
226	0xbdbea681	-0.09309102
227	0xbd17f646	-0.0371001
228	0x3dc55a3b	0.09636351
229	0xbd42572e	-0.047446422
230	0x3db560ac	0.08856329
231	0x3dbbe196	0.091738865
232	0x3df5e901	0.120073326
233	0xbb0b9d4a	-0.0021303468
234	0xbdaaf0e1	-0.08346725
235	0xbd830c89	-0.06398875
236	0x3dc6996c	0.09697232
237	0x3d1216d5	0.035666306
238	0xbcb51be6	-0.02210803
239	0x3ccec645	0.025241027
240	0xbbf582c2	-0.007492394
241	0xbcc23722	-0.02370793
242	0xbd1d088f	-0.03833824
243	0xbd3f7a49	-0.04674748
244	0xbdbd7307	-0.09250455
245	0xbd8839b2	-0.066516295
246	0x3dbfc086	0.09362893
247	0x3dc402cb	0.09570845
248	0x3db7006d	0.08935628
249	0xbb5b47cf	-0.003345955
250	0x3dfd4b87	0.12367921
251	0xbd0af341	-0.03392339
252	0xbce18d8d	-0.027533317
253	0xbde21df9	-0.11040873
254	0xbd8072b8	-0.06271881
255	0x3d5bb75e	0.05364167

layer4.bias f4 [22]
0	0x3d0b3be7	0.033992674
1	0x3bd7f16e	0.00659006
2	0x3dba8229	0.09106857
3	0x3c869660	0.016429126
4	0x3d542bbb	0.051799517
5	0x3c964b04	0.018346317
6	0x3d014516	0.031560026
7	0x3dbd44b4	0.0924162
8	0x3c0e6479	0.008690947
9	0x3dad7985	0.08470444
10	0x3d3f8a06	0.04676249
11	0x3d4a458e	0.04938274
12	0x3e3b3e96	0.18285593
13	0x3ce32f7c	0.027732603
14	0x3dc5cba1	0.0965798
15	0x3d138661	0.036016826
16	0x3d76836c	0.060183927
17	0x3e34aa99	0.17643203
18	0x3c4dc067	0.012558079
19	0x3e299c79	0.16563596
20	0x3db2cb00	0.087301254
21	0x3dbd9fb8	0.092589796

exp_avg f4 [32, 22]
0	0x30822ce9	9.471509e-10
1	0x32dca500	2.5686404e-08
2	0xb189a6b0	-4.006175e-09
3	0x332a6b6a	3.9678902e-08
4	0x32755e35	1.4282297e-08
5	0x31c00128	5.588067e-09
6	0x2ecc73a0	9.297385e-11
7	0x31da7845	6.358308e-09
8	0x328b9282	1.6248354e-08
9	0x31df2d8e	6.495333e-09
10	0x32cbf18e	2.3742157e-08
11	0x32aa2864	1.9808972e-08
12	0xb209a6b0	-8.01235e-09
13	0x33aa6b6a	7.9357804e-08
14	0x32f55e35	2.8564594e-08
15	0x32400128	1.1176134e-08
16	0x2f4c73a0	1.859477e-10
17	0x325a7845	1.2716616e-08
18	0x330b9282	3.2496708e-08
19	0x325f2d8e	1.2990666e-08
20	0x334bf18e	4.7484313e-08
21	0x332a2864	3.9617944e-08
22	0x8e8e04c8	-3.5010307e-30
23	0x8d89bf5d	-8.489346e-31
24	0x8e8a6e80	-3.4126034e-30
25	0x8e8d3203	-3.4807343e-30
26	0x0eac13d9	4.2420386e-30
27	0x0d73e95c	7.5161052e-31
28	0x8db879f7	-1.13692375e-30
29	0x8d497862	-6.2082813e-31
30	0x8d788cfd	-7.659061e-31
31	0x0dc56c41	1.2167124e-30
32	0x0e85f896	3.302641e-30
33	0x0f25865c	8.161005e-30
34	0x8f0a6e80	-6.825207e-30
35	0x8f0d3203	-6.961469e-30
36	0x0f2c13d9	8.484077e-30
37	0x0df3e95c	1.50322105e-30
38	0x8e3879f7	-2.2738475e-30
39	0x8dc97862	-1.24165625e-30
40	0x8df88cfd	-1.5318122e-30
41	0x0e456c41	2.4334247e-30
42	0x0f05f896	6.605282e-30
43	0x0fa5865c	1.632201e-29
44	0x38279543	3.9954914e-05
45	0x378e476c	1.6960978e-05
46	0x376bf865	1.4064925e-05
47	0x37f4f23c	2.9199866e-05
48	0x37d359b2	2.5194928e-05
49	0x376a8ee2	1.3980754e-05
50	0x38047271	3.1577834e-05
51	0x37599e7c	1.2971108e-05
52	0x37ac3d08	2.0532418e-05
53	0x38079c90	3.233232e-05
54	0x3809fbed	3.289797e-05
55	0x37e0f796	2.6818172e-05
56	0x37ebf865	2.812985e-05
57	0x3874f23c	5.839973e-05
58	0x385359b2	5.0389855e-05
59	0x37ea8ee2	2.7961509e-05
60	0x38847271	6.315567e-05
61	0x37d99e7c	2.5942216e-05
62	0x382c3d08	4.1064835e-05
63	0x38879c90	6.466464e-05
64	0x3889fbed	6.579594e-05
65	0x3860f796	5.3636344e-05
66	0xb80fe495	-3.430674e-05
67	0xb5364dc0	-6.7913425e-07
68	0xb85676a6	-5.1132076e-05
69	0xb84a5ae9	-4.824522e-05
70	0xb837bdcc	-4.3807362e-05
71	0xb89b7ff7	-7.414811e-05
72	0xb88a4126	-6.5924876e-05
73	0xb898edf5	-7.292248e-05
74	0xb846ee27	-4.7428675e-05
75	0xb82de120	-4.1456078e-05
76	0xb8880ca2	-6.4873384e-05
77	0xb826190b	-3.9600807e-05
78	0xb8d676a6	-0.00010226415
79	0xb8ca5ae9	-9.649044e-05
80	0xb8b7bdcc	-8.7614724e-05
81	0xb91b7ff7	-0.00014829623
82	0xb90a4126	-0.00013184975
83	0xb918edf5	-0.00014584496
84	0xb8c6ee27	-9.485735e-05
85	0xb8ade120	-8.2912156e-05
86	0xb9080ca2	-0.00012974677
87	0xb8a6190b	-7.9201614e-05
88	0x36077400	2.0184088e-06
89	0x35d35559	1.5745564e-06
90	0xb5594887	-8.094434e-07
91	0x33daf342	1.01956644e-07
92	0x35997c24	1.1435518e-06
93	0xb3835595	-6.11573e-08
94	0x359788c9	1.1290186e-06
95	0x364cdc8b	3.0526742e-06
96	0xb55235ed	-7.830957e-07
97	0xb53bf609	-7.0020957e-07
98	0xb4664cfd	-2.1448427e-07
99	0xb528388d	-6.266717e-07
100	0xb5d94887	-1.6188868e-06
101	0x345af342	2.0391329e-07
102	0x36197c24	2.2871036e-06
103	0xb4035595	-1.223146e-07
104	0x361788c9	2.2580373e-06
105	0x36ccdc8b	6.1053483e-06
106	0xb5d235ed	-1.5661914e-06
107	0xb5bbf609	-1.4004191e-06
108	0xb4e64cfd	-4.2896855e-07
109	0xb5a8388d	-1.2533434e-06
110	0x382f0d09	4.173539e-05
111	0x363f0f58	2.847015e-06
112	0x37071f12	8.053861e-06
113	0x383afd70	4.4581888e-05
114	0x37e316d4	2.7071139e-05
115	0xb61084e4	-2.1535025e-06
116	0x38186265	3.633126e-05
117	0xb75d7897	-1.32007035e-05
118	0x381333d7	3.509581e-05
119	0x3871e50c	5.7672194e-05
120	0x382957f4	4.0374653e-05
121	0x38441bc5	4.6755904e-05
122	0x37871f12	1.6107722e-05
123	0x38bafd70	8.9163776e-05
124	0x386316d4	5.4142278e-05
125	0xb69084e4	-4.307005e-06
126	0x38986265	7.266252e-05
127	0xb7dd7897	-2.6401407e-05
128	0x389333d7	7.019162e-05
129	0x38f1e50c	0.00011534439
130	0x38a957f4	8.0749305e-05
131	0x38c41bc5	9.351181e-05
132	0x82125016	-1.074937e-37
133	0x821b32ed	-1.1402217e-37
134	0x821914ed	-1.124667e-37
135	0x0218a319	1.1214003e-37
136	0x821b8051	-1.1424427e-37
137	0x021d442d	1.1554104e-37
138	0x82167d6f	-1.1056257e-37
139	0x821190e2	-1.0694497e-37
140	0x021b0e4b	1.1391703e-37
141	0x821f15b6	-1.1687706e-37
142	0x021962e3	1.1269044e-37
143	0x02100a59	1.0582419e-37
144	0x82126fe1	-1.0758494e-37
145	0x021202ff	1.0727246e-37
146	0x8214c064	-1.0928536e-37
147	0x021670a2	1.1052584e-37
148	0x821ff3fd	-1.1751496e-37
149	0x821ab82c	-1.1366988e-37
150	0x02145351	1.0897233e-37
151	0x82182df7	-1.1180388e-37
152	0x0212ba77	1.0779899e-37
153	0x02191915	1.1247863e-37
154	0xa22f7b87	-2.3782317e-18
155	0xa3a90806	-1.8326415e-17
156	0x222c813f	2.337877e-18
157	0xa207cb18	-1.8403429e-18
158	0xa250d8bd	-2.8303997e-18
159	0x21cff9dd	1.4093004e-18
160	0xa2060f1b	-1.8168383e-18
161	0xa29dd73b	-4.278282e-18
162	0xa23af856	-2.5339168e-18
163	0xa1af2ed3	-1.1870856e-18
164	0xa25126d0	-2.8345329e-18
165	0xa217a504	-2.0551675e-18
166	0x22ac813f	4.675754e-18
167	0xa287cb18	-3.6806857e-18
168	0xa2d0d8bd	-5.6607994e-18
169	0x224ff9dd	2.8186008e-18
170	0xa2860f1b	-3.6336766e-18
171	0xa31dd73b	-8.556564e-18
172	0xa2baf856	-5.0678337e-18
173	0xa22f2ed3	-2.3741711e-18
174	0xa2d126d0	-5.6690658e-18
175	0xa297a504	-4.110335e-18
176	0x9a580a57	-4.4676106e-23
177	0x18149ac4	1.9206688e-24
178	0x996f085d	-1.2357699e-23
179	0x1b66cf17	1.9092068e-22
180	0x9bce791b	-3.4158104e-22
181	0x1b369130	1.51016e-22
182	0x95d9b1fe	-8.7926424e-26
183	0x99744470	-1.2628325e-23
184	0x95ecc815	-9.5635315e-26
185	0x9880a207	-3.325083e-24
186	0x97966a84	-9.720411e-25
187	0x970112a3	-4.170567e-25
188	0x99ef085d	-2.4715399e-23
189	0x1be6cf17	3.8184137e-22
190	0x9c4e791b	-6.831621e-22
191	0x1bb69130	3.02032e-22
192	0x9659b1fe	-1.7585285e-25
193	0x99f44470	-2.525665e-23
194	0x966cc815	-1.9127063e-25
195	0x9900a207	-6.650166e-24
196	0x98166a84	-1.9440822e-24
197	0x978112a3	-8.341134e-25
198	0x337ad464	5.840083e-08
199	0xb1857835	-3.8844754e-09
200	0x333ca5c2	4.3922917e-08
201	0x333bca16	4.3723126e-08
202	0x30af7040	1.2764829e-09
203	0x3323e204	3.8156955e-08
204	0x3240777e	1.120304e-08
205	0x3309245c	3.1930867e-08
206	0x33eba531	1.09730884e-07
207	0x33f2b733	1.1302327e-07
208	0x334eb041	4.8123415e-08
209	0x3313b464	3.439017e-08
210	0x33bca5c2	8.7845834e-08
211	0x33bbca16	8.744625e-08
212	0x312f7040	2.5529658e-09
213	0x33a3e204	7.631391e-08
214	0x32c0777e	2.240608e-08
215	0x3389245c	6.3861734e-08
216	0x346ba531	2.1946177e-07
217	0x3472b733	2.2604654e-07
218	0x33ceb041	9.624683e-08
219	0x3393b464	6.878034e-08
220	0x2155875d	7.234636e-19
221	0x21604ba9	7.599429e-19
222	0x1fe76dc5	9.8013904e-20
223	0x20006144	1.0874204e-19
224	0x20aee756	2.9629832e-19
225	0x9f7e03bc	-5.378968e-20
226	0x20a43f34	2.7824505e-19
227	0x20b00602	2.9819535e-19
228	0x1f091ce0	2.9034763e-20
229	0x204167c9	1.6382076e-19
230	0x20ae4b63	2.9526633e-19
231	0x1ffbd58a	1.06655906e-19
232	0x20676dc5	1.9602781e-19
233	0x20806144	2.1748408e-19
234	0x212ee756	5.9259664e-19
235	0x9ffe03bc	-1.0757936e-19
236	0x21243f34	5.564901e-19
237	0x21300602	5.963907e-19
238	0x1f891ce0	5.8069527e-20
239	0x20c167c9	3.276415e-19
240	0x212e4b63	5.9053267e-19
241	0x207bd58a	2.1331181e-19
242	0xb785c3c9	-1.5946005e-05
243	0xb801b45b	-3.0923966e-05
244	0xb6ba3e1b	-5.550462e-06
245	0x36a0c22e	4.790977e-06
246	0xb6d87851	-6.4513083e-06
247	0xb765fd5e	-1.3708455e-05
248	0xb676c1d4	-3.676968e-06
249	0xb74f6fa6	-1.2364157e-05
250	0xb5c0ceee	-1.4365339e-06
251	0x30353100	6.591705e-10
252	0xb717e121	-9.052718e-06
253	0xb783dd24	-1.5719394e-05
254	0xb73a3e1b	-1.1100924e-05
255	0x3720c22e	9.581954e-06

exp_avg_sq f4 [32, 22]
0	0x302cf5d4	6.292258e-10
1	0x302a78be	6.2017225e-10
2	0x2fe2c420	4.1248516e-10
3	0x3056712c	7.8013573e-10
4	0x3011bef1	5.3022037e-10
5	0x304a03d6	7.3492623e-10
6	0x30237f0d	5.9479605e-10
7	0x30bf1f50	1.3905979e-09
8	0x308da1a5	1.0305042e-09
9	0x306a5709	8.525239e-10
10	0x30250789	6.003736e-10
11	0x2fb117ed	3.2213113e-10
12	0x30e2c420	1.6499406e-09
13	0x3156712c	3.120543e-09
14	0x3111bef1	2.1208815e-09
15	0x314a03d6	2.939705e-09
16	0x31237f0d	2.3791842e-09
17	0x31bf1f50	5.5623914e-09
18	0x318da1a5	4.122017e-09
19	0x316a5709	3.4100955e-09
20	0x31250789	2.4014943e-09
21	0x30b117ed	1.2885245e-09
22	0x2e479805	4.5382382e-11
23	0x301b7d6f	5.6566923e-10
24	0x2c216153	2.2933502e-12
25	0x2c725fe0	3.444349e-12
26	0x2cd07761	5.9249693e-12
27	0x2d540111	1.2051042e-11
28	0x2d8e0cd9	1.6149236e-11
29	0x2ce7a491	6.5836854e-12
30	0x2d035cd6	7.467102e-12
31	0x2c05c8d1	1.9011912e-12
32	0x2d9ec18a	1.8048469e-11
33	0x2ddcabda	2.5087422e-11
34	0x2d216153	9.173401e-12
35	0x2d725fe0	1.3777396e-11
36	0x2dd07761	2.3699877e-11
37	0x2e540111	4.8204166e-11
38	0x2e8e0cd9	6.4596946e-11
39	0x2de7a491	2.6334742e-11
40	0x2e035cd6	2.9868406e-11
41	0x2d05c8d1	7.604765e-12
42	0x2e9ec18a	7.2193876e-11
43	0x2edcabda	1.0034969e-10
44	0x313e2239	2.7668092e-09
45	0x31d1e180	6.108337e-09
46	0x30df7bb3	1.6260543e-09
47	0x30c261bb	1.4143134e-09
48	0x30cb2d5a	1.4783084e-09
49	0x30db22ca	1.5944235e-09
50	0x310b0b74	2.0233673e-09
51	0x30e72100	1.6816841e-09
52	0x31027e3e	1.898925e-09
53	0x31063d5d	1.9534447e-09
54	0x3134aa99	2.629042e-09
55	0x3107fc99	1.978867e-09
56	0x31df7bb3	6.504217e-09
57	0x31c261bb	5.6572538e-09
58	0x31cb2d5a	5.9132335e-09
59	0x31db22ca	6.377694e-09
60	0x320b0b74	8.093469e-09
61	0x31e72100	6.7267365e-09
62	0x32027e3e	7.5957e-09
63	0x32063d5d	7.813779e-09
64	0x3234aa99	1.0516168e-08
65	0x3207fc99	7.915468e-09
66	0x32b188c2	2.0667702e-08
67	0x335a5b28	5.0839986e-08
68	0x32412d0f	1.1244324e-08
69	0x32449ba1	1.14440875e-08
70	0x32464f9d	1.1543219e-08
71	0x32487faf	1.1670564e-08
72	0x3254c381	1.23844766e-08
73	0x325d7c5f	1.2892172e-08
74	0x3239a4cf	1.080589e-08
75	0x3248856e	1.1671871e-08
76	0x32508a63	1.2138659e-08
77	0x324a9e21	1.1793902e-08
78	0x33412d0f	4.4977295e-08
79	0x33449ba1	4.577635e-08
80	0x33464f9d	4.6172875e-08
81	0x33487faf	4.6682256e-08
82	0x3354c381	4.9537906e-08
83	0x335d7c5f	5.1568687e-08
84	0x3339a4cf	4.322356e-08
85	0x3348856e	4.6687482e-08
86	0x33508a63	4.8554636e-08
87	0x334a9e21	4.7175607e-08
88	0x31930ee8	4.2799577e-09
89	0x31651fed	3.3342034e-09
90	0x315bd0c4	3.1987364e-09
91	0x31458f31	2.8748668e-09
92	0x31c1c373	5.6392593e-09
93	0x31875353	3.93849e-09
94	0x318fde72	4.187137e-09
95	0x317cfa99	3.6813275e-09
96	0x310d3c59	2.0552504e-09
97	0x318f5130	4.1710777e-09
98	0x311e396e	2.302467e-09
99	0x31aace84	4.9711293e-09
100	0x325bd0c4	1.27949455e-08
101	0x32458f31	1.1499467e-08
102	0x32c1c373	2.2557037e-08
103	0x32875353	1.575396e-08
104	0x328fde72	1.6748547e-08
105	0x327cfa99	1.472531e-08
106	0x320d3c59	8.221002e-09
107	0x328f5130	1.668431e-08
108	0x321e396e	9.209868e-09
109	0x32aace84	1.9884517e-08
110	0x32ea134c	2.724996e-08
111	0x338b4088	6.48443e-08
112	0x32959ed6	1.7418113e-08
113	0x3286dede	1.5701001e-08
114	0x325f458f	1.2996124e-08
115	0x329669cd	1.7510411e-08
116	0x3289583a	1.598902e-08
117	0x32af761c	2.0426391e-08
118	0x32a29fcc	1.893195e-08
119	0x329f6f8d	1.8560764e-08
120	0x32a6aea3	1.9404359e-08
121	0x32a8638d	1.9603045e-08
122	0x33959ed6	6.967245e-08
123	0x3386dede	6.2804006e-08
124	0x335f458f	5.1984497e-08
125	0x339669cd	7.0041644e-08
126	0x3389583a	6.395608e-08
127	0x33af761c	8.1705565e-08
128	0x33a29fcc	7.57278e-08
129	0x339f6f8d	7.4243054e-08
130	0x33a6aea3	7.7617436e-08
131	0x33a8638d	7.841218e-08
132	0x2df3ee81	2.7731819e-11
133	0x2dd74e46	2.447743e-11
134	0x30f152c8	1.7558586e-09
135	0x2afe191a	4.5136881e-13
136	0x2b86d6bf	9.580877e-13
137	0x2a9cf54f	2.7881384e-13
138	0x2c0d2ca1	2.006208e-12
139	0x30f232bb	1.7622236e-09
140	0x29b16164	7.8772736e-14
141	0x2b9a0547	1.0943823e-12
142	0x2b1fcd82	5.6773347e-13
143	0x2a72fbe1	2.1581306e-13
144	0x31f152c8	7.0234343e-09
145	0x2bfe191a	1.8054753e-12
146	0x2c86d6bf	3.8323507e-12
147	0x2b9cf54f	1.1152553e-12
148	0x2d0d2ca1	8.024832e-12
149	0x31f232bb	7.0488944e-09
150	0x2ab16164	3.1509094e-13
151	0x2c9a0547	4.377529e-12
152	0x2c1fcd82	2.2709339e-12
153	0x2b72fbe1	8.6325223e-13
154	0x2f01b46f	1.1796585e-10
155	0x2f82f25c	2.381907e-10
156	0x2a8ca46a	2.498308e-13
157	0x2b04e013	4.7206786e-13
158	0x2ba66800	1.1823875e-12
159	0x2af78950	4.3971294e-13
160	0x2c3c2f4b	2.674266e-12
161	0x2ad916f2	3.8562865e-13
162	0x2aba34cb	3.307687e-13
163	0x2a071ec1	1.2001079e-13
164	0x2a95bbc2	2.6598e-13
165	0x2a8aac36	2.463322e-13
166	0x2b8ca46a	9.993232e-13
167	0x2c04e013	1.8882714e-12
168	0x2ca66800	4.72955e-12
169	0x2bf78950	1.7588517e-12
170	0x2d3c2f4b	1.0697064e-11
171	0x2bd916f2	1.5425146e-12
172	0x2bba34cb	1.3230748e-12
173	0x2b071ec1	4.8004314e-13
174	0x2b95bbc2	1.06392e-12
175	0x2b8aac36	9.853288e-13
176	0x2fb873f6	3.35518e-10
177	0x3025d603	6.033078e-10
178	0x2f82cc24	2.3791913e-10
179	0x30b50175	1.3169897e-09
180	0x2fc77070	3.627778e-10
181	0x2f3dd25d	1.7264186e-10
182	0x2f8b16c7	2.5300137e-10
183	0x2f1c3e26	1.4210197e-10
184	0x2f243322	1.4933879e-10
185	0x2f71e00f	2.1998424e-10
186	0x2f8e9a32	2.5939212e-10
187	0x2f8cc3b2	2.5604902e-10
188	0x3082cc24	9.516765e-10
189	0x31b50175	5.267959e-09
190	0x30c77070	1.4511112e-09
191	0x303dd25d	6.9056744e-10
192	0x308b16c7	1.0120055e-09
193	0x301c3e26	5.684079e-10
194	0x30243322	5.9735517e-10
195	0x3071e00f	8.7993696e-10
196	0x308e9a32	1.0375685e-09
197	0x308cc3b2	1.0241961e-09
198	0x2f24319a	1.4933335e-10
199	0x31fa3dc1	7.282978e-09
200	0x2eab9270	7.802192e-11
201	0x2e93e8cf	6.726141e-11
202	0x2f5001fa	1.8918192e-10
203	0x2f122919	1.3293223e-10
204	0x2eb36ff3	8.159864e-11
205	0x2ebb8bfe	8.528643e-11
206	0x2e5cf48e	5.0239417e-11
207	0x300018af	4.6601206e-10
208	0x2e08ca27	3.1102367e-11
209	0x2e915dce	6.6104996e-11
210	0x2fab9270	3.120877e-10
211	0x2f93e8cf	2.6904565e-10
212	0x305001fa	7.567277e-10
213	0x30122919	5.3172894e-10
214	0x2fb36ff3	3.2639455e-10
215	0x2fbb8bfe	3.4114572e-10
216	0x2f5cf48e	2.0095767e-10
217	0x310018af	1.8640482e-09
218	0x2f08ca27	1.2440947e-10
219	0x2f915dce	2.6441999e-10
220	0x2ebfe3ad	8.726118e-11
221	0x2e80ef31	5.863255e-11
222	0x30c862fd	1.4580049e-09
223	0x2be9f4f5	1.6623635e-12
224	0x2ca8546e	4.7842208e-12
225	0x2b7fa4f1	9.08231e-13
226	0x2c38d61e	2.6266832e-12
227	0x30c95553	1.4648925e-09
228	0x2bee7c76	1.6945462e-12
229	0x2bb1ada8	1.2624806e-12
230	0x2ba33fb9	1.1599533e-12
231	0x2c512b4f	2.9724727e-12
232	0x31c862fd	5.8320198e-09
233	0x2ce9f4f5	6.649454e-12
234	0x2da8546e	1.9136883e-11
235	0x2c7fa4f1	3.632924e-12
236	0x2d38d61e	1.0506733e-11
237	0x31c95553	5.85957e-09
238	0x2cee7c76	6.778185e-12
239	0x2cb1ada8	5.0499223e-12
240	0x2ca33fb9	4.6398133e-12
241	0x2d512b4f	1.1889891e-11
242	0x32d05d99	2.425695e-08
243	0x3386cb0c	6.276795e-08
244	0x326a9b0b	1.3655845e-08
245	0x323ff933	1.1174325e-08
246	0x3254e8a5	1.2392921e-08
247	0x326e8c8a	1.3885378e-08
248	0x325a182f	1.2694769e-08
249	0x32842e94	1.5388004e-08
250	0x32419d48	1.126984e-08
251	0x32446da2	1.1433629e-08
252	0x3233691f	1.0443073e-08
253	0x325398d0	1.2316562e-08
254	0x336a9b0b	5.462338e-08
255	0x333ff933	4.46973e-08

exp_avg f4 [32]
0	0x328bbc29	1.6267295e-08
1	0x108b97af	5.505954e-29
2	0x399276ec	0.00027935894
3	0xba70dbcb	-0.0009188025
4	0xb6977ce6	-4.5146908e-06
5	0x38427414	4.636131e-05
6	0x821a322f	-1.1328535e-37
7	0x23c0d2d8	2.0905978e-17
8	0x99f51ab7	-2.5343196e-23
9	0xb5519223	-7.8071224e-07
10	0x221f48b4	2.1587007e-18
11	0x37b4f654	2.1572378e-05
12	0xb99e3f92	-0.00030183472
13	0x34898a3e	2.5618823e-07
14	0xb3fba21b	-1.1717585e-07
15	0xad50bd71	-1.18654956e-11
16	0x37910886	1.7289316e-05
17	0xb5fee48a	-1.8990988e-06
18	0xb96bb7d6	-0.0002247983
19	0x382cdb6d	4.121235e-05
20	0x3888dcda	6.526122e-05
21	0x39ab9ea4	0.00032733858
22	0x39f0e7b6	0.00045949005
23	0x3a07a2f4	0.0005174123
24	0x3980d3d5	0.0002457189
25	0xba08bf2a	-0.0005216474
26	0x273b9e5d	2.6037312e-15
27	0x3908741c	0.00013013225
28	0xb98db78f	-0.00027030378
29	0xb63a9928	-2.7805308e-06
30	0x3a314043	0.000676159
31	0x2e37687b	4.170218e-11

exp_avg_sq f4 [32]
0	0x335c2bc2	5.126254e-08
1	0x308e5db5	1.0358493e-09
2	0x34991a68	2.8517684e-07
3	0x362a828f	2.540797e-06
4	0x34529ebe	1.9615524e-07
5	0x36561fde	3.1907034e-06
6	0x2f39e8e9	1.6908398e-10
7	0x2e0f3804	3.2564187e-11
8	0x3241e8e1	1.1287029e-08
9	0x32d0066f	2.4217313e-08
10	0x2fa14677	2.9335798e-10
11	0x362f2885	2.6100618e-06
12	0x36726f5c	3.612563e-06
13	0x2fac506a	3.1343755e-10
14	0x33d9f13f	1.0148732e-07
15	0x310b37af	2.0258815e-09
16	0x3803a3ba	3.1385316e-05
17	0x33e253f6	1.05392175e-07
18	0x365e63cc	3.3138667e-06
19	0x350439f6	4.9258176e-07
20	0x33ec92f8	1.101634e-07
21	0x35bd8d7c	1.4122775e-06
22	0x3637f8d5	2.7413964e-06
23	0x36535c2e	3.1495106e-06
24	0x37863b5b	1.6001684e-05
25	0x371c4a55	9.315631e-06
26	0x329d5052	1.8313731e-08
27	0x3689da91	4.1083626e-06
28	0x34974fb7	2.8183942e-07
29	0x34e2947c	4.2203817e-07
30	0x36689390	3.4656587e-06
31	0x315b30b1	3.1896372e-09
