checkpoints/MLP_bs32_lr0.001_win50-30-20_vTrue_scTrue_ep1.pth (torch, 178894 bytes, 24 tensors)

layer1.weight f4 [32, 22]
0.092250906 -0.07723732 -0.018646307 0.04962554 0.7001542 -0.6290823 -0.2947676 -0.08329916
0.10587858 -0.21872379 0.14280428 0.27914184 0.14913289 0.037724793 0.66814864 -0.47194275
-0.042340122 -0.0012744562 0.13528019 -0.36175215 -0.17692594 0.11444863 0.04063943 -0.0961477
-0.19136837 -0.058674008 -0.046173133 0.24630547 0.23592845 0.12806074 0.06960803 -0.31569996
-0.025697086 0.6496651 -0.21554837 -0.44789684 -0.14970094 0.14046146 0.11085426 -0.13462244
-0.19606796 -0.15617935 0.13504471 0.8422576 0.1487895 -0.06541695 -0.42876488 0.3228056
0.41650495 0.23776624 -0.5805059 0.1006347 -0.87572664 0.19124423 0.5007246 0.25698042
-0.4077913 0.2843137 0.43952164 -0.17435354 -0.31347197 0.0058211773 -0.64191216 -0.0066950587
0.67183083 0.46856555 0.040398568 -0.007698377 -0.056286637 -0.5638998 -0.11712389 0.15256937
0.16345744 0.15602306 -0.5840452 0.07805599 0.1565587 -0.13273562 0.1626913 -0.62632555
0.08092403 0.2355474 0.52906877 0.043351464 -0.35547832 0.058361962 0.3328596 -0.10715893
-0.10467819 -0.08908949 0.29301602 0.14097147 -0.3452694 -0.42082393 0.095123515 0.24578959
0.58571213 0.12082116 -0.057814233 -0.016161455 0.1921179 0.02061612 -0.38392422 -0.32096064
-0.281838 0.006093437 0.584471 0.41714403 -0.17369299 0.027609471 0.009793555 -0.045463458
-0.7477701 -0.079836935 -0.14837363 0.039519157 0.16000149 -0.101160474 0.28343952 0.14315636
-0.120703675 0.5930534 -0.7686175 0.09284674 -0.062272906 -0.00072285277 0.3072947 -0.090867005
-0.045845337 0.25693518 -0.28635246 0.46248645 0.3143892 0.008297845 -0.27960458 0.5722931
0.44901687 0.5161165 0.41285482 0.27054918 0.10103065 -0.23074408 0.16224162 -0.60298216
-0.39925808 0.5264266 0.35921526 0.37294832 0.54783285 0.25533786 -0.22360934 -0.14633156
-0.077105455 -0.6226076 0.04046943 0.18006639 0.04842042 0.55222195 0.16400331 0.06788132
-0.16093217 -0.5184501 0.067368425 0.33715475 0.18352199 -0.508659 0.06513079 0.48941353
0.4201101 0.016191918 0.11481292 -0.43925184 0.056377746 0.25195578 -0.11173736 -0.5925418
-0.13649489 -0.039739154 -0.33534798 -0.25675228 0.06494026 0.06299378 -0.16372856 0.044138245
0.035754994 -0.09437675 -0.0414625 -0.1683326 -0.43145412 -0.13786097 -0.04878839 0.19121802
0.06112857 0.04165602 -0.15011626 -0.16360472 -0.07500258 -0.35128307 0.11761263 -0.015788523
-0.38178214 -0.4052338 0.10426622 0.047563024 0.17000791 0.027811075 0.09525383 -0.44753805
-0.09244756 -0.16167189 -0.45456937 -0.1282864 0.18184891 0.28068125 0.4749463 -0.24355184
0.14077792 -0.49058115 -0.15851964 -0.042233188 0.056918815 -0.12221665 -0.07410728 -0.82758373
0.100647874 0.04983461 0.43199927 0.21621865 -0.1293423 -0.3691191 0.093409896 0.20563997
0.01863002 -0.70145243 0.35159808 0.10909844 0.37547565 0.24383223 -0.10551541 -0.056990538
0.042728573 0.19768539 -0.07085893 -0.061038017 -0.035555005 -0.1811065 0.3662548 0.50630516
0.06304476 -0.22178648 0.064528234 -0.022845771 -0.43426332 0.46056047 0.071625024 -0.1859481
00000000: 0bee bc3d 9a2e 9ebd 24c0 98bc 2644 4b3d
00000010: 4e3d 333f 8a0b 21bf c7eb 96be c098 aabd
00000020: ded6 d83d 21f9 5fbe 493b 123e aeeb 8e3e
00000030: 4bb6 183e 5085 1a3d ca0b 2b3f 7ba2 f1be
00000040: d66c 2dbd a70b a7ba e486 0a3e 9437 b9be
00000050: 132c 35be 0b64 ea3d 8875 263d 16e9 c4bd
00000060: 12f6 43be 2854 70bd 0a20 3dbd 8037 7c3e
00000070: 3a97 713e 5b22 033e a88e 8e3d 6da3 a1be
00000080: b282 d2bc 7450 263f b6b8 5cbe bc52 e5be
00000090: 344b 19be 21d5 0f3e 8f07 e33d 77da 09be
000000a0: 0ac6 48be 7bed 1fbe 2949 0a3e 329e 573f
000000b0: 465c 183e 52f9 85bd 1287 dbbe c746 a53e
000000c0: 2340 d53e fe78 733e 099c 14bf 9119 ce3d
000000d0: 9f2f 60bf 87d5 433e 7d2f 003f f092 833e
000000e0: 05ca d0be 9191 913e fb08 e13e bc89 32be
000000f0: 667f a0be 93bf be3b 5b54 24bf 3962 dbbb
00000100: 1bfd 2b3f d3e7 ef3e f878 253d ab42 fcbb
00000110: d18c 66bd bd5b 10bf a6de efbd 253b 1c3e
00000120: 6361 273e 82c4 1f3e fc83 15bf d2db 9f3d
00000130: ed50 203e d9eb 07be 8c98 263e df56 20bf
00000140: 7fbb a53d 5633 713e 0d71 073f 4e91 313d
00000150: 4101 b6be f40c 6f3d 936c aa3e 2476 dbbd
00000160: 8561 d6bd 8d74 b6bd 3206 963e d35a 103e
00000170: 27c7 b0be 3c76 d7be 1ed0 c23d 44b0 7b3e
00000180: 3bf1 153f 1671 f73d 9ece 6cbd 0765 84bc
00000190: 8eba 443e 23e3 a83c b791 c4be f454 a4be
000001a0: 124d 90be 74ab c73b e49f 153f e793 d53e
000001b0: 93dc 31be 422d e23c 2675 203c e437 3abd
000001c0: dc6d 3fbf 8c81 a3bd 42ef 17be d7de 213d
000001d0: 6ed7 233e 392d cfbd fc1e 913e 9597 123e
000001e0: 7d33 f7bd 59d2 173f 1ec4 44bf 6e26 be3d
000001f0: e011 7fbd d47d 3dba bb55 9d3e 7b18 babd
00000200: 52c8 3bbd 028d 833e ca9c 92be 06cb ec3e
00000210: 9ff7 a03e aff3 073c 5528 8fbe cd81 123f
00000220: 8ae5 e53e 3620 043f b561 d33e 6c85 8a3e
00000230: 28e9 ce3d 2d48 6cbe ab22 263e 0a5d 1abf
00000240: 8e6b ccbe e5c3 063f 10eb b73e 15f3 be3e
00000250: c63e 0c3f a5bb 823e d9f9 64be f1d7 15be
00000260: 77e9 9dbd 3663 1fbf 46c3 253d 5363 383e
00000270: 7e54 463d 6b5e 0d3f 7cf0 273e 5d05 8b3d
00000280: 67cb 24be 25b9 04bf 75f8 893d 8c9f ac3e
00000290: 30ed 3b3e 7a37 02bf 4b63 853d 6994 fa3e
000002a0: ac18 d73e eaa4 843c 0923 eb3d 9ee5 e0be
000002b0: 5aec 663d 5900 813e 8fd6 e4bd d2b0 17bf
000002c0: 51c5 0bbe 86c5 22bd bbb2 abbe 0975 83be
000002d0: 66ff 843d e202 813d 76a8 27be 4eca 343d
000002e0: d473 123d 9948 c1bd 95d4 29bd 625f 2cbe
000002f0: 8ee7 dcbe 6d2b 0dbe 56d6 47bd a8ce 433e
00000300: f461 7a3d 819f 2a3d 14b8 19be ff87 27be
00000310: f49a 99bd 60db b3be e4de f03d ef56 81bc
00000320: f378 c3be ce7a cfbe 8789 d53d 72d1 423d
00000330: 8e16 2e3e 0dd4 e33c 7114 c33d b523 e5be
00000340: 2555 bdbd 518d 25be 51bd e8be 835d 03be
00000350: 9a36 3a3e 74b5 8f3e 292c f33e a765 79be
00000360: 1628 103e 742d fbbe f952 22be b5fc 2cbd
00000370: b423 693d b94c fabd 8fc5 97bd 87dc 53bf
00000380: 7920 ce3d 601f 4c3d 022f dd3e 6c68 5d3e
00000390: 4f72 04be 2efd bcbe b04d bf3d 4993 523e
000003a0: fc9d 983c 6392 33bf aa04 b43e 016f df3d
000003b0: 583e c03e 28af 793e 7718 d8bd e96e 69bd
000003c0: 2804 2f3d 0a6e 4a3e 7d1e 91bd 0003 7abd
000003d0: 20a2 11bd fb73 39be c085 bb3e 379d 013f
000003e0: 9c1d 813d ff1b 63be 6127 843d 0e27 bbbc
000003f0: c357 debe 95ce eb3e 24b0 923d 2e69 3ebe

layer1.bias f4 [32]
-0.4687031 -0.43398944 -0.09124817 0.18312229 -0.5013387 0.20748259 -0.19900958 -0.45967135
0.17880279 -0.49803987 -0.43995687 0.02597309 0.20976591 -0.35877663 -0.6209269 -0.55641615
0.103057206 0.2127158 0.05495636 -0.030468807 -0.3912044 -0.13816875 0.11893909 0.14220385
-0.13789868 0.2194794 -0.3934758 0.12385291 -0.20799908 -0.14027837 0.17537078 -0.4610308
00000000: daf9 efbe dd33 debe 52e0 babd 6984 3b3e
00000010: bc57 00bf 5176 543e 2bc9 4bbe 0b5a ebbe
00000020: 1418 373e 15ff febe 0742 e1be 85c5 d43c
00000030: e0cc 563e 92b1 b7be 11f5 1ebf 4a71 0ebf
00000040: a80f d33d 2cd2 593e ec19 613d b899 f9bc
00000050: f14b c8be 1c7c 0dbe 5696 f33d e39d 113e
00000060: 5035 0dbe 35bf 603e a975 c9be 98a6 fd3d
00000070: b6fd 54be 22a5 0fbe 6694 333e 3b0c ecbe

layer2.weight f4 [64, 32]
-0.32590553 -0.2825654 0.066119954 -0.24975221 0.023007896 0.24235685 0.084555775 -0.27931055
-0.39966735 -0.3001081 -0.19994444 0.01200635 -0.4276158 -0.19397208 -0.6007525 -0.37293008
-0.1124539 -0.41482082 -0.4193374 -0.24442206 -0.16078882 -0.123892225 -0.09210585 -0.6801745
-0.049738508 -0.116712786 -0.10225734 -0.09606949 0.035918515 0.087478206 0.10299878 -0.51098365
-0.14502613 -0.05898211 -0.12517098 0.062213104 -0.17355508 -0.30823353 0.15992768 -0.101072475
0.009887215 -0.41580164 -0.13548975 -0.6433651 -0.4646626 -0.21226622 -0.33375502 -0.41851035
-0.5613329 -0.22043413 -0.038193353 -0.015879007 -0.09475977 -0.011089151 -0.30023342 -0.105664454
0.023103628 -0.002804908 -0.009732427 -0.25323027 0.17578773 0.03763791 -0.09574732 -0.11398319
-0.10009332 -0.08735757 0.24766319 0.19040973 -0.037460156 -0.5927555 0.020645982 -0.03646712
0.44872227 -0.3292469 -0.6257774 0.6416717 0.09386257 -0.09424236 -0.30546135 -0.8516105
-0.25577098 0.274387 -0.14090273 -0.5151208 0.012863614 0.11325144 -0.23131193 -0.86140746
0.25150037 -0.17443952 0.33818412 0.57624334 0.58866435 -0.2003567 -0.22655533 -0.34432653
-0.16091649 -0.25890043 0.078308605 -0.40013298 0.20488414 0.10421635 -0.05445365 -0.38430405
-0.039666273 -0.10927716 0.0031869689 0.05730056 0.056666102 -0.6521943 -0.05046607 -0.009421882
-0.028460996 0.12392178 -0.06726983 -0.12855373 0.21263964 -0.3951617 0.3525659 -0.2592799
-0.021241564 -0.11891021 0.0051767775 0.20607989 0.2643075 -0.17036721 0.8186341 -0.3579169
0.2792931 0.3747325 0.358613 0.01490294 -0.031029267 -0.0008480897 0.39523694 0.52525157
0.2043422 0.40568674 0.6601166 0.60666 -0.36549017 0.31397465 0.5065927 0.43337893
0.38062212 0.1788254 0.29235217 0.0043472066 0.13869664 0.4604236 0.018425338 0.058526866
0.13369472 0.03460418 0.48932093 -0.07548195 0.30821672 0.3416142 -0.24556512 0.555643
-0.28518802 -0.06033007 -0.13317414 -0.047142327 0.11779865 -0.106632054 -0.4159139 -0.20730457
-0.26474467 0.1316701 -0.30175957 -0.24630614 -0.67254996 0.2690369 -0.42057818 0.13115779
-0.0566878 -0.65101576 -0.47502053 0.016083881 -0.2986949 -0.013142929 -0.27338427 -0.4302552
-0.22911604 0.06872445 0.059462164 -0.017459918 0.109194614 -0.11675661 -0.24202064 -0.17495282
-0.48693073 -0.23894306 0.15007955 0.122971185 -0.3702913 -0.12782803 0.106645495 -0.03294565
-0.514376 -0.20598191 -0.44065464 -0.066934176 -0.45714548 0.39797163 -0.5048864 -0.05368758
0.12190169 -0.070479065 0.06855615 -0.34625354 -0.29987854 -0.25664565 -0.9400546 -0.35216573
-0.2696249 -0.29187593 -0.2550151 -0.38106105 -0.020538718 0.103242874 -0.23945892 0.06237756
-0.11183944 0.36834285 0.17790975 -0.19088016 0.18732072 -0.116732925 0.0068857083 -0.29616842
0.014546672 -0.10381799 -0.1924019 -0.073715456 -0.5143082 0.021709483 0.0021968267 0.14832303
-0.06767491 -0.5916721 -0.053548697 0.17096607 -0.39600042 0.025690742 -0.4117307 -0.45505765
-0.18316363 -0.1821143 0.107981935 -0.09133126 -0.042401183 -0.09567805 -0.4986411 0.1072215
00000000: 17dd a6be 69ac 90be e669 873d 0bbf 7fbe
00000010: 0e7b bc3c 652c 783e 942b ad3d cb01 8fbe
00000020: 33a1 ccbe c5a7 99be 3cbe 4cbe 48b6 443c
00000030: 75f0 dabe 9ea0 46be eaca 19bf b1f0 bebe
00000040: 3b4e e6bd 6563 d4be 64b3 d6be c749 7abe
00000050: d3a5 24be 35bb fdbd fea1 bcbd eb1f 2ebf
00000060: 9bba 4bbd 1d07 efbd 4c6c d1bd 15c0 c4bd
00000070: 4b1f 133d c627 b33d 06f1 d23d d3cf 02bf
00000080: bb81 14be 3a97 71bd d22c 00be 2bd3 7e3d
00000090: 6cb8 31be c9d0 9dbe 15c4 233e 16ff cebd
000000a0: fcfd 213c f4e3 d4be d3bd 0abe 93b3 24bf
000000b0: 42e8 edbe 515c 59be f0e1 aabe fd46 d6be
000000c0: 83b3 0fbf 7cb9 61be a270 1cbd b114 82bc
000000d0: 6911 c2bd 45af 35bc 32b8 99be 9b66 d8bd
000000e0: d243 bd3c 8cd2 37bb c274 1fbc 66a7 81be
000000f0: b301 343e 362a 1a3d 2c17 c4bd 0570 e9bd
00000100: bafd ccbd 87e8 b2bd 6b9b 7d3e c5fa 423e
00000110: d26f 19bd d3be 17bf c321 a93c 8c5e 15bd
00000120: edbe e53e 0d93 a8be f332 20bf 9944 243f
00000130: 053b c03d 2302 c1bd 6e65 9cbe 2503 5abf
00000140: 6af4 82be 747c 8c3e ce48 10be f5de 03bf
00000150: e8c1 523c 5ff0 e73d 09dd 6cbe 3385 5cbf
00000160: a8c4 803e 46a0 32be 7826 ad3e af84 133f
00000170: b5b2 163f 4f2a 4dbe 1ffe 67be 914b b0be
00000180: 4bc7 24be 998e 84be 4360 a03d 3bde ccbe
00000190: 26cd 513e 626f d53d ca0a 5fbd 80c3 c4be
000001a0: 1a79 22bd b4cc dfbd 77dc 503b feb3 6a3d
000001b0: b71a 683d 35f6 26bf 83b5 4ebd 3d5e 1abc
000001c0: 0927 e9bc b4ca fd3d c4c4 89bd 97a3 03be
000001d0: 35be 593e a252 cabe 8583 b43e 56c0 84be
000001e0: ca02 aebc 3287 f3bd f5a1 a93b 9b06 533e
000001f0: 5053 873e be74 2ebe 0192 513f e240 b7be
00000200: 81ff 8e3e f0dc bf3e 209c b73e 762b 743c
00000210: 1731 febc 5652 5eba 7f5c ca3e e376 063f
00000220: 153f 513e 2cb6 cf3e 67fd 283f 124e 1b3f
00000230: 8721 bbbe 49c1 a03e 0fb0 013f d8e3 dd3e
00000240: e7e0 c23e 011e 373e 2faf 953e 0373 8e3b
00000250: 7e06 0e3e a4bc eb3e bcf0 963c deb9 6f3d
00000260: 45e7 083e 1dbd 0d3d 4688 fa3e 4896 9abd
00000270: 95ce 9d3e 0ee8 ae3e 6c75 7bbe 9f3e 0e3f
00000280: 2a04 92be aa1c 77bd cd5e 08be 5018 41bd
00000290: 6b40 f13d e861 dabd abf2 d4be a647 54be
000002a0: 9d8c 87be 87d4 063e 3b80 9abe ad37 7cbe
000002b0: 3c2c 2cbf 34bf 893e 0656 d7be 3a4e 063e
000002c0: 7731 68bd f8a8 26bf e435 f3be 58c2 833c
000002d0: 8aee 98be 7155 57bc 06f9 8bbe 694a dcbe
000002e0: 659d 6abe 68bf 8c3d 998e 733d 1a08 8fbc
000002f0: 6da1 df3d 171e efbd 42d4 77be d526 33be
00000300: fc4e f9be 7dad 74be 74ae 193e 51d8 fb3d
00000310: d296 bdbe 5ae5 02be f468 da3d 05f2 06bd
00000320: 25ae 03bf ecec 52be 7c9d e1be c914 89bd
00000330: f90e eabe f0c2 cb3e 3c40 01bf 82e7 5bbd
00000340: 98a7 f93d 5457 90bd 2b67 8c3d 2548 b1be
00000350: ae89 99be 0f67 83be 6ba7 70bf 114f b4be
00000360: 460c 8abe c370 95be 5791 82be 6f1a c3be
00000370: d040 a8bc 0071 d33d b834 75be 9d7f 7f3d
00000380: 140c e5bd 6f97 bc3e f92d 363e 1776 43be
00000390: 01d1 3f3e ac11 efbd 82a1 e13b 63a3 97be
000003a0: 2a55 6e3c 879e d4bd 0105 45be 21f8 96bd
000003b0: b4a9 03bf 16d8 b13c a3f8 0f3b fee1 173e
000003c0: 2599 8abd d377 17bf e155 5bbd bb11 2f3e
000003d0: 91c0 cabe 6475 d23c 5ece d2be 51fd e8be
000003e0: 3f8f 3bbe 2c7c 3abe a225 dd3d e20b bbbd
000003f0: ddac 2dbd daf2 c3bd e34d ffbe f296 db3d

layer2.bias f4 [64]
-0.20330267 -0.078646384 -0.13900892 0.094604194 -0.81038576 -0.061775703 -0.30541745 -0.38296038
-0.31451863 0.056924902 -0.0047642365 -0.25252405 -0.057496596 -0.4022002 -0.18641613 -0.18449314
-0.07710874 0.08404995 -0.48211914 -0.17960912 -0.06597505 0.006350753 -0.16669779 0.08535211
-0.27398187 -0.14703912 -0.2119702 -0.15439555 0.17449686 -0.16786784 -0.10733871 -0.08994421
-0.26367754 0.0066606775 -0.08681515 -0.043356273 -0.006261883 -0.31533533 -0.08313741 0.27416945
-0.20303908 0.10325663 -0.15423873 -0.11856803 -1.0490838 0.0076111653 0.029726425 0.001340042
-0.66408455 -0.17551371 -0.57240146 -0.22613071 0.06464014 -0.16108361 -0.10304166 -0.0997782
0.10672324 0.015969139 -0.006037889 -0.254541 -0.086305484 -0.12140485 -0.08150739 0.003206992
00000000: 932e 50be 5b11 a1bd 5b58 0ebe d8bf c13d
00000010: 7175 4fbf 8508 7dbd ad5f 9cbe 6213 c4be
00000020: 9608 a1be 162a 693d 501d 9cbb d54a 81be
00000030: 8d81 6bbd 2fed cdbe dfe3 3ebe c5eb 3cbe
00000040: 30eb 9dbd 6122 ac3d 52d8 f6be 74eb 37be
00000050: ed1d 87bd fa19 d03b d3b2 2abe 16cd ae3d
00000060: 5a47 8cbe 6c91 16be b70e 59be de19 1ebe
00000070: 4eaf 323e 8ce5 2bbe 66d4 dbbd ac34 b8bd
00000080: be00 87be d041 da3b 24cc b1bd 5996 31bd
00000090: 7b30 cdbb a273 a1be f243 aabd f05f 8c3e
000000a0: 7ae9 4fbe 3678 d33d c2f0 1dbe ccd3 f2bd
000000b0: 6148 86bf 1567 f93b d584 f33c 59a4 af3a
000000c0: 7201 2abf deb9 33be e788 12bf cf8e 67be
000000d0: 0d62 843d 1af3 24be 8107 d3bd 8358 ccbd
000000e0: b791 da3d b6d1 823c 7cd9 c5bb 3353 82be
000000f0: eec0 b0bd 1ba3 f8bd 59ed a6bd 662c 523b

layer3.weight f4 [128, 64]
-0.13772236 0.120135605 0.14409566 -0.867291 -0.27457047 0.25146753 -0.22828291 -0.040296413
-0.21850884 0.15548053 -0.61029905 0.04293887 -0.032348335 -0.40621412 0.027392713 -0.2859628
-0.052186962 0.23616791 -0.33591798 -0.014009637 0.026109854 -0.49521476 -0.16466346 -0.14598115
-0.077093706 -0.21357049 -0.18303855 0.2884936 -0.36332363 -0.052848984 -0.14269939 -0.032268185
-0.12492206 -0.715916 0.04380781 -0.56905526 -0.7288483 -0.19788772 0.23382576 -0.10325222
0.11789387 0.027950004 -0.059927046 0.024384603 -0.24780858 -0.13528249 -0.00923665 0.26454645
-0.43498167 -0.056265347 -0.7630475 -0.0039957515 -0.2725518 0.20866492 0.0413008 -0.22229457
-0.054148864 -0.39763603 -0.006563846 0.03857537 0.1076744 0.05621176 -0.16514733 -0.27060625
0.05127171 -0.08065166 -0.23001185 -0.1321274 -0.15998979 -0.15971325 0.009204527 -0.004740711
-0.12348473 0.07475433 -0.28578028 -0.086582296 0.0027253926 0.06300629 0.021821484 0.035974182
-0.018228345 -0.36656424 -0.06710876 0.049400877 0.013898395 -0.06509584 -0.29402643 -0.085620865
-0.008549432 -0.0690288 0.03285806 -0.104801394 0.053155594 -0.09205197 0.12479221 -0.04776821
-0.10880223 -0.1523856 -0.07274294 -0.02977553 -0.120721094 -0.06261891 0.0603669 -0.119214155
0.07548234 -0.061150376 0.055814408 -0.010805674 -0.034636855 -0.097827174 0.08479117 -0.003452011
0.074795246 0.06949545 0.05864242 0.06074152 -0.3002649 -0.12261358 -0.031192461 -0.11308985
-0.21090387 -0.111583926 0.03663365 0.012361949 -0.10630078 -0.07415216 -0.060976483 -0.10418628
-0.07225575 0.01647213 0.010410325 -0.012776819 -0.14174402 -0.071536586 -0.11917923 -0.00050423096
-0.12038848 0.107936844 -0.06374683 -0.21177976 -0.106594 0.03447018 0.12080983 -0.25528657
-0.0022559923 -0.050513692 0.079213336 0.050875045 -0.03407781 0.11392719 -0.12962337 -0.16335791
0.068498485 -0.045584887 -0.16947429 -0.05908865 0.032229032 -0.016475804 -0.09071051 0.042333513
0.05595708 -0.11154202 -0.07622077 -0.10243201 -0.090472504 -0.005533913 0.037098926 -0.13054554
-0.051486727 -0.08829478 0.108098075 0.046079293 0.018237554 -0.08368544 -0.2039301 -0.09722108
-0.12703173 -0.12680046 -0.0063684485 0.09184502 0.06689084 0.027199304 -0.0044314563 -0.13055113
-0.020494258 -0.025076272 -0.07528833 -0.12156907 -0.17798036 -0.02488324 -0.021983685 -0.08166727
-0.05944445 -0.038564175 -0.12717728 -0.015984712 -0.052057493 0.0042174 -0.011604637 0.073265634
0.027878374 -0.07570725 -0.03860517 -0.13639449 -0.043514706 0.08283874 -0.026854642 0.019501043
-0.1266472 -0.13684174 -0.056095786 -0.16397479 0.014283747 -0.108177885 -0.10547827 -0.055533316
0.020497747 0.009506673 -0.042416994 -0.08006985 -0.14868253 0.048695732 -0.15049633 -0.14602205
-0.069514 -0.15313637 -0.09291633 -0.13971223 -0.056968123 -0.08446333 -0.026680425 -0.003996122
0.09289936 -0.032751407 -0.0428811 -0.019866196 -0.00068162015 0.028751913 -0.064251594 -0.07675423
-0.0742385 0.10054152 -0.022372413 -0.09609248 -0.11484112 -0.044091146 -0.059609305 0.01685466
-0.087129295 -0.15596347 -0.05192589 0.02640956 0.01730326 0.13758428 0.020343771 -0.04056003
00000000: 1707 0dbe a809 f63d d08d 133e c806 5ebf
00000010: 8094 8cbe 5ac0 803e ffc2 69be da0d 25bd
00000020: c8c0 5fbe 4a36 1f3e 8f3c 1cbf abe0 2f3d
00000030: b07f 04bd 4cfb cfbe af66 e03c b769 92be
00000040: ffc1 55bd 00d6 713e 71fd abbe ad88 65bc
00000050: 55e4 d53c ca8c fdbe 8a9d 28be 157c 15be
00000060: 4ee3 9dbd 39b2 5abe 756e 3bbe 6fb5 933e
00000070: 8e05 babe 2d78 58bd ca1f 12be a52b 04bd
00000080: 23d7 ffbd 4546 37bf d16f 333d 9bad 11bf
00000090: cd95 3abf 14a3 4abe 0570 6f3e e675 d3bd
000000a0: 5772 f13d 68f7 e43c 1076 75bd 38c2 c73c
000000b0: 88c1 7dbe 7e87 0abe 5155 17bc a272 873e
000000c0: ebb5 debe 7e76 66bd 1557 43bf cbee 82bb
000000d0: e98b 8bbe 42ac 553e 072b 293d 30a1 63be
000000e0: 33cb 5dbd f396 cbbe 8815 d7bb 3501 1e3d
000000f0: 6584 dc3d 4d3e 663d 621c 29be e78c 8abe
00000100: 4902 523d b32c a5bd 3a88 6bbe 684c 07be
00000110: 5dd4 23be df8b 23be 96ce 163c f757 9bbb
00000120: 90e5 fcbd cc18 993d cb51 92be 0f52 b1bd
00000130: 809c 323b 7109 813d f8c2 b23c aa59 133d
00000140: 9c53 95bc 4fae bbbe 5170 89bd 9358 4a3d
00000150: 18b6 633c f850 85bd a28a 96be fe59 afbd
00000160: eb12 0cbc f95e 8dbd 2c96 063d 1da2 d6bd
00000170: aeb9 593d be85 bcbd 0f93 ff3d 99a8 43bd
00000180: b4d3 debd f90a 1cbe 40fa 94bd d0eb f3bc
00000190: 9f3c f7bd 583e 80bd 4843 773d 8d26 f4bd
000001a0: 7c96 9a3d d178 7abd a69d 643d 480a 31bc
000001b0: 60df 0dbd 9d59 c8bd fea6 ad3d 223b 62bb
000001c0: 402e 993d a153 8e3d 0933 703d 1acc 783d
000001d0: 52bc 99be d41c fbbd 5587 ffbc a79b e7bd
000001e0: 2ff7 57be 1d86 e4bd 2b0d 163d c689 4a3c
000001f0: 39b4 d9bd 16dd 97bd 7ac2 79bd 9e5f d5bd
00000200: d3fa 93bd 8ff0 863c 1190 2a3c dd55 51bc
00000210: 5825 11be c681 92bd 3d14 f4bd 5e2e 04ba
00000220: 3c8e f6bd fe0d dd3d b38d 82bd cbdc 58be
00000230: f44d dabd 9a30 0d3d 256b f73d ecb4 82be
00000240: 45d9 13bb 72e7 4ebd 9a3a a23d 5a62 503d
00000250: 2c95 0bbd a952 e93d fdbb 04be 4c47 27be
00000260: ef48 8c3d 38b7 3abd ab8a 2dbe f106 72bd
00000270: 9702 043d 44f8 86bc 6fc6 b9bd e865 2d3d
00000280: 4033 653d 2570 e4bd a319 9cbd e0c7 d1bd
00000290: a649 b9bd d455 b5bb 0bf5 173d bbad 05be
000002a0: bfe3 52bd e5d3 b4bd 8662 dd3d a4bd 3c3d
000002b0: ec66 953c 4663 abbd 0dd3 50be d81b c7bd
000002c0: 9b14 02be fbd7 01be 6bae d0bb 3e19 bc3d
000002d0: 11fe 883d 13d1 de3c c035 91bb 32af 05be
000002e0: 93e3 a7bc c16c cdbc c530 9abd 34f9 f8bd
000002f0: 7c40 36be f0d7 cbbc 2117 b4bc 2b41 a7bd
00000300: 067c 73bd 78f5 1dbd c33a 02be 5ff2 82bc
00000310: 3d3a 55bd 1e32 8a3b 6021 3ebc 4b0c 963d
00000320: 3061 e43c 670c 9bbd 7420 1ebd ffaa 0bbe
00000330: 7a3c 32bd 5ba7 a93d 44fe dbbc a7c0 9f3c
00000340: ceaf 01be 3e20 0cbe b2c4 65bd 02e9 27be
00000350: 6106 6a3c 5e8c ddbd fe04 d8bd e776 63bd
00000360: e4ea a73c e0c1 1b3c 71bd 2dbd a9fb a3bd
00000370: 3c40 18be 2d75 473d b61b 1abe ce86 15be
00000380: 5b5d 8ebd c8cf 1cbe eb4a bebd b910 0fbe
00000390: 6857 69bd 1cfb acbd e890 dabc e7f1 82bb
000003a0: 0542 be3d 5726 06bd 18a4 2fbd 6fbe a2bc
000003b0: c1ae 32ba 2289 eb3c 5796 83bd 5231 9dbd
000003c0: 5b0a 98bd b6e8 cd3d 5a46 b7bc 22cc c4bd
000003d0: d231 ebbd eb98 34bd e328 74bd c912 8a3c
000003e0: d870 b2bd e3b4 1fbe 3eb0 54bd dd58 d83c
000003f0: 91bf 8d3c e5e2 0c3e fba7 a63c 4622 26bd

layer3.bias f4 [128]
-0.10470285 -0.063252 -0.10827394 -0.008797978 -0.066615805 -0.09459924 -0.13022743 -0.10543686
-0.0816057 0.060054492 -0.09758695 -0.029391915 -0.068684876 -0.098861545 -0.09995665 -0.090671
-0.038018495 -0.12746355 -0.18305965 0.088831365 -0.054858256 -0.10088853 -0.16457407 -0.107015505
-0.034789257 -0.12864763 -0.26076782 0.1687123 -0.11739112 -0.1789631 -0.19743033 0.06622114
-0.062398996 -0.03308051 -0.044491753 -0.22726123 -0.16560924 0.15429474 -0.23108913 -0.17405549
-0.13205847 -0.12788056 -0.09604453 -0.10097455 0.11191926 -0.14869669 -0.1403812 -0.15141322
0.018233284 -0.18097536 -0.07407878 -0.09860774 -0.09692988 -0.14556137 -0.053147875 -0.13074474
-0.14593163 -0.08237574 -0.17393057 -0.14902444 -0.13701123 -0.019640632 -0.07511471 -0.19340329
-0.03302708 -0.10045263 -0.09296588 -0.06728794 -0.07065111 -0.0666024 -0.13816175 -0.14606982
-0.1209347 -0.09513502 -0.15356281 -0.100586675 -0.15691456 -0.17079471 -0.1206367 -0.11939285
0.2379108 -0.10914438 -0.16527338 0.19971237 -0.056351393 -0.12851982 -0.066978164 -0.17299482
0.0020146894 0.070419356 -0.083531536 -0.08720069 -0.10932905 0.07663686 -0.21192293 -0.06469134
-0.22960138 -0.112645805 -0.20140244 -0.07991098 -0.14105949 -0.1999791 -0.110335186 -0.14891188
-0.067085095 -0.12777214 -0.12843777 -0.016236885 -0.15254135 -0.028933257 -0.043832146 -0.13868707
-0.11606001 -0.047592506 -0.14304906 -0.097408876 -0.10188084 -0.07031305 -0.09848368 -0.1575174
-0.21372697 -0.075831756 -0.118812166 -0.12617756 -0.12769683 -0.10178637 -0.0936377 -0.13500069
00000000: 736e d6bd 448a 81bd babe ddbd 6525 10bc
00000010: de6d 88bd 3fbd c1bd 575a 05be 48ef d7bd
00000020: e420 a7bd b3fb 753d abdb c7bd 50c7 f0bc
00000030: a8aa 8cbd ec77 cabd 12b6 ccbd b8b1 b9bd
00000040: 48b9 1bbd ce85 02be fd73 3bbe 38ed b53d
00000050: 0db3 60bd a59e cebd 1b86 28be f22a dbbd
00000060: 2e7f 0ebd 34bc 03be 5c83 85be ebc2 2c3e
00000070: c16a f0bd 1a42 37be 2d2b 4abe f39e 873d
00000080: 1796 7fbd 6e7f 07bd fc3c 36bd 2bb7 68be
00000090: 7895 29be 71ff 1d3e a1a2 6cbe 9a3b 32be
000000a0: 563a 07be 1ff3 02be ffb2 c4bd bfcb cebd
000000b0: ed35 e53d f243 18be 17c0 0fbe 110c 1bbe
000000c0: f85d 953c 9b51 39be 9eb6 97bd dbf2 c9bd
000000d0: 2c83 c6bd 0a0e 15be 96b1 59bd f3e1 05be
000000e0: 1a6f 15be 9db4 a8bd db1a 32be dd99 18be
000000f0: ac4c 0cbe 64e5 a0bc bed5 99bd 830b 46be
00000100: 6747 07bd 1cba cdbd e564 bebd 42ce 89bd
00000110: 87b1 90bd d766 88bd 467a 0dbe 5493 15be
00000120: 9dac f7bd 26d6 c2bd 923f 1dbe 6300 cebd
00000130: 36ae 20be cfe4 2ebe 6010 f7bd 3d84 f4bd
00000140: e49e 733e 1787 dfbd 6d3d 29be 6681 4c3e
00000150: b8d0 66bd b39a 03be d92b 89bd 8e25 31be
00000160: e108 043b 0638 903d 9512 abbd 4696 b2bd
00000170: e9e7 dfbd c9f3 9c3d 5302 59be e57c 84bd
00000180: a01c 6bbe d8b2 e6bd 713c 4ebe 5ea8 a3bd
00000190: e671 10be 52c7 4cbe 6af7 e1bd 5b7c 18be
000001a0: e963 89bd b3d6 02be 3185 03be 3703 85bc
000001b0: cd33 1cbe 7005 edbc 5689 33bd fc03 0ebe
000001c0: dfb0 edbd 5cf0 42bd 747b 12be 4e7e c7bd
000001d0: e7a6 d0bd 4a00 90bd d0b1 c9bd 3e4c 21be
000001e0: 3edb 5abe ae4d 9bbd cb53 f3bd b134 01be
000001f0: f5c2 02be 5f75 d0bd 1fc5 bfbd 9f3d 0abe

layer4.weight f4 [22, 128]
-0.06579545 0.050054986 0.013420585 0.062455405 0.068792365 0.029963097 0.0110410955 -0.022025427
-0.06764967 0.1283007 -0.0152039975 -0.012919788 0.09691698 -0.10877486 -0.019498872 -0.07844042
-0.013981677 -0.06528261 -0.038038816 -0.004379182 -0.03513219 0.08100562 0.07070393 -0.06415595
0.0066585396 -0.012897752 -0.07822946 0.070339404 0.053575013 0.026066015 -0.05938485 -0.15574464
0.16184655 0.062983885 -0.05786376 0.10098 -0.22721441 -0.02348553 0.012952067 -0.07300763
0.05728023 -0.1116213 -0.016703034 0.0021830779 -0.0066449307 0.070931084 -0.06166567 0.02855718
0.013310659 0.019021366 -0.17490207 0.05542524 -0.4124613 -0.024876108 0.022606395 -0.28091666
0.031625282 0.09874142 -0.10116732 0.003294895 -0.041088104 0.06358148 0.0634567 0.014390031
-0.044959307 -0.042276718 -0.014627231 -0.009797284 -0.046443444 0.00016966365 0.062221024 0.04871055
0.013231667 -0.019281916 -0.0364657 -0.116765335 -0.047659956 0.02870251 0.059561644 -0.02367329
0.02089824 0.064825185 0.013551583 0.0013672903 -0.0769243 0.039420128 0.20195526 -0.09775337
-0.10411768 0.049867045 -0.02160244 0.03486867 0.09996859 0.012174395 -0.034734346 -0.078036584
0.028522823 -0.01155762 0.022378217 -0.018093687 -0.029555209 0.066955976 -0.011101114 0.08780539
-0.18787502 -0.06370231 0.052366376 0.08712101 -0.002287131 -0.010825455 0.02804805 -0.09624248
-0.0142897945 0.036222853 -0.03346782 -0.007852991 0.18236236 -0.011147477 -0.030495226 -0.34297237
0.03979719 0.036144666 -0.013460432 0.020450395 -0.00058028253 0.09440163 0.07137035 -0.13268483
-0.15903868 -0.032854695 -0.04955555 0.012499294 0.07072557 0.031650685 -0.017214904 0.011193852
-0.04074271 0.008041481 -0.051442005 0.026071414 0.15474974 0.17679062 0.07917049 0.023515102
0.037001144 0.113609925 0.09107118 0.018254753 0.052057024 0.092946276 -0.02903396 0.17152418
0.07247748 0.012204427 0.24966207 -0.23801865 -0.17230505 -0.02577843 -0.04043881 0.025856748
0.055280313 -0.046304595 -0.05297996 -0.13726856 0.12902007 -0.10440258 -0.049522277 0.0005678375
0.115355425 0.055062614 -0.023206096 -0.14241248 -0.068829395 0.23380123 0.09598911 0.0062006945
-0.010802562 0.032546207 -0.13116041 0.028465288 0.20851739 -0.018018343 0.15883681 -0.0598787
0.07224967 0.08381496 0.042708807 0.040535793 0.11577157 -0.033295978 0.050159857 -0.015353301
0.028681345 -0.00016190145 0.0112266075 -0.095929906 0.12672782 0.0962 -0.07218859 0.01635952
-0.20365413 -0.05733947 -0.0023627568 -0.011638671 0.027807908 -0.035601422 0.020150177 -0.09613584
-0.05221198 -0.047126457 0.12570573 -0.053084787 -0.05951356 -0.034692757 -0.2714979 0.01716465
0.20697783 0.08110682 0.026809605 0.05833407 -0.13364772 -0.027106138 0.07698204 -0.30793232
-0.054085273 -0.0031644672 -0.11013282 -0.046463996 0.09636351 -0.00039218672 0.038051773 0.12249846
0.12254351 -0.07688455 -0.049616 -0.10134797 0.015965693 0.081027046 0.00651509 -3.0699466e-05
-0.007492394 -0.01793296 0.00823087 -0.04674748 -0.122545496 0.008590427 0.114090554 -0.1087037
0.1241697 -0.057288755 0.16812302 -0.064859495 0.03677505 0.08527803 -0.13582064 0.037307538
00000000: c4bf 86bd 7506 4d3d 03e2 5b3c 3dd1 7f3d
00000010: 03e3 8c3d 2b75 f53c b6e5 343c ab6e b4bc
00000020: e98b 8abd 4261 033e 301a 79bc 85ad 53bc
00000030: 697c c63d 5bc5 debd 19bc 9fbc 5fa5 a0bd
00000040: 6713 65bc e4b2 85bd 97ce 1bbd 3e7f 8fbb
00000050: c5e6 0fbd 46e6 a53d 39cd 903d 3264 83bd
00000060: e12f da3b 1851 53bc c436 a0bd 1b0e 903d
00000070: 7971 5b3d 6588 d53c 873d 73bd 867b 1fbe
00000080: 1abb 253e b2fd 803d 8d02 6dbd 9ace ce3d
00000090: e5aa 68be ba64 c0bc e834 543c 0685 95bd
000000a0: ad9e 6a3d b599 e4bd cdd4 88bc f811 0f3b
000000b0: b8bd d9bb 5144 913d 2495 7cbd bff0 e93c
000000c0: f314 5a3c b2d2 9b3c 8719 33be 9405 633d
000000d0: 212e d3be fbc8 cbbc 0c31 b93c 4fd4 8fbe
000000e0: 8389 013d f138 ca3d d030 cfbd 2aef 573b
000000f0: 004c 28bd 0237 823d 96f5 813d 2ac4 6b3c
00000100: 4027 38bd 5a2a 2dbd 0ea7 6fbc ca84 20bc
00000110: 7b3b 3ebd bde7 3139 79db 7e3d b784 473d
00000120: a2c9 583c 1cf5 9dbc 0f5d 15bd aa22 efbd
00000130: 1637 43bd 8721 eb3c e9f6 733d 7dee c1bc
00000140: c932 ab3c 11c3 843d 7507 5e3c a636 b33a
00000150: 7d8a 9dbd 0077 213d 5ccd 4e3e eb32 c8bd
00000160: a63b d5bd 6341 4c3d 9af7 b0bc 73d2 0e3d
00000170: 55bc cc3d 1d77 473c 9a45 0ebd a5d1 9fbd
00000180: b2a8 e93c 2c5c 3dbc 8652 b73c 3639 94bc
00000190: c41d f2bc 3720 893d 72e1 35bc 50d3 b33d
000001a0: 4f62 40be 5b76 82bd 207e 563d 806c b23d
000001b0: b1e3 15bb 405d 31bc 06c5 e53c c71a c5bd
000001c0: be1f 6abc 6a5e 143d 8e15 09bd d5a9 00bc
000001d0: 33bd 3a3e e8a3 36bc 20d1 f9bc 139a afbe
000001e0: 6102 233d 6e0c 143d 2589 5cbc 9687 a73c
000001f0: 1a1e 18ba a455 c13d 9e2a 923d 88de 07be
00000200: 09db 22be a592 06bd c3fa 4abd d7c9 4c3c
00000210: 91d8 903d 26a4 013d 4506 8dbc 6b66 373c
00000220: d4e1 26bd 6ac0 033c dab4 52bd b893 d53c
00000230: b776 1e3e 9a08 353e 2324 a23d bea2 c03c
00000240: 838e 173d 52ac e83d 8783 ba3d fe8a 953c
00000250: bf39 553d 9e5a be3d a1d8 edbc 09a4 2f3e
00000260: 136f 943d 14f5 473c 6aa7 7f3e 29bb 73be
00000270: bc70 30be 492d d3bc 2aa3 25bd 88d1 d33c
00000280: 9c6d 623d e3a9 3dbd 8401 59bd 2190 0cbe
00000290: d61d 043e 05d1 d5bd dfd7 4abd eeda 143a
000002a0: 773f ec3d 5689 613d b61a bebc 94d4 11be
000002b0: 6df6 8cbd 9769 6f3e f095 c43d 322f cb3b
000002c0: 3bfd 30bc 2c4f 053d ea4e 06be 0930 e93c
000002d0: 9585 553e 349b 93bc 1ea6 223e 5e43 75bd
000002e0: a3f7 933d 2ea7 ab3d 6eef 2e3d dc08 263d
000002f0: a519 ed3d 5d61 08bd 6c74 4d3d 698c 7bbc
00000300: 24f5 ea3c 17c4 29b9 ceef 373c e676 c4bd
00000310: f0c4 013e 8104 c53d 9dd7 93bd 6604 863c
00000320: b58a 50be cbdc 6abd 7bd8 1abb 20b0 3ebc
00000330: 69cd e33c ccd2 11bd fc11 a53c dee2 c4bd
00000340: 3bdc 55bd ac07 41bd 01b9 003e 6f6f 59bd
00000350: 7ec4 73bd fe19 0ebd c601 8bbe e19c 8c3c
00000360: fff1 533e 551b a63d d19f db3c b5ef 6e3d
00000370: f3da 08be b10d debc c3a8 9d3d 4ea9 9dbe
00000380: 8588 5dbd f362 4fbb 518d e1bd 0851 3ebd
00000390: 3b5a c53d 699e cdb9 2ddc 1b3d 79e0 fa3d
000003a0: 17f8 fa3d a675 9dbd 263a 4bbd 868f cfbd
000003b0: 7cca 823c 82f1 a53d 897c d53b 4dc3 00b8
000003c0: c282 f5bb 25e8 92bc c5da 063c 497a 3fbd
000003d0: 22f9 fabd ddbe 0c3c 4fa8 e93d 0ca0 debd
000003e0: af4c fe3d 9da7 6abd 7128 2c3e 0ed5 84bd
000003f0: 6fa1 163d 3fa6 ae3d 9114 0bbe cacf 183d

layer4.bias f4 [22]
0.026265813 0.002110432 0.08853327 0.03814937 0.0072943172 0.05577528 0.02228887 0.071997166
0.0021800878 0.040227655 0.03129096 0.044113558 0.17364317 0.06700813 0.008663392 0.11144187
0.044185217 0.1378805 -0.0078174425 0.07293583 0.057688016 0.08208678
00000000: 672b d73c 2c4f 0a3b ee50 b53d 8442 1c3d
00000010: 2b05 ef3b 9f74 643d 2697 b63c 4073 933d
00000020: cedf 0e3b c1c5 243d f32a 003d 6bb0 343d
00000030: 84cf 313e 8f3b 893d e6f0 0d3c a33b e43d
00000040: 8ffb 343d 8c30 0d3e bb14 00bc 615f 953d
00000050: 454a 6c3d 1d1d a83d

exp_avg f4 [32, 22]
-3.335091e-32 5.4101005e-32 -5.038653e-32 -4.4219563e-34 -8.181736e-32 7.0640826e-33 -3.288917e-32 -2.3690656e-32
-1.3328652e-31 2.4933896e-32 -3.896259e-32 9.5667365e-33 -1.0077306e-31 -8.843913e-34 -1.6363471e-31 1.4128165e-32
-6.577834e-32 -4.7381312e-32 -2.6657304e-31 4.986779e-32 -7.792518e-32 1.9133473e-32 3.0423536e-29 -6.252799e-29
-1.2634946e-29 -1.1977927e-29 1.2679447e-29 4.221009e-30 -1.2929512e-31 -7.977462e-31 5.88555e-31 6.731936e-30
1.5710467e-29 2.5041093e-29 -2.5269892e-29 -2.3955854e-29 2.5358894e-29 8.442018e-30 -2.5859023e-31 -1.5954925e-30
1.17711e-30 1.3463872e-29 3.1420933e-29 5.0082186e-29 -7.529108e-06 -4.3912473e-06 1.6838717e-06 2.8180793e-06
-4.514673e-06 2.222861e-06 -1.6079048e-06 -4.2672564e-06 5.2261e-06 -7.936381e-07 1.5062597e-06 -1.9819877e-06
3.3677434e-06 5.6361587e-06 -9.029346e-06 4.445722e-06 -3.2158096e-06 -8.534513e-06 1.04522e-05 -1.5872762e-06
3.0125193e-06 -3.9639754e-06 -2.4560468e-05 3.6607842e-05 -5.9634593e-05 -3.498804e-05 -4.1791827e-05 -7.8126155e-05
-6.210479e-05 -5.0913586e-05 -4.6785957e-05 -3.3306336e-05 -6.6792934e-05 -4.8529408e-05 -0.000119269185 -6.997608e-05
-8.3583654e-05 -0.00015625231 -0.00012420958 -0.00010182717 -9.3571914e-05 -6.661267e-05 -0.00013358587 -9.7058815e-05
-1.1416839e-37 -1.1689932e-37 -1.173035e-37 1.157264e-37 -1.15103e-37 1.1315942e-37 1.0606994e-37 -1.06297e-37
1.0789081e-37 -1.1585655e-37 1.1154684e-37 -1.0774628e-37 -1.122118e-37 1.1070316e-37 -1.1010683e-37 1.082476e-37
1.1273984e-37 -1.1298117e-37 1.146752e-37 -1.1082766e-37 1.0670502e-37 -1.1452158e-37 -4.1724048e-05 2.7428317e-05
4.9404744e-06 2.4825269e-05 6.9779107e-06 5.909864e-06 8.762134e-06 -5.255976e-05 2.6399244e-05 1.8000583e-05
1.8943809e-05 1.6447017e-05 9.880949e-06 4.9650538e-05 1.39558215e-05 1.1819728e-05 1.7524268e-05 -0.00010511952
5.279849e-05 3.6001165e-05 3.7887618e-05 3.2894033e-05 -2.3729537e-05 -2.247268e-05 -3.3472677e-06 -3.4254138e-06
-7.629986e-06 5.0912677e-06 -7.404021e-06 8.1812705e-06 -7.947865e-06 -1.06014595e-05 -1.0974986e-05 -1.4794753e-05
-6.6945354e-06 -6.8508275e-06 -1.5259971e-05 1.0182535e-05 -1.4808042e-05 1.6362541e-05 -1.589573e-05 -2.1202919e-05
-2.1949973e-05 -2.9589506e-05 2.2023305e-07 -3.0219887e-08 1.17260534e-07 1.631488e-07 6.386996e-08 1.5347486e-07
8.501675e-08 1.4083786e-07 1.2174041e-07 8.769273e-08 1.16042074e-07 -7.604448e-08 2.3452107e-07 3.262976e-07
1.2773992e-07 3.0694972e-07 1.700335e-07 2.816757e-07 2.4348083e-07 1.7538547e-07 2.3208415e-07 -1.5208896e-07
-3.2023723e-05 0.0001280736 -3.5936457e-05 -2.9255107e-05 -4.0160812e-05 -6.1219085e-05 -5.2999032e-05 -8.657743e-05
2.1964015e-06 -1.1614064e-05 -3.8804636e-05 -2.6989737e-05 -7.187291e-05 -5.8510213e-05 -8.0321624e-05 -0.00012243817
-0.000105998064 -0.00017315485 4.392803e-06 -2.3228127e-05 -7.760927e-05 -5.3979475e-05 -7.9187953e-22 -7.3639224e-22
1.3001e-21 6.3403136e-22 6.7215397e-22 -4.2597196e-22 -4.647944e-22 1.2362942e-21 -6.219166e-23 1.1787059e-21
5.401247e-22 5.681516e-22 2.6002e-21 1.2680627e-21 1.3443079e-21 -8.519439e-22 -9.295888e-22 2.4725885e-21
-1.2438332e-22 2.3574118e-21 1.0802494e-21 1.1363032e-21 -7.889348e-08 1.0392138e-07 1.0088039e-08 3.0688508e-08
-4.107205e-09 9.0694974e-10 -2.1517639e-09 -1.807321e-08 -5.3443414e-09 1.8448445e-08 -3.066267e-09 -2.30768e-09
2.0176078e-08 6.1377015e-08 -8.21441e-09 1.8138995e-09 -4.3035278e-09 -3.614642e-08 -1.0688683e-08 3.689689e-08
-6.132534e-09 -4.61536e-09 -2.4811461e-05 -0.00013441991 -6.922332e-06 9.4476945e-06 1.7910212e-05 9.727457e-06
2.6264015e-05 7.550296e-05 -3.5337398e-05 -1.5703994e-05 2.0007187e-06 -8.821591e-06 -1.3844664e-05 1.8895389e-05
00000000: f72a 2d8b 4974 8c0b 98cf 828b d8f1 1288
00000010: f668 d48b 1bb7 120a 35c5 2a8b 9104 f68a
00000020: 0b04 2d8c d576 010b 2a4e 4a8b 7fb1 460a
00000030: 98cf 028c d8f1 9288 f668 548c 1bb7 920a
00000040: 35c5 aa8b 9104 768b 0b04 ad8c d576 810b
00000050: 2a4e ca8b 7fb1 c60a 0244 1a10 fc86 9e90
00000060: 3222 808f f4f0 728f ba95 800f 7739 ab0e
00000070: acd5 278c 1571 818d 3dff 3e0d 368a 080f
00000080: b452 9f0f 65f2 fd0f 3222 0090 f4f0 f28f
00000090: ba95 0010 7739 2b0f acd5 a78c 1571 018e
000000a0: 3dff be0d 368a 880f b452 1f10 65f2 7d10
000000b0: 8ca2 fcb6 8758 93b6 6401 e235 3c1e 3d36
000000c0: bf7c 97b6 762c 1536 30cf d7b5 742f 8fb6
000000d0: db5b af36 650a 55b5 b02a ca35 4a02 05b6
000000e0: 6401 6236 3c1e bd36 bf7c 17b7 762c 9536
000000f0: 30cf 57b6 742f 0fb7 db5b 2f37 650a d5b5
00000100: b02a 4a36 4a02 85b6 3407 ceb7 5f8b 1938
00000110: 2820 7ab8 1fc0 12b8 a249 2fb8 a9d7 a3b8
00000120: 413e 82b8 0c8c 55b8 0a3c 44b8 68b2 0bb8
00000130: 2f13 8cb8 0e8c 4bb8 2820 fab8 1fc0 92b8
00000140: a249 afb8 a9d7 23b9 413e 02b9 0c8c d5b8
00000150: 0a3c c4b8 68b2 8bb8 2f13 0cb9 0e8c cbb8
00000160: e165 1b82 781d 1f82 4eaa 1f82 c484 1d02
00000170: 8bab 1c82 4e06 1a02 fb5f 1002 19af 1082
00000180: 76da 1202 1eb2 1d82 67d4 1702 19a8 1282
00000190: 1bbc 1882 6cae 1602 a1de 1582 c956 1302
000001a0: 1a74 1902 31c8 1982 7a16 1c02 ced9 1682
000001b0: 463d 1102 f2e0 1b82 db00 2fb8 dd15 e637
000001c0: 5ac6 a536 dc3f d037 cc23 ea36 584d c636
000001d0: 1401 1337 9d73 5cb8 f273 dd37 f5ff 9637
000001e0: 85e9 9e37 b3f7 8937 5ac6 2537 dc3f 5038
000001f0: cc23 6a37 584d 4637 1401 9337 9d73 dcb8
00000200: f273 5d38 f5ff 1638 85e9 1e38 b3f7 0938
00000210: cb0e c7b7 b683 bcb7 9fa1 60b6 29e0 65b6
00000220: 8a02 00b7 a8d5 aa36 0e70 f8b6 4a42 0937
00000230: d257 05b7 ecdc 31b7 3521 38b7 fb36 78b7
00000240: 9fa1 e0b6 29e0 e5b6 8a02 80b7 a8d5 2a37
00000250: 0e70 78b7 4a42 8937 d257 85b7 ecdc b1b7
00000260: 3521 b8b7 fb36 f8b7 3379 6c34 1ecb 01b3
00000270: a9d0 fb33 002e 2f34 e228 8933 d9ca 2434
00000280: 7492 b633 3739 1734 c0b7 0234 9751 bc33
00000290: ce32 f933 e54d a3b3 a9d0 7b34 002e af34
000002a0: e228 0934 d9ca a434 7492 3634 3739 9734
000002b0: c0b7 8234 9751 3c34 ce32 7934 e54d 23b4
000002c0: 3651 06b8 7f4b 0639 7aba 16b8 dd68 f5b7
000002d0: 5872 28b8 bf62 80b8 474b 5eb8 e790 b5b8
000002e0: e465 1336 06da 42b7 29c2 22b8 0568 e2b7
000002f0: 7aba 96b8 dd68 75b8 5872 a8b8 bf62 00b9
00000300: 474b deb8 e790 35b9 e465 9336 06da c2b7
00000310: 29c2 a2b8 0568 62b8 b654 6f9c 978f 5e9c
00000320: 2f77 c41c cd9f 3f1c 6525 4b1c fcbd 009c
00000330: ba79 0c9c d1d2 ba1c c65e 969a fa1e b21c
00000340: 203e 231c 9ab6 2b1c 2f77 441d cd9f bf1c
00000350: 6525 cb1c fcbd 809c ba79 8c9c d1d2 3a1d
00000360: c65e 169b fa1e 321d 203e a31c 9ab6 ab1c
00000370: 266c a9b3 622b df33 aa4f 2d32 5fce 0333
00000380: 5b1f 8db1 ea4c 7930 3bde 13b1 693f 9bb2
00000390: 53a1 b7b1 8f78 9e32 57b6 52b1 2395 1eb1
000003a0: aa4f ad32 5fce 8333 5b1f 0db2 ea4c f930
000003b0: 3bde 93b1 693f 1bb3 53a1 37b2 8f78 1e33
000003c0: 57b6 d2b1 2395 9eb1 3522 d0b7 12f3 0cb9
000003d0: 6146 e8b6 8a81 1e37 e33d 9637 1c33 2337
000003e0: 8b51 dc37 5857 9e38 3e37 14b8 12bc 83b7
000003f0: 1644 0636 7200 14b7 6146 68b7 8a81 9e37

exp_avg_sq f4 [32, 22]
9.901133e-12 1.1514054e-10 1.2994828e-12 7.3115255e-13 9.249275e-13 1.866299e-12 2.2371818e-12 2.5310528e-12
2.7740588e-12 2.1615344e-12 2.4373203e-12 1.2918911e-12 5.197931e-12 2.9246102e-12 3.69971e-12 7.465196e-12
8.948727e-12 1.0124211e-11 1.1096235e-11 8.646138e-12 9.749281e-12 5.1675643e-12 1.2600437e-10 8.561004e-10
1.5714307e-11 1.9999764e-11 2.2139842e-11 2.2772796e-11 1.8292512e-11 1.3564975e-11 1.8469453e-11 1.0573098e-11
3.4146595e-11 8.527306e-11 6.2857226e-11 7.9999056e-11 8.855937e-11 9.109118e-11 7.3170046e-11 5.42599e-11
7.3877814e-11 4.2292392e-11 1.3658638e-10 3.4109224e-10 1.24398785e-08 2.1557023e-08 5.4817635e-09 4.6831357e-09
5.4776716e-09 5.9311493e-09 4.9070232e-09 5.208092e-09 5.454506e-09 5.0095914e-09 5.8498437e-09 5.5301737e-09
2.1927054e-08 1.8732543e-08 2.1910687e-08 2.3724597e-08 1.9628093e-08 2.0832369e-08 2.1818025e-08 2.0038366e-08
2.3399375e-08 2.2120695e-08 3.5388236e-08 1.0123147e-07 2.4745779e-08 2.2298446e-08 2.3516051e-08 2.4977947e-08
2.4454446e-08 2.4190824e-08 2.2124585e-08 2.287451e-08 2.2683917e-08 2.526246e-08 9.8983115e-08 8.919378e-08
9.4064205e-08 9.991179e-08 9.781778e-08 9.6763294e-08 8.849834e-08 9.149804e-08 9.073567e-08 1.0104984e-07
8.9415114e-11 1.517912e-09 1.1891638e-11 2.6637765e-12 1.1146195e-12 2.6371158e-12 1.4312735e-12 1.2595596e-11
9.358865e-12 8.214529e-12 9.045946e-12 6.4888876e-12 4.756655e-11 1.0655106e-11 4.458478e-12 1.0548463e-11
5.725094e-12 5.0382382e-11 3.743546e-11 3.2858116e-11 3.6183785e-11 2.595555e-11 3.265254e-08 7.724e-08
1.901783e-08 1.7896127e-08 1.7092388e-08 2.040027e-08 2.0261366e-08 2.0964253e-08 2.3434666e-08 2.0410685e-08
2.0926924e-08 2.3303592e-08 7.607132e-08 7.158451e-08 6.836955e-08 8.160108e-08 8.1045464e-08 8.385701e-08
9.373866e-08 8.164274e-08 8.37077e-08 9.321437e-08 1.7196694e-08 1.7974388e-08 1.4059204e-08 1.074975e-08
1.3492487e-08 1.3869687e-08 1.4013851e-08 1.4008555e-08 1.0775649e-08 1.1619636e-08 1.2842672e-08 1.25273365e-08
5.6236814e-08 4.2999e-08 5.396995e-08 5.5478747e-08 5.6055406e-08 5.603422e-08 4.3102595e-08 4.6478544e-08
5.1370687e-08 5.0109346e-08 1.6437261e-10 6.157693e-10 1.0235387e-10 4.5201906e-10 9.5531444e-11 9.3517916e-11
1.0885632e-10 7.1035657e-11 6.375374e-11 9.862438e-11 9.99896e-11 1.1450674e-10 4.0941547e-10 1.8080762e-09
3.8212578e-10 3.7407166e-10 4.3542528e-10 2.8414263e-10 2.5501495e-10 3.9449752e-10 3.999584e-10 4.5802695e-10
3.7512432e-08 1.2272119e-07 1.963111e-08 3.0195842e-08 2.2366924e-08 4.091033e-08 2.5294312e-08 2.8872924e-08
2.7507488e-08 2.25555e-08 2.3490976e-08 1.6925991e-08 7.852444e-08 1.2078337e-07 8.94677e-08 1.6364132e-07
1.0117725e-07 1.15491694e-07 1.1002995e-07 9.0222e-08 9.3963905e-08 6.7703965e-08 1.00151845e-10 4.4857482e-11
1.5237211e-10 8.9824946e-11 1.28144e-10 7.889196e-11 4.291898e-12 1.0277778e-10 1.1596655e-10 1.5906015e-10
1.0888184e-10 2.4631054e-11 6.0948846e-10 3.5929978e-10 5.12576e-10 3.1556785e-10 1.7167592e-11 4.1111112e-10
4.638662e-10 6.362406e-10 4.3552736e-10 9.852422e-11 7.361536e-11 4.981502e-10 1.3773773e-11 1.10124916e-10
2.8457191e-11 8.063345e-12 4.3500103e-11 1.6174437e-11 2.1657561e-11 7.384653e-12 4.9181215e-11 1.7482337e-11
5.509509e-11 4.4049966e-10 1.13828766e-10 3.225338e-11 1.7400041e-10 6.469775e-11 8.6630245e-11 2.953861e-11
1.9672486e-10 6.992935e-11 4.7040086e-08 1.5008675e-07 3.3995942e-08 3.032104e-08 3.3590993e-08 3.4639967e-08
3.5317587e-08 3.7295667e-08 2.9455867e-08 3.101899e-08 3.385206e-08 2.743742e-08 1.3598377e-07 1.2128416e-07
00000000: bd2e 2e2d 5d32 fd2e cde2 b62b 18cd 4d2b
00000010: 062c 822b 4154 032c 7c6d 1d2c 651b 322c
00000020: 0035 432c be1a 182c dc82 2b2c 48d1 b52b
00000030: cde2 b62c 18cd 4d2c 062c 822c 4154 032d
00000040: 7c6d 1d2d 651b 322d 0035 432d be1a 182d
00000050: dc82 2b2d 48d1 b52c 148b 0a2f b652 6b30
00000060: 7939 8a2d 77eb af2d 7ebe c22d c74f c82d
00000070: 13e7 a02d 37a3 6e2d 8375 a22d 0001 3a2d
00000080: a62d 162e 7784 bb2e 7939 8a2e 77eb af2e
00000090: 7ebe c22e c74f c82e 13e7 a02e 37a3 6e2e
000000a0: 8375 a22e 0001 3a2e a62d 162f 7784 bb2f
000000b0: 2ab7 5532 652c b932 1a5a bc31 4ce9 a031
000000c0: 1c36 bc31 f1ca cb31 a29a a831 ddf2 b231
000000d0: 586a bb31 d520 ac31 c5ff c831 ec03 be31
000000e0: 1a5a bc32 4ce9 a032 1c36 bc32 f1ca cb32
000000f0: a29a a832 ddf2 b232 586a bb32 d520 ac32
00000100: c5ff c832 ec03 be32 c7fd 1733 9764 d933
00000110: 8b90 d432 cd8a bf32 5800 ca32 168f d632
00000120: e50f d232 2fcc cf32 7a0c be32 947d c432
00000130: 76da c232 bd00 d932 8b90 d433 cd8a bf33
00000140: 5800 ca33 168f d633 e50f d233 2fcc cf33
00000150: 7a0c be33 947d c433 76da c233 bd00 d933
00000160: 3ca0 c42e c89e d030 2d33 512d 5572 3b2c
00000170: 66de 9c2b 0e92 392c 106f c92b 8595 5d2d
00000180: 95a4 242d f382 102d 5223 1f2d b44e e42c
00000190: 2d33 512e 5572 3b2d 66de 9c2c 0e92 392d
000001a0: 106f c92c 8595 5d2e 95a4 242e f382 102e
000001b0: 5223 1f2e b44e e42d d93d 0c33 24df a533
000001c0: a75c a332 00ba 9932 8fd2 9232 ab3c af32
000001d0: 370b ae32 e114 b432 604d c932 9253 af32
000001e0: cbc2 b332 242d c832 a75c a333 00ba 9933
000001f0: 8fd2 9233 ab3c af33 370b ae33 e114 b433
00000200: 604d c933 9253 af33 cbc2 b333 242d c833
00000210: eeb7 9332 1966 9a32 0889 7132 e7ad 3832
00000220: 96cc 6732 8747 6e32 92c1 7032 47aa 7032
00000230: ce1f 3932 b39f 4732 aba2 5c32 cf37 5732
00000240: 0889 7133 e7ad 3833 96cc 6733 8747 6e33
00000250: 92c1 7033 47aa 7033 ce1f 3933 b39f 4733
00000260: aba2 5c33 cf37 5733 c7ba 342f ea42 2930
00000270: 1b14 e12e 0780 f82f 6c13 d22e e8a5 cd2e
00000280: a960 ef2e 8535 9c2e 2a32 8c2e 97e0 d82e
00000290: 24e1 db2e 90cd fb2e 1b14 e12f 0780 f830
000002a0: 6c13 d22f e8a5 cd2f a960 ef2f 8535 9c2f
000002b0: 2a32 8c2f 97e0 d82f 24e1 db2f 90cd fb2f
000002c0: 5b1d 2133 58c5 0334 44a1 a832 aeb0 0133
000002d0: 6321 c032 62b5 2f33 c846 d932 3b04 f832
000002e0: 9b49 ec32 12c0 c132 34c9 c932 a664 9132
000002f0: 44a1 a833 aeb0 0134 6321 c033 62b5 2f34
00000300: c846 d933 3b04 f833 9b49 ec33 12c0 c133
00000310: 34c9 c933 a664 9133 7a3c dc2e 0949 452e
00000320: f088 272f f386 c52e 54e5 0c2f 3a7c ad2e
00000330: fb01 972c bf02 e22e 5d03 ff2e 74e3 2e2f
00000340: 076f ef2e 34a8 d82d f088 2730 f386 c52f
00000350: 54e5 0c30 3a7c ad2f fb01 972d bf02 e22f
00000360: 5d03 ff2f 74e3 2e30 076f ef2f 34a8 d82e
00000370: c3e1 a12e 34ee 0830 8f4f 722d d12a f22e
00000380: e64f fa2d 14da 0d2d c350 3f2e 9845 8e2d
00000390: 7e80 be2d 85e9 012d 204d 582e b9c6 992d
000003a0: 8f4f 722e d12a f22f e64f fa2e 14da 0d2e
000003b0: c350 3f2f 9845 8e2e 7e80 be2e 85e9 012e
000003c0: 204d 582f b9c6 992e 1f09 4a33 8827 2134
000003d0: ef02 1233 563a 0233 b045 1033 0cc7 1433
000003e0: 19b0 1733 052f 2033 2306 fd32 bd39 0533
000003f0: bc64 1133 86af eb32 ef02 1234 563a 0234

exp_avg f4 [32]
-3.3164652e-31 2.0499256e-28 -9.8929166e-05 -0.0007384262 1.0601386e-37 0.00015769944 9.01741e-05 8.3986646e-07
-0.00050721265 -1.04998825e-20 -2.8134104e-07 0.00033639482 -0.00024959404 -1.0903558e-37 -1.0638762e-37 1.1215521e-37
0.0006813859 0.00033407187 -9.693409e-05 -4.7902104e-05 8.459539e-08 0.00010116617 0.00023848462 -0.00022296098
0.00038280195 -0.0005561107 1.6974386e-21 0.00034487568 -0.00020228548 3.4951627e-05 0.0010185131 -8.2630414e-30
00000000: 3b40 d78c f2ed 8111 3178 cfb8 f292 41ba
00000010: 704c 1002 1f5c 2539 da1b bd38 2f73 6135
00000020: 77f6 04ba 5156 469e 380b 97b4 265e b039
00000030: f2db 82b9 5b69 1482 adce 1082 63a8 1802
00000040: 099f 323a 5e26 af39 1849 cbb8 7eea 48b8
00000050: cfaa b533 2d29 d438 ba11 7a39 a2ca 69b9
00000060: cfb2 c839 f5c7 11ba 3d41 001d 6ed0 b439
00000070: 981c 54b9 0699 1238 a17f 853a 2a98 278f

exp_avg_sq f4 [32]
9.7595036e-11 5.142555e-09 8.628235e-07 4.4996445e-06 2.551151e-10 3.7783825e-06 1.1448935e-06 8.457551e-09
6.586503e-06 4.7163993e-09 1.112247e-09 7.1537756e-06 4.5629035e-06 2.690366e-11 7.0885393e-13 1.2376059e-08
1.4164095e-05 4.1659155e-06 2.2309678e-06 1.9503814e-06 2.739051e-08 1.1041641e-06 2.9652838e-06 5.2757173e-06
1.0687272e-05 5.2298024e-06 4.209054e-08 3.5450514e-06 2.7264838e-07 3.8706733e-07 3.0430642e-06 2.742682e-08
00000000: 1f9d d62e 64b2 b031 c89c 6735 a7fb 9636
00000010: 4240 8c2f 1e90 7d36 3eaa 9935 b44c 1132
00000020: a101 dd36 e30d a231 b6dd 9830 770a f036
00000030: 0b1b 9936 a8a5 ec2d 4f86 472b 7c9e 5432
00000040: 53a2 6d37 f1c8 8b36 bcb7 1536 4ce3 0236
00000050: 5e48 eb32 ca32 9435 30ff 4636 1106 b136
00000060: 7c4d 3337 a97b af36 0ac7 3433 85e7 6d36
00000070: 8260 9234 21ce cf34 7237 4c36 3798 eb32
