checkpoints/MLP_bs32_lr0.001_win50-30-20_vTrue_scTrue_ep6.pth (torch, 178894 bytes, 24 tensors)

layer1.weight f4 [32, 22]
00000000: 45d8 913d 9c48 633e e6b8 573e 387b c03e
00000010: 8cd5 dc3e ffef aabe 86fd 4c3d 4a4d b9bf
00000020: 1f41 a3be a26f b7be b30b b03d 5e51 233f
00000030: 7b84 c23e ebb0 ba3e 8d74 cb3e 9793 36be
00000040: 1496 9a3e b1fc aebf c978 96be d1bc 00bf
00000050: 7549 6ebe a77d f23e 557f 9bbe 62a8 d33d
00000060: 6fbe 5ebd c1c5 6cbe 22c4 3fbe 5b1d 6a3f
00000070: 1c9c 32be d975 c23e 5574 16be 3678 51bf
00000080: 9041 d33e 4668 9f3f f5e4 a2bd a3ca 1ebf
00000090: 311c 95be 851a 4f3f 4dd6 99be eae2 ee3d
000000a0: adea d3be dac5 28bf 11eb 123f a127 b83f
000000b0: 24b7 0d3e 84e6 2bbd 4435 07bf 8517 bd3e
000000c0: 2710 2b3e fc08 ee3d 9220 23bf 908f 413d
000000d0: a34b 8fbf 7412 753e 8985 1d3f e6b7 2a3f
000000e0: 3ad5 01bf b96b a93e f5a3 423e 387b 97be
000000f0: 2688 bdbe be98 42bd eabc 62bf adab 293d
00000100: db57 493f 64e8 603f 70d3 e7bd 170a 2fbb
00000110: 0644 363e 585a 08bf 9486 0dbe f0b4 2f3e
00000120: 7be7 9a3d 2b78 b33e 0d0a 54bf 873d bbbd
00000130: dbe5 ae3d 83fb 38be 0041 cb3e bc56 18bf
00000140: ad1c 753d 4158 823e 67ea e13e 1293 733e
00000150: 6988 19bf 6e94 e3bd 1efe 853e 2bcc 1ebe
00000160: 4102 2abf 18be 183d 03ad 7d3e 2117 a83b
00000170: 01b9 e2be f197 fabd d9ae c23e 8c0f 0d3f
00000180: 3246 3b3f c1cb 963e 75f4 bd3d b78f c93e
00000190: 7e07 173e 28cb e6bd 6bf8 f5be 951c 8cbc
000001a0: 2733 a23b f91d a03e 9039 3b3f 7565 173f
000001b0: 340d ccbc 4b8d e13e 0b70 393d e745 84bd
000001c0: afcb 84be b858 6dbe 66ee 10bf 777b f73d
000001d0: a750 743e 2397 b3bd dc2b b53e ef6a 17be
000001e0: 9bbc 36bd 7e22 403f 8f75 8fbe a41d 72bd
000001f0: 9bca f5be cc14 a53d bc93 c53e 3782 9ebd
00000200: 5841 c93c 53ac 0bbd ab51 57be d6b5 1e3f
00000210: 32d8 a23e 2e6b ca3d dd0e c0be 8e83 693b
00000220: c625 83bd b9a4 e5bc 1676 fc3e 6fc4 a93e
00000230: 508e df3c 8dfc 90be d05b 413f 3c7d 39be
00000240: acc1 fdbe e961 66bd b3ea 29be 95b8 34be
00000250: af78 233f 3f94 a33e 7e48 9abe f632 5cbe
00000260: fafd 053f 12dd 51be 1f97 e8bd bc5f 8fbe
00000270: 667a 1b3e 29e5 263f 2c4b bc3e c17e 953e
00000280: 4ea4 eebe 5aab 81bf 9108 a53e 7eb4 6bbe
00000290: 1489 543e abcd 84bf 5ab0 2c3e 150b 173f
000002a0: 56ee 1f3f b52c 763e f8e4 43be 8747 6fbf
000002b0: 7dd0 9f3e 3691 a1be 89ec b3bd 0ca5 8fbf
000002c0: 20a4 eebe 8c3c adbd 3247 dd3d 7d62 873e
000002d0: 57f6 323f 96aa 5a3d d1fe c13e 923c 9fbe
000002e0: a784 4d3d 963b 50be 50f2 963d 784c 80bd
000002f0: 566b 943c b752 c63e 2c24 173f ad09 3c3e
00000300: 3147 1b3f 9ad6 a0be 6a8d 0cbe 6df5 88be
00000310: 42a7 3f3d e7dc 7bbe adbf 5b3e 8330 33be
00000320: f4a5 be3d 2213 84be 9965 343e 7749 cc3d
00000330: 98bd ae3d c76e 063e d404 ac3d c193 b2bf
00000340: 3b51 713e 1818 a43b a799 a83c c86a a23c
00000350: 9226 813e a66e aa3e b76b c83e 8189 10be
00000360: d2d0 053e 9749 b8bf 08a7 2c3e 23bb fe3d
00000370: e911 343d cadd 6abe 17e1 4f3e 27e6 88bf
00000380: fb62 3d3e 0ffa 92be f75a 033f 0fb9 153f
00000390: 0f65 f3be 5d87 09bf 175c fa3c f5cb e63d
000003a0: 0823 973e 112b 72bf 314a df3e 4cbd 6abe
000003b0: 4816 e93e c0ea 1c3f f4d2 e7be 09c7 67be
000003c0: 4dc7 b0bc 1e8c d53d b0e2 3fbd 86df 1d3b
000003d0: a038 d2be c14e c2be 9bb2 003f b906 053f
000003e0: d592 38be d599 c5be d8d5 7cbd 118a 19be
000003f0: 1c0d 19bf 649c bf3e a55c 9bbe eac8 c4be
0.07121328 0.22195667 0.21066627 0.37594008 0.43131673 -0.33386227 0.050046466 -1.4476712
-0.3188562 -0.35827357 0.085959814 0.6379603 0.379917 0.36463103 0.3973736 -0.17829739
0.30192626 -1.3670865 -0.29389027 -0.5028811 -0.23270209 0.4736149 -0.30370584 0.10334851
-0.05438083 -0.23122312 -0.18727162 0.9145104 -0.17442364 0.37980536 -0.14692815 -0.8182405
0.41260958 1.2453697 -0.07953826 -0.6202795 -0.2912307 0.8089984 -0.3004631 0.11664374
-0.4138998 -0.659269 0.5738993 1.4387094 0.13839394 -0.041967884 -0.5281565 0.36932006
0.1670538 0.116228074 -0.63721573 0.047256052 -1.1194957 0.2393282 0.61531883 0.66686857
-0.5071598 0.33089998 0.19007857 -0.29586196 -0.37017936 -0.047508948 -0.8856951 0.04142349
0.7864968 0.878546 -0.113196254 -0.0026708895 0.17799386 -0.53262854 -0.13820869 0.17158866
0.07563683 0.35052618 -0.82827836 -0.09142595 0.08539935 -0.18064694 0.3969803 -0.59507346
0.0598418 0.25457957 0.44124147 0.23786572 -0.5997377 -0.11112295 0.2617044 -0.15507571
-0.6640969 0.037290663 0.2477303 0.0051297103 -0.44281772 -0.12236012 0.38024023 0.5510185
0.73153985 0.29452327 0.09275142 0.39367458 0.14748952 -0.11269218 -0.4804109 -0.017103473
0.0049499455 0.31272867 0.7313471 0.59139186 -0.02490864 0.4405311 0.045272868 -0.06458645
-0.25936648 -0.23178375 -0.5661377 0.12084096 0.23858891 -0.087690614 0.35385025 -0.14786886
-0.044613462 0.7505263 -0.28019378 -0.0591103 -0.48006138 0.08060607 0.38589275 -0.0773968
0.024567291 -0.034099888 -0.21027248 0.6199621 0.3180557 0.09883724 -0.3751134 0.0035631391
-0.06403689 -0.028032647 0.49308842 0.3315768 0.02728954 -0.2831768 0.7553072 -0.1811418
-0.49561822 -0.05624572 -0.16593437 -0.17648537 0.63856024 0.3194904 -0.30133432 -0.21503815
0.5234066 -0.20494488 -0.11356949 -0.28002727 0.1518341 0.6519342 0.36776102 0.29198268
-0.4660973 -1.0130417 0.32233098 -0.23018071 0.20755416 -1.0375265 0.16864148 0.59001285
0.62473047 0.24040492 -0.19130313 -0.9346852 0.3121375 -0.315561 -0.0878535 -1.1222243
-0.46609592 -0.08458814 0.10804595 0.26442328 0.69907135 0.05338534 0.37889722 -0.311009
0.050175335 -0.2033523 0.07370436 -0.06264585 0.018117588 0.3873498 0.5903957 0.18363066
0.60655504 -0.31413728 -0.1372582 -0.26749745 0.04679037 -0.24595986 0.21459837 -0.17498975
0.09308997 -0.25795847 0.17616881 0.0997495 0.08532256 0.13128196 0.083993584 -1.3951341
0.23566143 0.005007755 0.02058108 0.019826308 0.2522474 0.33287543 0.3914468 -0.14114954
0.1306794 -1.4397458 0.16860592 0.12438037 0.043962393 -0.22936168 0.20300709 -1.0695237
0.1849479 -0.28706405 0.51310676 0.584855 -0.4753804 -0.5372217 0.03056149 0.112693705
0.29518914 -0.94596964 0.4361129 -0.22923774 0.45524812 0.612957 -0.45278132 -0.2263452
-0.021579409 0.10427116 -0.046847045 0.002408953 -0.41058826 -0.3795071 0.5027253 0.5196338
-0.18024762 -0.38593927 -0.061727375 -0.14994074 -0.5978563 0.37424004 -0.3034412 -0.38434535

layer1.bias f4 [32]
00000000: bd74 13bf 75ac 71bf c4fd 84be 8ecf df3d
00000010: 851c 55bf 5ec1 3f3e da0d b0bf 7f2f 20bf
00000020: 71b7 16bf 900f 19bf 4162 14bf a61f d83d
00000030: 16b9 5d3e 0859 5cbf c357 36bf 93f9 3ebf
00000040: 136d 1a3e 41ba bc3c 1a0e 1d3e 12b6 07be
00000050: 609e 97be 0d3d 8bbd ac0f 2a3d 60c4 c83d
00000060: 5acd 33be 6af6 813e e89b 7ebf 44a4 bd3d
00000070: 960d 81be 57e2 28be d1ed 683e f303 66bf
-0.57600003 -0.94403774 -0.25974858 0.1092826 -0.8324664 0.18726107 -1.3754227 -0.62572473
-0.5887366 -0.5978937 -0.57962424 0.105529115 0.21652636 -0.8607335 -0.71227664 -0.7459957
0.15080671 0.023038032 0.1533741 -0.13253048 -0.29613018 -0.06798754 0.041518852 0.098030806
-0.17558804 0.25383312 -0.99456644 0.09259847 -0.25205678 -0.16492592 0.2274697 -0.89849776

layer2.weight f4 [64, 32]
00000000: 17dd a6be 69ac 90be e669 873d 0bbf 7fbe
00000010: 0e7b bc3c 652c 783e 942b ad3d cb01 8fbe
00000020: 33a1 ccbe c5a7 99be 3cbe 4cbe 48b6 443c
00000030: 75f0 dabe 9ea0 46be eaca 19bf b1f0 bebe
00000040: 3b4e e6bd 6563 d4be 64b3 d6be c749 7abe
00000050: d3a5 24be 35bb fdbd fea1 bcbd eb1f 2ebf
00000060: 9bba 4bbd 1d07 efbd 4c6c d1bd 15c0 c4bd
00000070: 4b1f 133d c627 b33d 06f1 d23d d3cf 02bf
00000080: bb81 14be 3a97 71bd d22c 00be 2bd3 7e3d
00000090: 6cb8 31be c9d0 9dbe 15c4 233e 16ff cebd
000000a0: fcfd 213c f4e3 d4be d3bd 0abe 93b3 24bf
000000b0: 42e8 edbe 515c 59be f0e1 aabe fd46 d6be
000000c0: 83b3 0fbf 7cb9 61be a270 1cbd b114 82bc
000000d0: 6911 c2bd 45af 35bc 32b8 99be 9b66 d8bd
000000e0: d243 bd3c 8cd2 37bb c274 1fbc 66a7 81be
000000f0: b301 343e 362a 1a3d 2c17 c4bd 0570 e9bd
00000100: ae79 dbbe 283b b03d cd7a 4e3e cf46 703e
00000110: 06e2 0bbe 5d7a 47be 110b 103e 6429 f7be
00000120: 7199 bfbd edf8 ccbe fdb6 48bf 7503 143f
00000130: cb60 723e 730d 17bf f6a0 2abf d896 1abe
00000140: 42b2 3bbe 1223 633e a8b4 2c3d 0fde efbe
00000150: d095 91be 90be b23e 2859 0abf 9790 1bbf
00000160: c57b 813e c52f a2be f298 60bd a797 463f
00000170: 9a03 c63e 9fcb 15bf 3f00 dfbd c839 94be
00000180: f799 11bf 9f5f c2be facc c93c ce27 9bbe
00000190: 046d abbd e10e 47bd 8ffa febc 180a aebd
000001a0: 129c 993c d643 f63d 5546 6ebd 7d6f d53d
000001b0: 5b7d 463e 8f41 c7bd 836e c63c ad18 d4be
000001c0: 1b0f 6f3c ad3b 0a3d abab 22bc 9c5b f8bd
000001d0: 679b 793e edaa 87be 11a8 bb3e 2fa1 94be
000001e0: 5d83 0e3d d98a 153e 9a2a b93d d258 6a3d
000001f0: 9a31 9a3e af6e 7ebe 7347 4b3f c7ef eabe
00000200: dc3e 6d3f b68d 0fbe 66c8 203f 8397 aebe
00000210: ca14 113e eca5 cabe cdd8 203f a7aa 063f
00000220: c395 5ebe 1b57 3f3e 5a13 843f 3cbf 943e
00000230: 8394 acbd 39a5 c53e 9caf 65be 4044 513f
00000240: a745 cf3e 2fbe 01bf 165e 25be bf5c 30bd
00000250: 154c 8cbe 8cb4 e83e b2dd edbe c3e9 303e
00000260: 2ac6 923d f228 bdbd b440 403f b9c3 59be
00000270: 8549 18be f579 dc3e 243b bfbe 989f 0b3f
00000280: 5d9f b2be eb9c e03d bbc8 32be c322 6bbd
00000290: 3be2 953e 220d 97be c839 c0be e072 82be
000002a0: 5712 04bf d9ec 483e 38b3 bfbe 510c 44be
000002b0: d17f 97bf 6389 8b3e 7672 0dbf f4ee 8c3e
000002c0: 0774 193e db1f dbbe 8749 4ebf b232 afbd
000002d0: 7552 dabe 36f6 1639 0b77 9cbe 3ec1 05bf
000002e0: ce5f 42bd e375 2f3d fe1a eebc 5bfb eabd
000002f0: d3ec 263e 7075 d3bc 8fef 54be 957d e43c
00000300: fc4e f9be 7dad 74be 74ae 193e 51d8 fb3d
00000310: d296 bdbe 5ae5 02be f468 da3d 05f2 06bd
00000320: 25ae 03bf ecec 52be 7c9d e1be c914 89bd
00000330: f90e eabe f0c2 cb3e 3c40 01bf 82e7 5bbd
00000340: 98a7 f93d 5457 90bd 2b67 8c3d 2548 b1be
00000350: ae89 99be 0f67 83be 6ba7 70bf 114f b4be
00000360: 460c 8abe c370 95be 5791 82be 6f1a c3be
00000370: d040 a8bc 0071 d33d b834 75be 9d7f 7f3d
00000380: 9bcb 1cbe 2132 9d3e ca61 153e 5970 75be
00000390: 2e71 293e ead0 66be 7302 f5bc 63a3 97be
000003a0: 0a3c b6bc 879e d4bd bd1d 8abe d2e1 1abe
000003b0: 072b 0ebf 81b9 3cbd 6aa2 0dbd 982f ee3d
000003c0: b1a6 cabd d922 15bf c346 abbd ee04 3e3e
000003d0: 72ef d5be 3ddb 913b 26dc e7be 5470 08bf
000003e0: 3826 51be 94da 77be 5199 f83c dcf0 dabd
000003f0: aa15 e0bc 0da8 07be 9c66 05bf f296 db3d
-0.32590553 -0.2825654 0.066119954 -0.24975221 0.023007896 0.24235685 0.084555775 -0.27931055
-0.39966735 -0.3001081 -0.19994444 0.01200635 -0.4276158 -0.19397208 -0.6007525 -0.37293008
-0.1124539 -0.41482082 -0.4193374 -0.24442206 -0.16078882 -0.123892225 -0.09210585 -0.6801745
-0.049738508 -0.116712786 -0.10225734 -0.09606949 0.035918515 0.087478206 0.10299878 -0.51098365
-0.14502613 -0.05898211 -0.12517098 0.062213104 -0.17355508 -0.30823353 0.15992768 -0.101072475
0.009887215 -0.41580164 -0.13548975 -0.6433651 -0.4646626 -0.21226622 -0.33375502 -0.41851035
-0.5613329 -0.22043413 -0.038193353 -0.015879007 -0.09475977 -0.011089151 -0.30023342 -0.105664454
0.023103628 -0.002804908 -0.009732427 -0.25323027 0.17578773 0.03763791 -0.09574732 -0.11398319
-0.42866272 0.08605033 0.20164032 0.23464511 -0.1366044 -0.19480272 0.14066721 -0.48273766
-0.093554385 -0.40033665 -0.7840422 0.57817775 0.23669736 -0.59004897 -0.66651857 -0.15096605
-0.18329719 0.22181347 0.042164475 -0.46849105 -0.2843461 0.34911013 -0.5404229 -0.607675
0.2528974 -0.3167707 -0.05483336 0.77575153 0.38674623 -0.58513826 -0.10888719 -0.28950334
-0.56875557 -0.37963578 0.024633873 -0.30303806 -0.083704025 -0.048598174 -0.031125335 -0.08498019
0.018751178 0.120246574 -0.058172543 0.10421655 0.19383757 -0.09729301 0.024222618 -0.41425076
0.014591004 0.033748318 -0.009928624 -0.12126848 0.24375688 -0.26497594 0.36651662 -0.29029223
0.034793247 0.14603747 0.09041329 0.057213612 0.30115968 -0.2484691 0.794059 -0.4588606
0.9267404 -0.14018902 0.62805784 -0.3409997 0.14168087 -0.39579713 0.6283081 0.52604145
-0.21736817 0.18685572 1.0318406 0.2905215 -0.08426764 0.38602617 -0.22430271 0.81744766
0.40482828 -0.5068082 -0.16149172 -0.0430572 -0.27401796 0.45450246 -0.46458203 0.17276673
0.07166703 -0.09236325 0.7509873 -0.21266069 -0.14871795 0.43061796 -0.37349808 0.54540396
-0.3488721 0.1096743 -0.17459385 -0.0574062 0.29274163 -0.29502207 -0.37544084 -0.25478268
-0.51590484 0.196216 -0.3744142 -0.19145323 -1.1835881 0.27253255 -0.5525278 0.27526057
0.14985667 -0.4279774 -0.80580944 -0.08554591 -0.42641035 0.00014396835 -0.30559573 -0.5224799
-0.047454648 0.042837035 -0.029065605 -0.114737235 0.16301279 -0.025812835 -0.2079451 0.027891913
-0.48693073 -0.23894306 0.15007955 0.122971185 -0.3702913 -0.12782803 0.106645495 -0.03294565
-0.514376 -0.20598191 -0.44065464 -0.066934176 -0.45714548 0.39797163 -0.5048864 -0.05368758
0.12190169 -0.070479065 0.06855615 -0.34625354 -0.29987854 -0.25664565 -0.9400546 -0.35216573
-0.2696249 -0.29187593 -0.2550151 -0.38106105 -0.020538718 0.103242874 -0.23945892 0.06237756
-0.15312044 0.30702308 0.14588085 -0.23968638 0.16547081 -0.22540632 -0.029908394 -0.29616842
-0.022245426 -0.10381799 -0.26975814 -0.15125206 -0.55534405 -0.046075348 -0.03457872 0.116301715
-0.09895075 -0.582563 -0.08363106 0.18556568 -0.41784245 0.004451184 -0.45285147 -0.532964
-0.20424736 -0.24204475 0.030346544 -0.106904715 -0.02735408 -0.132477 -0.52109694 0.1072215

layer2.bias f4 [64]
00000000: 932e 50be 5b11 a1bd f485 e2bd e454 96bd
00000010: e44f 6bbf 56e3 edbd ad5f 9cbe 994c e3be
00000020: 9608 a1be 973c 1e3d 1957 94bd 3b9f fbbe
00000030: 18af 3dbe b302 07bf ac20 2dbe aaee c1be
00000040: dfa6 8fbd 1d8c f43d a06d 2dbe cd32 843d
00000050: ed1d 87bd efb3 29bd 8a59 76be ddc5 efba
00000060: 8767 8cbe b7d6 8ebe 14f8 24bf 8588 27be
00000070: d947 863d 8ce5 2bbe 4cbc 93be 99e7 f6bd
00000080: ad32 60be 410b 67be 122d b8be 270d abbe
00000090: a47d cebd 0c74 2fbf f243 aabd 0f80 733e
000000a0: 945f 44be 43b6 353e c2f0 1dbe ccd3 f2bd
000000b0: de64 01c0 1567 f93b 6f41 87be 3f8c 503e
000000c0: 7e65 99bf 00a3 47be 951e 11bf cf8e 67be
000000d0: e788 c0ba 7d1b 08be 5096 cabe 635c 5dbd
000000e0: 5553 283e dd69 153d 4b91 913e fdfc c3be
000000f0: 47b1 b8bd a706 39be 5e56 47bd 4877 28be
-0.20330267 -0.078646384 -0.11060706 -0.0734041 -0.9191878 -0.116156265 -0.30541745 -0.44394377
-0.31451863 0.038632 -0.07243175 -0.4914492 -0.18523824 -0.52738494 -0.16906995 -0.378774
-0.0701425 0.11940787 -0.1693635 0.06455002 -0.06597505 -0.041431364 -0.24057594 -0.0018293221
-0.27422735 -0.2789819 -0.6444104 -0.16360672 0.065566726 -0.16786784 -0.28854597 -0.120558925
-0.21894331 -0.22562887 -0.35971886 -0.33408472 -0.10082558 -0.6853645 -0.08313741 0.23779319
-0.19177085 0.17745309 -0.15423873 -0.11856803 -2.0217814 0.0076111653 -0.2641711 0.20366
-1.1984098 -0.19495773 -0.5668729 -0.22613071 -0.0014689238 -0.13291736 -0.39567804 -0.054043185
0.16438039 0.036477912 0.28431162 -0.38278952 -0.09018188 -0.18068944 -0.04866635 -0.16451752

layer3.weight f4 [128, 64]
00000000: 1707 0dbe a809 f63d 8686 40bc a042 b3bf
00000010: 4656 24bf 2abf a2bd ffc2 69be da0d 25bd
00000020: c8c0 5fbe f30e 9c3d 71e8 9dbf 0bb1 d8bd
00000030: 7e00 a0bd 54a9 43bf af66 e03c 5a4d e4be
00000040: 7817 5e3e afdc b53e 2f3d fdbe 7f60 6c3e
00000050: 55e4 d53c c1e9 603d 8a9d 28be bf2f ad3c
00000060: 4ee3 9dbd 7ddc f0be 756e 3bbe 6fb5 933e
00000070: c429 78be 2d78 58bd 77da 7cbe a52b 04bd
00000080: 0221 eebd 886d 56be ca3b d63c 822b d0be
00000090: aa47 97bf ba16 04be 0570 6f3e c59b 863d
000000a0: f90c 253e 62c4 2c3e 1076 75bd 38c2 c73c
000000b0: 89e2 71be 7e87 0abe fdce bcbd 3ce9 c1be
000000c0: c6e4 b6be 1e76 8dbc caaa a0be cbee 82bb
000000d0: 4bd7 4dbe 42ac 553e 2586 d93e e120 27be
000000e0: 00f9 52be b054 2ebf 47bb c03c 3501 1e3d
000000f0: b5e1 ccbb 4d3e 663d 621c 29be 5f18 59be
00000100: 4902 523d b32c a5bd 4497 8cbe 62d9 f1bd
00000110: 0842 27be 2bab 66be 96ce 163c f757 9bbb
00000120: 90e5 fcbd a454 883d 3b38 bbbe b632 84bc
00000130: 809c 323b 7109 813d f8c2 b23c fe0a 3b3d
00000140: bac4 9ebd 6548 acbe 5170 89bd bed3 f7bc
00000150: 18b6 633c 8413 0bbd a28a 96be 518e b1bc
00000160: eb12 0cbc f95e 8dbd 2c96 063d 1da2 d6bd
00000170: 0fe6 0dbd be85 bcbd 2149 f33d 99a8 43bd
00000180: 004c 1cbe 2d26 1cbe 40fa 94bd f533 85bd
00000190: ac84 32be 583e 80bd 4843 773d 842e bcbd
000001a0: 7c96 9a3d d178 7abd a69d 643d 480a 31bc
000001b0: c1a2 1dbd 9d59 c8bd fea6 ad3d 451b 2dbd
000001c0: ea55 7b3d a153 8e3d 2cc2 3c3d 1acc 783d
000001d0: 929b b1be d41c fbbd 6fdf 40bc a79b e7bd
000001e0: ffe3 83be 3ac0 d1bd 2b0d 163d c689 4a3c
000001f0: 39b4 d9bd 16dd 97bd 7ac2 79bd 347a 50be
00000200: d3fa 93bd 8ff0 863c 466d 0b3c b4f3 61bd
00000210: 2ca9 3ebe c681 92bd 3d14 f4bd 5e2e 04ba
00000220: 3c8e f6bd 7aa9 983d 3825 88bd 6ef9 81be
00000230: f44d dabd 9a30 0d3d 256b f73d 4084 56be
00000240: 4470 c1bc 7052 a4bd 9a3a a23d 5a62 503d
00000250: 2c95 0bbd b9fd 0e3e fdbb 04be 4c47 27be
00000260: ef48 8c3d 38b7 3abd ab8a 2dbe f106 72bd
00000270: 2447 27bb 44f8 86bc 6fc6 b9bd e865 2d3d
00000280: 4033 653d 2570 e4bd a319 9cbd 81e0 0cbe
00000290: 2717 0abe d455 b5bb 0bf5 173d 2af7 29be
000002a0: bfe3 52bd e5d3 b4bd 8662 dd3d a4bd 3c3d
000002b0: f058 cfbc 4663 abbd 0dd3 50be 20fd 03be
000002c0: 9b14 02be fbd7 01be 5b5a efbc 3e19 bc3d
000002d0: 1486 4d3d 13d1 de3c c035 91bb 32af 05be
000002e0: d022 3dbd 56e8 8fbd 0138 f4bd 34f9 f8bd
000002f0: 7c40 36be f0d7 cbbc 2117 b4bc 8bf1 6abd
00000300: 067c 73bd 78f5 1dbd c33a 02be 5ff2 82bc
00000310: c900 c9bd 1e32 8a3b 6021 3ebc 4b0c 963d
00000320: 3061 e43c 670c 9bbd 767f adbd ffaa 0bbe
00000330: 7a3c 32bd 8da8 163d 44fe dbbc a7c0 9f3c
00000340: ceaf 01be 3e20 0cbe b2c4 65bd 02e9 27be
00000350: 6106 6a3c 5e8c ddbd fe04 d8bd e776 63bd
00000360: e4ea a73c 08ab 15bd 71bd 2dbd a9fb a3bd
00000370: 3c40 18be 2d75 473d b61b 1abe ce86 15be
00000380: 5b5d 8ebd c8cf 1cbe eb4a bebd b910 0fbe
00000390: 6857 69bd 1cfb acbd e890 dabc e7f1 82bb
000003a0: 0542 be3d 5726 06bd 18a4 2fbd 6fbe a2bc
000003b0: 6e7f 3fbd 2289 eb3c 5796 83bd 5231 9dbd
000003c0: 5b0a 98bd b6e8 cd3d 5a46 b7bc 22cc c4bd
000003d0: d231 ebbd eb98 34bd e328 74bd c912 8a3c
000003e0: bf77 08be e3b4 1fbe 3eb0 54bd dd58 d83c
000003f0: 91bf 8d3c e5e2 0c3e fba7 a63c 4622 26bd
-0.13772236 0.120135605 -0.011750823 -1.4004707 -0.6419414 -0.07946618 -0.22828291 -0.040296413
-0.21850884 0.07620039 -1.233656 -0.10580643 -0.07812594 -0.7643025 0.027392713 -0.44590265
0.2168864 0.3551993 -0.49460742 0.23083685 0.026109854 0.054910425 -0.16466346 0.021140931
-0.077093706 -0.4704322 -0.18303855 0.2884936 -0.24234682 -0.052848984 -0.24692713 -0.032268185
-0.116273895 -0.2094022 0.026151557 -0.40658194 -1.1818745 -0.12899294 0.23382576 0.065726794
0.1611823 0.16871789 -0.059927046 0.024384603 -0.23621573 -0.13528249 -0.092191674 -0.37873256
-0.35721415 -0.017268237 -0.31380302 -0.0039957515 -0.20101659 0.20866492 0.42485157 -0.16321136
-0.20602798 -0.6809797 0.0235268 0.03857537 -0.0062524923 0.05621176 -0.16514733 -0.21200703
0.05127171 -0.08065166 -0.27459157 -0.118090406 -0.16333783 -0.22526233 0.009204527 -0.004740711
-0.12348473 0.06656769 -0.36566338 -0.016137462 0.0027253926 0.06300629 0.021821484 0.04566478
-0.07752366 -0.33648983 -0.06710876 -0.030252334 0.013898395 -0.03395416 -0.29402643 -0.021674307
-0.008549432 -0.0690288 0.03285806 -0.104801394 -0.03464323 -0.09205197 0.118791826 -0.04776821
-0.15263367 -0.15248938 -0.07274294 -0.06504051 -0.17433423 -0.06261891 0.0603669 -0.0918856
0.07548234 -0.061150376 0.055814408 -0.010805674 -0.038485292 -0.097827174 0.08479117 -0.042262334
0.06136123 0.06949545 0.046083614 0.06074152 -0.34689003 -0.12261358 -0.011772021 -0.11308985
-0.25759885 -0.102417424 0.03663365 0.012361949 -0.10630078 -0.07415216 -0.060976483 -0.20359117
-0.07225575 0.01647213 0.00850994 -0.055164054 -0.18619221 -0.071536586 -0.11917923 -0.00050423096
-0.12038848 0.074542 -0.06647724 -0.25385612 -0.106594 0.03447018 0.12080983 -0.20948887
-0.023613103 -0.08023536 0.079213336 0.050875045 -0.03407781 0.13963975 -0.12962337 -0.16335791
0.068498485 -0.045584887 -0.16947429 -0.05908865 -0.002552458 -0.016475804 -0.09071051 0.042333513
0.05595708 -0.11154202 -0.07622077 -0.13757516 -0.13485394 -0.005533913 0.037098926 -0.16598192
-0.051486727 -0.08829478 0.108098075 0.046079293 -0.025310963 -0.08368544 -0.2039301 -0.12889528
-0.12703173 -0.12680046 -0.02921789 0.09184502 0.050176695 0.027199304 -0.0044314563 -0.13055113
-0.046175778 -0.070267364 -0.119247444 -0.12156907 -0.17798036 -0.02488324 -0.021983685 -0.05735926
-0.05944445 -0.038564175 -0.12717728 -0.015984712 -0.09814603 0.0042174 -0.011604637 0.073265634
0.027878374 -0.07570725 -0.08471577 -0.13639449 -0.043514706 0.036781836 -0.026854642 0.019501043
-0.1266472 -0.13684174 -0.056095786 -0.16397479 0.014283747 -0.108177885 -0.10547827 -0.055533316
0.020497747 -0.03654006 -0.042416994 -0.08006985 -0.14868253 0.048695732 -0.15049633 -0.14602205
-0.069514 -0.15313637 -0.09291633 -0.13971223 -0.056968123 -0.08446333 -0.026680425 -0.003996122
0.09289936 -0.032751407 -0.0428811 -0.019866196 -0.046752386 0.028751913 -0.064251594 -0.07675423
-0.0742385 0.10054152 -0.022372413 -0.09609248 -0.11484112 -0.044091146 -0.059609305 0.01685466
-0.1332693 -0.15596347 -0.05192589 0.02640956 0.01730326 0.13758428 0.020343771 -0.04056003

layer3.bias f4 [128]
00000000: 7889 5ebe 0eb6 51bd da4f 1fbe fe3e 60bd
00000010: de6d 88bd 3fbd c1bd 157e d3bd bb29 26be
00000020: e420 a7bd 7181 97bc 4466 04be e894 92be
00000030: e60e cdbd 4f1e 38be 12b6 ccbd 9084 f9bd
00000040: 48b9 1bbd ce85 02be fd73 3bbe 486a d93d
00000050: 329b 65be a59e cebd b545 81be 1717 0ebe
00000060: ea8f 88bd 34bc 03be fae4 a0be a108 fe3d
00000070: 12ad 18be cea5 57be 2d2b 4abe 19cf 513e
00000080: b626 c0bd 0b2e b1bd 1d68 65be 2bb7 68be
00000090: b170 49be 79b7 093e a1a2 6cbe 9a3b 32be
000000a0: 6fce 1dbe 91ce 80be 9704 1ebe e714 06be
000000b0: 329f df3d f243 18be 76d7 98bd 25e2 5bbe
000000c0: 3c5d 953d 9b51 39be f07d 71bd aad0 2dbe
000000d0: 61ba 03be 0a0e 15be 28b8 34be 3547 42be
000000e0: 1a6f 15be 320b a2bd db1a 32be dd99 18be
000000f0: ac4c 0cbe 0bc1 1ebd bed5 99bd 830b 46be
00000100: 8d65 1a3c 9cea 64be e564 bebd 1897 cbbd
00000110: 87b1 90bd 5d02 b7bd 467a 0dbe ddc6 35be
00000120: 9dac f7bd 7639 10be 923f 1dbe 6300 cebd
00000130: 36ae 20be 77c6 60be 6010 f7bd ffca 96be
00000140: 3a50 573e 1787 dfbd 78f0 54be 3ae7 3a3e
00000150: b8d0 66bd 3c2d 24be 246f 0dbe 8e25 31be
00000160: c164 f73b 0348 a1bb f71e cabd 4696 b2bd
00000170: 6b07 c3bd 6362 5ebd 5302 59be 2863 29be
00000180: a01c 6bbe b74e 23be 2e67 54be 362b f4bd
00000190: e671 10be 647a 6cbe 6af7 e1bd 6b47 3dbe
000001a0: 8afc c2bd b3d6 02be 16db 23be fd4a 44bd
000001b0: db04 58bd 7005 edbc 5689 33bd fc03 0ebe
000001c0: dfb0 edbd 7903 a1bd 2ecd 20be 4e7e c7bd
000001d0: e7a6 d0bd 4af8 7fbe da46 05be 5522 67be
000001e0: 5527 82be 34e4 41be cb53 f3bd e875 2abe
000001f0: f250 2dbe 2145 65be cf10 fabd 9f3d 0abe
-0.21732128 -0.05119901 -0.15557805 -0.054747574 -0.066615805 -0.09459924 -0.103267826 -0.16226856
-0.0816057 -0.01849434 -0.12929636 -0.2862923 -0.10012607 -0.17980312 -0.09995665 -0.121834874
-0.038018495 -0.12746355 -0.18305965 0.10615975 -0.22422484 -0.10088853 -0.25248495 -0.13875996
-0.066680744 -0.12864763 -0.31424695 0.124039896 -0.14909771 -0.21059343 -0.19743033 0.20489158
-0.093823835 -0.0865136 -0.22402997 -0.22726123 -0.19671895 0.13448896 -0.23108913 -0.17405549
-0.1541078 -0.25157598 -0.15431438 -0.13093911 0.10919036 -0.14869669 -0.07462971 -0.21472986
0.07293174 -0.18097536 -0.058957994 -0.1697413 -0.12864067 -0.14556137 -0.17648375 -0.18972476
-0.14593163 -0.079122916 -0.17393057 -0.14902444 -0.13701123 -0.03875832 -0.07511471 -0.19340329
0.009423626 -0.22355121 -0.09296588 -0.09940928 -0.07065111 -0.08935998 -0.13816175 -0.17751642
-0.1209347 -0.1408442 -0.15356281 -0.100586675 -0.15691456 -0.21950708 -0.1206367 -0.2945175
0.21026698 -0.10914438 -0.20794857 0.18252268 -0.056351393 -0.1603288 -0.13811928 -0.17299482
0.0075498526 -0.0049219145 -0.09869187 -0.08720069 -0.09522899 -0.054293048 -0.21192293 -0.16541731
-0.22960138 -0.15947996 -0.20742485 -0.11922304 -0.14105949 -0.23093563 -0.110335186 -0.18484275
-0.09520824 -0.12777214 -0.16001543 -0.047923077 -0.052739006 -0.028933257 -0.043832146 -0.13868707
-0.11606001 -0.078619905 -0.1570327 -0.097408876 -0.10188084 -0.24997059 -0.13015309 -0.2257169
-0.25420633 -0.18934709 -0.118812166 -0.1664654 -0.1692541 -0.22389652 -0.12210237 -0.13500069

layer4.weight f4 [22, 128]
00000000: 5a4a 8cbc 5f3a 3e3d 85c2 c1bd ef64 c33d
00000010: 03e3 8c3d 2b75 f53c 1767 023a 3f01 27ba
00000020: e98b 8abd d72f c53d ca8f 6e3c 411d b53e
00000030: 8d6b fb3d 0295 4abd 19bc 9fbc 0670 8dbd
00000040: 6713 65bc e4b2 85bd 97ce 1bbd 2686 ae3b
00000050: 628a c0bd 46e6 a53d 0332 163e e201 97bd
00000060: 5be1 2e3d 1851 53bc d2f2 a7be 92ff d23d
00000070: 0e70 813d c6fe f23b 873d 73bd 5cda 19be
00000080: a628 323e e0b3 d6bd 2bdf bbbd 9ace ce3d
00000090: 32c2 22be 6968 5dbc e834 543c 0685 95bd
000000a0: a225 6b3d 9d93 cbbc b252 4e3d 45da ccbb
000000b0: 807b 86bc 5144 913d 2c2e 1abe af09 b3bd
000000c0: 6528 27bb b2d2 9b3c a94b 39be 93b1 8bbe
000000d0: 95e9 d5be fbc8 cbbc 5628 873d a619 03be
000000e0: 8389 013d 2fb3 a03d d030 cfbd 2aef 573b
000000f0: 004c 28bd aad0 b03d 96f5 813d 2ac4 6b3c
00000100: aa6c 90bc 8050 593d 0ea7 6fbc c7a1 2dbe
00000110: 7b3b 3ebd c66c 38bd 79db 7e3d 1caf eb3c
00000120: a2c9 583c 1d49 b93c 0f5d 15bd aa22 efbd
00000130: 1637 43bd 263d 17bc e9f6 733d aeaf 5a3e
00000140: 0402 053d 11c3 843d 9748 6a3d 86ad 6a39
00000150: 7d8a 9dbd 2085 09be c2a0 2a3e eb32 c8bd
00000160: 7718 bdbc c81b 8f3d c2b7 cfbc 73d2 0e3d
00000170: e4ff eb3d f14b 293d 9a45 0ebd 03d9 913d
00000180: b2a8 e93c 2a73 143d 9c6c 5dbd 4312 91bd
00000190: c41d f2bc c09f 153d 72e1 35bc a5fc 663d
000001a0: d933 47be 5b76 82bd ec47 263d 2567 883d
000001b0: 722c f33b 405d 31bc 06c5 e53c c71a c5bd
000001c0: be1f 6abc a54b 1c3d d372 8cbd d5a9 00bc
000001d0: 33bd 3a3e bb7d 56bd 449d e4bb 8833 1f3e
000001e0: b319 503d a90d 23bd 2589 5cbc 60fa 4d3d
000001f0: fecf fbbc b744 8a3d 8c85 b03c 88de 07be
00000200: bfe3 e43d 3871 96bd 6eac 2abd 1dbc 09bd
00000210: 91d8 903d 26a4 013d 6f26 9bbc 65c0 43be
00000220: d4e1 26bd fb86 b73c 8bf3 98bd 3fc9 c33d
00000230: 16a0 fe3d c38b 133e 2324 a23d 3efd 5b3d
00000240: 838e 173d 52ac e83d 8783 ba3d 0fdb 1c3d
00000250: 6cf8 bfbe 9e5a be3d b349 f738 7811 153e
00000260: b098 e73d 14f5 473c 49fa dd3d e3fc 3ebe
00000270: 610e 1abe 9cc1 693b 2aa3 25bd 812e 293c
00000280: a147 6f3d ae87 813d f71e 00be 2190 0cbe
00000290: 333d 1d3d 5bff f2bc dfd7 4abd eeda 143a
000002a0: 8415 ec3d 78bf d43d 7e98 ae3d 1e92 53be
000002b0: 84fb 8bbd 9769 6f3e 984c c53d 0ea4 023e
000002c0: fd29 29bd 2c4f 053d 3a61 e2bd df04 123f
000002d0: 0bfc 4c3e 349b 93bc a690 8f3d 8962 023e
000002e0: a3f7 933d 6958 783e 6eef 2e3d dc08 263d
000002f0: a519 ed3d 228f 63bd 6c74 4d3d 698c 7bbc
00000300: 70a1 c4bc 9447 e23d ceef 373c 1ce0 90be
00000310: f0c4 013e 1a0f 523d 9dd7 93bd e6e8 0c3d
00000320: b58a 50be 39db cdbd 7bd8 1abb 20b0 3ebc
00000330: 69cd e33c 70f4 c73c fc11 a53c 057e 113d
00000340: cc93 5ebd ac07 41bd c6dc a63d 3a85 5abd
00000350: 7ec4 73bd 4a7a d33d f9fb acbe e19c 8c3c
00000360: 65ee 383e 1fca aa3d 148f 9d3d b5ef 6e3d
00000370: 2dfb 82bd 5543 91bd c3a8 9d3d 2932 debe
00000380: 8588 5dbd 0720 1a3e 4911 08be 7211 7fbd
00000390: 3b5a c53d a5d0 e2bc 2ddc 1b3d 96e1 bb3d
000003a0: 01e9 f53d a675 9dbd 3706 8fbd d4af bbbd
000003b0: 5640 3f3d 82f1 a53d 897c d53b 4dc3 00b8
000003c0: c282 f5bb 2237 c2bc 8f08 1dbd 497a 3fbd
000003d0: 22f9 fabd b239 88bd 86c0 bf3d cb02 c43d
000003e0: 6d00 b73d cf47 5bbb 7128 2c3e 41f3 0abd
000003f0: 8d8d e1bc f91d e2bd 88ee e4bd cacf 183d
-0.017125297 0.046442386 -0.0946093 0.09540736 0.068792365 0.029963097 0.0004974468 -0.000637073
-0.06764967 0.09628265 0.014560649 0.3537388 0.12276373 -0.04945851 -0.019498872 -0.069061324
-0.013981677 -0.06528261 -0.038038816 0.0053260503 -0.094013944 0.08100562 0.14667515 -0.07373406
0.042695384 -0.012897752 -0.32802445 0.103026524 0.06320201 0.0074156253 -0.05938485 -0.15024704
0.17398319 -0.10483527 -0.09173425 0.10098 -0.15894392 -0.013513663 0.012952067 -0.07300763
0.057408936 -0.024850661 0.050371833 -0.0062516057 -0.016416311 0.070931084 -0.15056676 -0.087420814
-0.0025506255 0.019021366 -0.18095268 -0.27283916 -0.4177977 -0.024876108 0.0659949 -0.12802753
0.031625282 0.078466766 -0.10116732 0.003294895 -0.041088104 0.086335495 0.0634567 0.014390031
-0.01762994 0.053055286 -0.014627231 -0.16956244 -0.046443444 -0.04502561 0.062221024 0.028770022
0.013231667 0.022617871 -0.0364657 -0.116765335 -0.047659956 -0.0092308875 0.059561644 0.21356079
0.032472625 0.064825185 0.057198133 0.00022380622 -0.0769243 -0.1342969 0.16662887 -0.09775337
-0.023082955 0.06987721 -0.025356177 0.03486867 0.11523417 0.04133219 -0.034734346 0.0712147
0.028522823 0.03624264 -0.054058656 -0.07083561 -0.029555209 0.036529303 -0.011101114 0.056393284
-0.19453372 -0.06370231 0.040595934 0.06660298 0.00742107 -0.010825455 0.02804805 -0.09624248
-0.0142897945 0.038158078 -0.068578385 -0.007852991 0.18236236 -0.052366 -0.0069767553 0.15547001
0.05080576 -0.03980795 -0.013460432 0.050287604 -0.030738827 0.067513876 0.021548055 -0.13268483
0.111762516 -0.073458135 -0.041668348 -0.033626664 0.07072557 0.031650685 -0.018939225 -0.19116361
-0.04074271 0.02240323 -0.07468327 0.09559869 0.12432878 0.14408784 0.07917049 0.053708307
0.037001144 0.113609925 0.09107118 0.038294848 -0.37494218 0.092946276 0.00011791605 0.14557445
0.1130842 0.012204427 0.10838754 -0.18651156 -0.15044548 0.0035668379 -0.04043881 0.010326029
0.05841792 0.06324707 -0.12511812 -0.13726856 0.038388442 -0.029662779 -0.049522277 0.0005678375
0.11527541 0.10388082 0.08525179 -0.20661208 -0.06835082 0.23380123 0.0963375 0.12757894
-0.04129981 0.032546207 -0.11053701 0.5703868 0.20018022 -0.018018343 0.070100114 0.127329
0.07224967 0.24252476 0.042708807 0.040535793 0.11577157 -0.055556424 0.050159857 -0.015353301
-0.02400276 0.11048809 0.0112266075 -0.28295982 0.12672782 0.051283933 -0.07218859 0.034401797
-0.20365413 -0.10051579 -0.0023627568 -0.011638671 0.027807908 0.02440855 0.020150177 0.035520572
-0.05434017 -0.047126457 0.08147578 -0.05334971 -0.05951356 0.10326059 -0.3378599 0.01716465
0.1805969 0.08339333 0.076933056 0.05833407 -0.06395564 -0.07092921 0.07698204 -0.43397644
-0.054085273 0.1505128 -0.13287844 -0.062272497 0.09636351 -0.02768738 0.038051773 0.091738865
0.120073326 -0.07688455 -0.06983607 -0.09164396 0.046692215 0.081027046 0.00651509 -3.0699466e-05
-0.007492394 -0.02370793 -0.03833824 -0.04674748 -0.122545496 -0.066516295 0.09362893 0.09570845
0.08935628 -0.003345955 0.16812302 -0.03392339 -0.027533317 -0.11040873 -0.11178309 0.037307538

layer4.bias f4 [22]
00000000: b3de 053d b669 323b 6b2a ad3d 96bf bc3c
00000010: 3f13 f93c 9d2e 033d 66d4 1f3d 80d7 bb3d
00000020: df8a 823c 3e79 883d e9a9 1a3d c7e4 273d
00000030: 815c 2f3e 73c7 213d a1f7 5a3d b9c4 793d
00000040: f03a 9c3d a1ef 323e da79 bb3c b6d7 033e
00000050: 344d 8d3d 2a10 9c3d
0.032683086 0.0027223653 0.08455356 0.023040574 0.030404685 0.032026876 0.03902092 0.09171963
0.01593536 0.0666375 0.037759695 0.040989663 0.17125131 0.03949685 0.053458814 0.060978625
0.07628429 0.17474224 0.022885252 0.12875256 0.06899491 0.076202706

exp_avg f4 [32, 22]
00000000: 547b e9b4 1b74 8d35 146d 54b4 dc66 28b4
00000010: fe6a aab3 4a1f 53b4 a660 70b3 80d0 14b5
00000020: 45bf 11b5 e101 16b5 0cd2 93b4 eab8 96b4
00000030: 146d d4b4 dc66 a8b4 fe6a 2ab4 4a1f d3b4
00000040: a660 f0b3 80d0 94b5 45bf 91b5 e101 96b5
00000050: 0cd2 13b5 eab8 16b5 cdc7 6c1c f0fd ab98
00000060: 0828 f898 fc27 1817 40ec 9916 13a3 7197
00000070: 3bf0 3518 f5a9 2c16 7352 0398 eeb5 4097
00000080: 356e 2e17 13ca 9218 0828 7899 fc27 9817
00000090: 40ec 1917 13a3 f197 3bf0 b518 f5a9 ac16
000000a0: 7352 8398 eeb5 c097 356e ae17 13ca 1219
000000b0: bb52 3036 a7d5 9b36 171d 2335 1a46 c135
000000c0: 9f48 7834 5c80 2535 3b5e 4f35 1dda 4b34
000000d0: 28c0 9635 79a4 a635 b86b 8c35 6f89 1a35
000000e0: 171d a335 1a46 4136 9f48 f834 5c80 a535
000000f0: 3b5e cf35 1dda cb34 28c0 1636 79a4 2636
00000100: b86b 0c36 6f89 9a35 0473 a8b7 7e20 e837
00000110: c407 47b8 1fbc 07b8 6e10 35b8 ff0b 95b8
00000120: 9bbc 83b8 7260 8eb8 f2cf 41b8 ba01 fdb7
00000130: 850c 84b8 f897 26b8 c407 c7b8 1fbc 87b8
00000140: 6e10 b5b8 ff0b 15b9 9bbc 03b9 7260 0eb9
00000150: f2cf c1b8 ba01 7db8 850c 04b9 f897 a6b8
00000160: e98b b2b4 fb1d 38b4 5503 b1b4 29ad b4b4
00000170: 28e6 15b3 bba2 d3b4 f3f9 40b4 d6b8 ddb4
00000180: 8c60 d1b4 d175 c9b4 7804 dbb4 ac59 bdb4
00000190: 5503 31b5 29ad 34b5 28e6 95b3 bba2 53b5
000001a0: f3f9 c0b4 d6b8 5db5 8c60 51b5 d175 49b5
000001b0: 7804 5bb5 ac59 3db5 05aa 4338 62bc cf37
000001c0: 5cdb 8537 570b 8338 306e 3838 5536 cf37
000001d0: 0469 6c38 c352 0b38 3e40 1b38 dafc 4338
000001e0: 4b57 5138 1da9 0e38 5cdb 0538 570b 0339
000001f0: 306e b838 5536 4f38 0469 ec38 c352 8b38
00000200: 3e40 9b38 dafc c338 4b57 d138 1da9 8e38
00000210: 4592 1682 8ca5 1c82 147a 1502 6706 1d02
00000220: 1711 1402 49f5 1282 3007 1f82 7538 1e02
00000230: 4fc3 1382 7a34 1e82 354d 1782 6140 1c82
00000240: 52e0 1e02 8b35 1602 a360 1d02 fc32 1c82
00000250: 1220 1882 4f5a 1702 f80d 1d82 8156 1782
00000260: f2bb 1082 1e78 1582 09f8 4db6 511d 9136
00000270: 4da5 b934 2699 9e33 36bf 0235 884d 4535
00000280: 9789 f733 1527 15b5 7f60 a0b5 175b 0eb5
00000290: f49d edb4 baba 0c35 4da5 3935 2699 1e34
000002a0: 36bf 8235 884d c535 9789 7734 1527 95b5
000002b0: 7f60 20b6 175b 8eb5 f49d 6db5 baba 8c35
000002c0: df1b a11a 2d0d ea96 57d9 2897 050f 4f15
000002d0: 5e76 d114 cf69 a495 3f96 7716 41f7 6a14
000002e0: f6b4 3296 811f 8395 b15e 6d15 44c1 c716
000002f0: 57d9 a897 050f cf15 5e76 5115 cf69 2496
00000300: 3f96 f716 41f7 ea14 f6b4 b296 811f 0396
00000310: b15e ed15 44c1 4717 9961 e4a7 9c05 0328
00000320: 3e25 d0a6 09df 13a6 2460 b926 309a 4da6
00000330: 96d1 db26 1702 97a5 8362 62a7 7fb4 7829
00000340: 693f 8b26 18fc 75a7 3e25 50a7 09df 93a6
00000350: 2460 3927 309a cda6 96d1 5b27 1702 17a6
00000360: 8362 e2a7 7fb4 f829 693f 0b27 18fc f5a7
00000370: 9826 07b6 4813 4e36 b8f6 8db4 1c21 2a35
00000380: 7645 79b3 43b7 79b4 96e5 22b3 c092 22b5
00000390: 3b05 09b5 18d6 4035 1e68 b5b4 6aec 9533
000003a0: b8f6 0db5 1c21 aa35 7645 f9b3 43b7 f9b4
000003b0: 96e5 a2b3 c092 a2b5 3b05 89b5 18d6 c035
000003c0: 1e68 35b5 6aec 1534 4e22 b6b7 9ec7 32b8
000003d0: 0ca2 c235 57b8 7e37 9dac 37b6 311b 34b7
000003e0: 06ab 8535 bd3d f8b7 3676 e136 0870 6837
000003f0: f787 7b36 1d39 0536 0ca2 4236 57b8 fe37
-4.3489365e-07 1.053911e-06 -1.9783721e-07 -1.5683639e-07 -7.935704e-08 -1.9662289e-07 -5.5967256e-08 -5.5437704e-07
-5.4295043e-07 -5.588209e-07 -2.7533713e-07 -2.807422e-07 -3.9567442e-07 -3.1367279e-07 -1.5871407e-07 -3.9324578e-07
-1.1193451e-07 -1.1087541e-06 -1.0859009e-06 -1.1176418e-06 -5.5067426e-07 -5.614844e-07 7.8344086e-22 -4.4458875e-24
-6.414692e-24 4.9164316e-25 2.4867578e-25 -7.807713e-25 2.3514987e-24 1.3947678e-25 -1.697298e-24 -6.2268173e-25
5.6361533e-25 3.794416e-24 -1.2829384e-23 9.832863e-25 4.9735156e-25 -1.5615426e-24 4.7029974e-24 2.7895357e-25
-3.394596e-24 -1.2453635e-24 1.1272307e-24 7.588832e-24 2.62742e-06 4.6442324e-06 6.0764563e-07 1.4400023e-06
2.3123219e-07 6.165408e-07 7.725063e-07 1.8985197e-07 1.1231796e-06 1.2415832e-06 1.0462163e-06 5.756946e-07
1.2152913e-06 2.8800046e-06 4.6246439e-07 1.2330815e-06 1.5450127e-06 3.7970395e-07 2.2463591e-06 2.4831663e-06
2.0924326e-06 1.1513893e-06 -2.0080719e-05 2.7671686e-05 -4.745253e-05 -3.236171e-05 -4.3169064e-05 -7.107108e-05
-6.281697e-05 -6.789052e-05 -4.620845e-05 -3.0160754e-05 -6.2965824e-05 -3.9719016e-05 -9.490506e-05 -6.472342e-05
-8.633813e-05 -0.00014214216 -0.00012563395 -0.00013578104 -9.24169e-05 -6.032151e-05 -0.00012593165 -7.943803e-05
-3.3256882e-07 -1.7147242e-07 -3.2971244e-07 -3.3653603e-07 -3.4901092e-08 -3.9420215e-07 -1.7972324e-07 -4.1298944e-07
-3.899953e-07 -3.752489e-07 -4.079518e-07 -3.5269238e-07 -6.5942487e-07 -6.7307207e-07 -6.9802184e-08 -7.884043e-07
-3.594465e-07 -8.259789e-07 -7.799906e-07 -7.504978e-07 -8.159036e-07 -7.0538476e-07 4.6649966e-05 2.4764046e-05
1.5956983e-05 6.248679e-05 4.397164e-05 2.4701623e-05 5.6364588e-05 3.321726e-05 3.701471e-05 4.672711e-05
4.991078e-05 3.4012937e-05 3.1913965e-05 0.00012497358 8.794328e-05 4.9403247e-05 0.000112729176 6.643452e-05
7.402942e-05 9.345422e-05 9.982156e-05 6.8025874e-05 -1.1062237e-37 -1.150858e-37 1.0981826e-37 1.1536376e-37
1.0878227e-37 -1.0796779e-37 -1.1683538e-37 1.1624209e-37 -1.0855905e-37 -1.1623067e-37 -1.1115885e-37 -1.1479546e-37
1.1672383e-37 1.1035626e-37 1.1562272e-37 -1.1475702e-37 -1.11764e-37 1.1119645e-37 -1.1538547e-37 -1.1118553e-37
-1.0633387e-37 -1.0981263e-37 -3.0691756e-06 4.3247496e-06 3.4579207e-07 7.385306e-08 4.870702e-07 7.350104e-07
1.1526861e-07 -5.55637e-07 -1.1949013e-06 -5.3031675e-07 -4.4259616e-07 5.2425787e-07 6.9158415e-07 1.4770612e-07
9.741404e-07 1.4700208e-06 2.3053722e-07 -1.111274e-06 -2.3898026e-06 -1.0606335e-06 -8.851923e-07 1.0485157e-06
6.663307e-23 -3.7813054e-25 -5.455805e-25 4.1815165e-26 2.1150295e-26 -6.640601e-26 1.999991e-25 1.1862743e-26
-1.4435827e-25 -5.296018e-26 4.7936467e-26 3.2272152e-25 -1.091161e-24 8.363033e-26 4.230059e-26 -1.3281202e-25
3.999982e-25 2.3725486e-26 -2.8871653e-25 -1.0592037e-25 9.5872934e-26 6.4544303e-25 -6.338853e-15 7.273177e-15
-1.4442994e-15 -5.130314e-16 1.2863013e-15 -7.1332626e-16 1.5252986e-15 -2.619574e-16 -3.1417204e-15 5.5223617e-14
9.66225e-16 -3.413724e-15 -2.8885988e-15 -1.0260628e-15 2.5726025e-15 -1.4266525e-15 3.0505972e-15 -5.239148e-16
-6.2834408e-15 1.10447235e-13 1.93245e-15 -6.827448e-15 -2.0139032e-06 3.0707615e-06 -2.6442808e-07 6.3378116e-07
-5.8038005e-08 -2.3256602e-07 -3.792737e-08 -6.056325e-07 -5.104409e-07 7.183712e-07 -3.3789632e-07 6.981357e-08
-5.2885616e-07 1.2675623e-06 -1.1607601e-07 -4.6513205e-07 -7.585474e-08 -1.211265e-06 -1.0208818e-06 1.4367424e-06
-6.7579265e-07 1.3962713e-07 -2.1712065e-05 -4.2624415e-05 1.4501288e-06 1.51825e-05 -2.73696e-06 -1.0735167e-05
9.959047e-07 -2.9592653e-05 6.719284e-06 1.3854362e-05 3.7481057e-06 1.9851789e-06 2.9002576e-06 3.0365e-05

exp_avg_sq f4 [32, 22]
00000000: 51dc 9330 d4c7 4a31 7bf5 d330 ac1a 0531
00000010: ad08 a830 663f 4131 5748 b530 1ee6 7a31
00000020: 926c 6231 252d 3831 d115 fa30 aa04 9230
00000030: 7bf5 d331 ac1a 0532 ad08 a831 663f 4132
00000040: 5748 b531 1ee6 7a32 926c 6232 252d 3832
00000050: d115 fa31 aa04 9231 61bd b030 97e5 ed2f
00000060: 95e7 4c30 7b75 4b30 ff10 322f b311 9530
00000070: 9ba4 0c2e 04cd 4630 c9b3 9530 f9bb 952e
00000080: 912d 9530 7c17 a830 95e7 4c31 7b75 4b31
00000090: ff10 3230 b311 9531 9ba4 0c2f 04cd 4631
000000a0: c9b3 9531 f9bb 952f 912d 9531 7c17 a831
000000b0: e4ec 7931 8313 1032 944a 4331 517c 7c31
000000c0: 2c28 2f31 1acf 1831 a9b7 4231 6bb0 3031
000000d0: b595 4831 1903 1031 bc6e 5331 219c 2131
000000e0: 944a 4332 517c 7c32 2c28 2f32 1acf 1832
000000f0: a9b7 4232 6bb0 3032 b595 4832 1903 1032
00000100: bc6e 5332 219c 2132 360f c032 f321 8433
00000110: 4705 5232 a2ba 5b32 0ff0 5432 24da 5e32
00000120: 6424 6232 ac8d 6032 e899 5a32 ff10 4932
00000130: 177f 5532 5067 4f32 4705 5233 a2ba 5b33
00000140: 0ff0 5433 24da 5e33 6424 6233 ac8d 6033
00000150: e899 5a33 ff10 4933 177f 5533 5067 4f33
00000160: e702 4530 907f 3030 2233 0b2f 7dc7 e32e
00000170: 1e40 2e2e 5396 b12e f8fa c32e 21e1 262f
00000180: cb99 232f ff80 012f 3445 262f 085d ef2e
00000190: 2233 0b30 7dc7 e32f 1e40 2e2f 5396 b12f
000001a0: f8fa c32f 21e1 2630 cb99 2330 ff80 0130
000001b0: 3445 2630 085d ef2f 0097 1633 c892 a333
000001c0: 0576 af32 cd2b ad32 0d48 8932 e43a b332
000001d0: 67cb 9732 01a3 cc32 f5e4 bf32 db66 ad32
000001e0: cb28 c232 2226 c432 0576 af33 cd2b ad33
000001f0: 0d48 8933 e43a b333 67cb 9733 01a3 cc33
00000200: f5e4 bf33 db66 ad33 cb28 c233 2226 c433
00000210: 8273 b52c 372a 352f 1e13 8e2a 7973 bf24
00000220: 1b79 5e2b 7540 bd27 6002 b226 7a5e 802a
00000230: 161a ad26 03ab 0a26 8bc9 1b28 6b5f c525
00000240: 1e13 8e2b 7973 bf25 1b79 5e2c 7540 bd28
00000250: 6002 b227 7a5e 802b 161a ad27 03ab 0a27
00000260: 8bc9 1b29 6b5f c526 ddbe 3131 ba5e 6431
00000270: be4e c530 b3a6 9430 e854 ae30 55b7 9530
00000280: ffdd b930 ebbb 2331 c417 c130 c3b6 be30
00000290: 0dfb c230 e734 1131 be4e c531 b3a6 9431
000002a0: e854 ae31 55b7 9531 ffdd b931 ebbb 2332
000002b0: c417 c131 c3b6 be31 0dfb c231 e734 1132
000002c0: 0d22 cb2f cd39 bc2f e62d bf2d 4156 f62d
000002d0: 1f21 ac2d 87c2 b32d 139e ea2d 3541 592d
000002e0: c41b dd2c 93f1 1a2d 7289 982d 0afb 042d
000002f0: e62d bf2e 4156 f62e 1f21 ac2e 87c2 b32e
00000300: 139e ea2e 3541 592e c41b dd2d 93f1 1a2e
00000310: 7289 982e 0afb 042e 5277 4b2e 5559 d630
00000320: e5b2 082e 720d 042e 61bb 222d 2196 252e
00000330: f878 712d f72b ea2d 8f4e 2d2e bb5e a32f
00000340: 4f6b b42d ba0a e72d e5b2 082f 720d 042f
00000350: 61bb 222e 2196 252f f878 712e f72b ea2e
00000360: 8f4e 2d2f bb5e a330 4f6b b42e ba0a e72e
00000370: 7715 d430 722b c431 419b 862f a6c9 0b30
00000380: 692e bb2f 385b ae2f 4401 262f 4325 aa2f
00000390: 49fc c02f ddc6 ee2f 3f2e 202f 6f01 cd2f
000003a0: 419b 8630 a6c9 0b31 692e bb30 385b ae30
000003b0: 4401 2630 4325 aa30 49fc c030 ddc6 ee30
000003c0: 3f2e 2030 6f01 cd30 e2ce a532 15bc 5a33
000003d0: 5da6 3e32 ca57 2832 cc11 3d32 4da4 4732
000003e0: 89e5 4132 c376 4a32 78f4 2532 ce2a 2832
000003f0: af00 1932 fc87 3332 5da6 3e33 ca57 2833
1.0758275e-09 2.9508458e-09 1.542204e-09 1.9369208e-09 1.2226075e-09 2.8121234e-09 1.3190044e-09 3.6510595e-09
3.2949043e-09 2.6801186e-09 1.8196095e-09 1.0624224e-09 6.168816e-09 7.747683e-09 4.89043e-09 1.1248494e-08
5.2760174e-09 1.4604238e-08 1.3179617e-08 1.0720474e-08 7.278438e-09 4.2496895e-09 1.285951e-09 4.3273182e-10
7.4543866e-10 7.401792e-10 1.6195044e-10 1.0846207e-09 3.1978514e-11 7.2323325e-10 1.0892275e-09 6.809126e-11
1.0854128e-09 1.2230283e-09 2.9817546e-09 2.9607168e-09 6.4780176e-10 4.338483e-09 1.2791405e-10 2.892933e-09
4.35691e-09 2.7236505e-10 4.341651e-09 4.8921134e-09 3.6368926e-09 8.38634e-09 2.8418627e-09 3.6741492e-09
2.5488687e-09 2.2236635e-09 2.8335114e-09 2.5711653e-09 2.918893e-09 2.0956519e-09 3.0767486e-09 2.3517333e-09
1.1367451e-08 1.4696597e-08 1.0195475e-08 8.894654e-09 1.1334046e-08 1.0284661e-08 1.1675572e-08 8.3826075e-09
1.23069945e-08 9.406933e-09 2.2358659e-08 6.152904e-08 1.2224809e-08 1.2789913e-08 1.2394607e-08 1.29717e-08
1.3163206e-08 1.30707285e-08 1.2724264e-08 1.1703604e-08 1.2427129e-08 1.2072476e-08 4.8899235e-08 5.1159653e-08
4.957843e-08 5.18868e-08 5.2652823e-08 5.2282914e-08 5.0897057e-08 4.6814417e-08 4.9708515e-08 4.8289905e-08
7.1672307e-10 6.4209704e-10 1.2660142e-10 1.0358201e-10 3.9619967e-11 8.075731e-11 8.9121543e-11 1.5177594e-10
1.4879402e-10 1.177831e-10 1.5122198e-10 1.08849874e-10 5.064057e-10 4.1432804e-10 1.5847987e-10 3.2302924e-10
3.5648617e-10 6.0710376e-10 5.951761e-10 4.711324e-10 6.048879e-10 4.353995e-10 3.506193e-08 7.616978e-08
2.042635e-08 2.0159769e-08 1.5981664e-08 2.0865123e-08 1.767121e-08 2.3822851e-08 2.2339444e-08 2.0186624e-08
2.2603123e-08 2.2834744e-08 8.17054e-08 8.0639076e-08 6.3926656e-08 8.346049e-08 7.068484e-08 9.5291405e-08
8.9357776e-08 8.0746496e-08 9.041249e-08 9.1338975e-08 5.1571534e-12 1.6476852e-10 2.5237532e-13 8.3028664e-17
7.903831e-13 5.2527922e-15 1.2351875e-15 2.2802924e-13 1.2011357e-15 4.811013e-16 8.647931e-15 3.423871e-16
1.0095013e-12 3.3211466e-16 3.1615325e-12 2.1011169e-14 4.94075e-15 9.12117e-13 4.804543e-15 1.9244053e-15
3.4591724e-14 1.3695484e-15 2.5865383e-09 3.3232213e-09 1.4356016e-09 1.0815796e-09 1.2684298e-09 1.0893283e-09
1.3523617e-09 2.382644e-09 1.4049353e-09 1.3876263e-09 1.4186711e-09 2.1130349e-09 5.7424066e-09 4.3263184e-09
5.0737192e-09 4.357313e-09 5.4094467e-09 9.530576e-09 5.619741e-09 5.5505054e-09 5.6746843e-09 8.452139e-09
3.694968e-10 3.423807e-10 2.1734569e-11 2.8005267e-11 1.9568845e-11 2.0436331e-11 2.6672919e-11 1.2349501e-11
6.2842804e-12 8.807527e-12 1.7341437e-11 7.559073e-12 8.6938276e-11 1.12021066e-10 7.827538e-11 8.1745326e-11
1.06691676e-10 4.9398003e-11 2.5137122e-11 3.5230107e-11 6.936575e-11 3.0236293e-11 4.6262834e-11 1.5595939e-09
3.108171e-11 3.0025267e-11 9.25024e-12 3.7649998e-11 1.3726124e-11 2.6622244e-11 3.940542e-11 2.9716837e-10
2.0511285e-11 2.6266423e-11 1.2432684e-10 1.2010107e-10 3.700096e-11 1.5059999e-10 5.4904498e-11 1.0648898e-10
1.5762168e-10 1.1886735e-09 8.204514e-11 1.0506569e-10 1.5431131e-09 5.70929e-09 2.4484773e-10 5.0854465e-10
3.4048078e-10 3.171523e-10 1.5098062e-10 3.0949296e-10 3.5103856e-10 4.343325e-10 1.4568345e-10 3.7290301e-10
9.793909e-10 2.0341786e-09 1.3619231e-09 1.2686092e-09 6.0392247e-10 1.2379718e-09 1.4041542e-09 1.73733e-09
5.827338e-10 1.4916121e-09 1.9302608e-08 5.092814e-08 1.1097282e-08 9.798848e-09 1.10052945e-08 1.1620682e-08
1.1286269e-08 1.1784951e-08 9.65985e-09 9.78862e-09 8.9059276e-09 1.0450091e-08 4.438913e-08 3.9195392e-08

exp_avg f4 [32]
00000000: 424f ae36 3c06 f09a 9207 b2b4 6c5b 7eba
00000010: a0be 12b6 f9e1 ae39 1c68 1d82 0550 a935
00000020: e550 2399 13ec beaa 42da dbb6 7f38 8338
00000030: fad3 64b9 b6d0 1082 b253 ba1a 9b5c 16ae
00000040: 422f 41b9 5497 8139 b28d 5bb9 2ebc 0037
00000050: ae9a 0439 0f27 9fb8 8dc8 073a 160d f539
00000060: 2dc4 9e39 c4a1 a2b9 020b 1702 84bd 4ab8
00000070: 42bc 73b8 6026 2037 9dc1 293a d629 fd12
5.194831e-06 -9.9271746e-23 -3.3160592e-07 -0.0009702954 -2.1866654e-06 0.0003335623 -1.1564416e-37 1.261477e-06
-8.443239e-24 -3.391459e-13 -6.552117e-06 6.25709e-05 -0.00021822742 -1.0639346e-37 7.7063014e-23 -3.41883e-11
-0.00018423519 0.00024717546 -0.00020938253 7.6732085e-06 0.00012646124 -7.588986e-05 0.00051797257 0.0004673979
0.0003028227 -0.00031019573 1.1096887e-37 -4.8337053e-05 -5.8111043e-05 9.545678e-06 0.0006475689 1.5976858e-27

exp_avg_sq f4 [32]
00000000: 98d3 5234 3c2b 0e33 bb24 ca34 5c4d 3836
00000010: 0afe aa31 4b5e 5d36 1667 cb2b 8e33 0634
00000020: af46 9430 30c5 5932 7138 c332 070e 1536
00000030: 481a 8836 2812 002e 5eab 3831 42bd a632
00000040: e7df ed37 2d28 9d35 3d6d 6436 00aa 0435
00000050: c8cb 1434 cf0d ab35 504c 1836 b88c 8c36
00000060: fdd9 7937 ea72 2037 a769 c62d e576 7136
00000070: 4f70 7634 3cb6 0035 d85b 4436 2d03 1832
1.9634751e-07 3.3101273e-08 3.7652157e-07 2.7463166e-06 4.976532e-09 3.2986452e-06 1.445263e-12 1.2498478e-07
1.0788507e-09 1.2675898e-08 2.2726654e-08 2.2210895e-06 4.0561754e-06 2.9119956e-11 2.6872935e-09 1.9411008e-08
2.8356864e-05 1.1709104e-06 3.4038233e-06 4.9421214e-07 1.385771e-07 1.2744512e-06 2.2694185e-06 4.188707e-06
1.4892311e-05 9.563499e-06 2.2556913e-11 3.5981004e-06 2.2951393e-07 4.79489e-07 2.9259736e-06 8.8482865e-09
