checkpoints/MLP_bs32_lr0.001_win50-30-20_vTrue_scTrue_ep3.pth (torch, 178894 bytes, 24 tensors)

layer1.weight f4 [32, 22]
000000 39 7d 44 3e c6 46 00 3d 94 9e d9 bc 36 5f bd bd
       0.19188394 0.031317495 -0.026564874 -0.09246676
000010 3d 5a 34 3f f9 ab eb be 55 fd 4b be 6a 22 20 bf
       0.7045019 -0.46029642 -0.19920857 -0.6255251
000020 2b 32 39 3c 15 8f 16 bf 0d ec 1d 3e ad 89 03 3f
       0.011303465 -0.58812076 0.15422077 0.5138195
000030 37 83 10 3e 8a c6 d5 bd ac 38 2c 3f f0 66 9b be
       0.14112554 -0.10438259 0.67273974 -0.30351973
000040 5e 5a 5a 3d db 3c 0b bf 7f d1 26 3d a6 4d 3b bf
       0.053308837 -0.54389733 0.040727135 -0.7316536
000050 75 de 28 be 54 10 b3 3e f0 ca ce be 89 24 3f 3e
       -0.1649111 0.34973395 -0.40389204 0.18666281
000060 49 3d a6 bd f1 f0 c6 bd d2 c1 a3 be 7f 5f 09 3f
       -0.08117158 -0.09713925 -0.3198381 0.5366134
000070 f3 cd 15 bc 2e 51 13 bd f7 4f 6b 3d 71 97 2e bf
       -0.00914334 -0.03596609 0.057449307 -0.6819983
000080 02 2a de 3d 2c 9a 84 3f 3b 84 d8 bd d8 ec f8 be
       0.10847856 1.035955 -0.10572096 -0.48618197
000090 2d f7 d8 be f9 97 dc 3e 73 fe 09 be 41 25 99 be
       -0.4237608 0.43084696 -0.13475971 -0.29911235
0000a0 24 64 55 be fb dd 05 bf 7a ef 89 3e 22 54 9d 3f
       -0.20838982 -0.5229184 0.2694052 1.22913
0000b0 8c 1c 82 3d 3f 22 b3 bd ad 77 fb be b4 cb c0 3e
       0.06353101 -0.08746766 -0.49114743 0.37655413
0000c0 06 6c 72 3e 12 d1 9a 3e 4e e7 1e bf d1 c7 7b 3d
       0.2367402 0.30237633 -0.6207169 0.061469857
0000d0 1f d9 85 bf 2b f1 78 3e 56 ac e2 3e f5 60 e1 3e
       -1.0456885 0.24310748 0.44272107 0.44019285
0000e0 43 ba f0 be d3 18 ad 3e 3b fd 84 3e 4c bc e0 bd
       -0.47017106 0.33808002 0.2597445 -0.10973415
0000f0 c1 16 b5 be df 8c 08 bd cf d7 4f bf 10 0b 39 3d
       -0.35368922 -0.03333747 -0.8118867 0.045176566
000100 59 24 1d 3f 30 dd 26 3f 1e 84 b6 bc df d3 0b 3d
       0.6138359 0.65181255 -0.022279795 0.034137603
000110 2f 50 42 3d 0c 3e 1b bf b5 22 7b bd 0e fc 18 3e
       0.04743975 -0.6064155 -0.061312396 0.14939901
000120 fb 9f 7f 3d f3 ce 68 3e aa 96 1e bf 30 6f 82 3c
       0.06240843 0.22735195 -0.61948645 0.015922159
000130 01 a4 ae 3d 89 bb dd bd 6d 68 88 3e f1 39 2b bf
       0.08527375 -0.10826785 0.2664217 -0.66885287
000140 2a 05 0c 3e 02 f4 6d 3e f8 25 db 3e 3f dd ea 3d
       0.13673845 0.23237613 0.42802405 0.114679806
000150 1b 27 c8 be a1 39 77 bb 6c ed 85 3e 8c 5a a9 bd
       -0.39092335 -0.0037723558 0.261577 -0.082692236
000160 b2 45 c8 be 6d b7 8b bd 71 3e fc 3e 2f ea 05 3a
       -0.39115673 -0.06822095 0.4926639 0.00051084434
000170 28 96 ab be 78 76 1c be 33 71 87 3e ac 59 b3 3e
       -0.33512998 -0.15279567 0.26453552 0.35029352
000180 c7 90 10 3f c2 d0 76 3e 03 ac 13 be ec 0b b9 3e
       0.5647091 0.24103072 -0.14421086 0.36141908
000190 5f 41 c9 3e 81 c0 f5 bd d6 b0 bf be 4f b3 58 bd
       0.39307687 -0.11999608 -0.37439603 -0.052905377
0001a0 92 60 ea bd f2 10 e3 3d fc 51 10 3f 42 a9 09 3f
       -0.114442006 0.110872164 0.563751 0.5377389
0001b0 d3 88 85 be dc 63 cf 3e 3e dd 5a bb 39 5e fe bc
       -0.2608095 0.40505874 -0.003339603 -0.031050788
0001c0 19 2d 14 bf 94 ec 22 bd 24 9d 8f be a4 92 8b 3d
       -0.57881314 -0.0397764 -0.28049576 0.06815079
0001d0 40 4f 82 3e f4 9e fc bd 7d f9 bd 3e 3d 4e 22 3e
       0.25451088 -0.123350054 0.37104407 0.15850158
0001e0 a6 e6 02 be 6c e9 23 3f 6e 82 19 bf d4 18 08 3e
       -0.12783298 0.6402805 -0.59964645 0.13290721
0001f0 fe 11 47 be 5f a8 e4 3c 3f ba cd 3e 33 8c e7 bd
       -0.19440457 0.027912317 0.40181157 -0.11306038
000200 81 0e 2b 3d 41 68 8b 3e c0 43 96 be 50 7c 02 3f
       0.04176188 0.27227977 -0.29348564 0.50970936
000210 f3 be 98 3e 0f 3b a7 bc 16 7a e5 be 61 7b 8a be
       0.29833183 -0.020413904 -0.44819707 -0.27047256
000220 ff 46 a9 3e 94 63 e4 3d 70 46 c8 3e 92 68 d8 3e
       0.33061978 0.111518055 0.3911624 0.4226728
000230 06 5d a6 bd 5a 92 8f be ac 0e aa 3e dd 05 ad be
       -0.081232116 -0.28041345 0.3321432 -0.33793536
000240 86 58 11 bf 12 8b a8 be cd 65 7a 3e ec 02 06 bd
       -0.567757 -0.32918602 0.24452896 -0.03271763
000250 3d 96 08 3f a4 1e d2 3e 11 15 d2 be 75 c7 54 be
       0.53354245 0.41039002 -0.41031697 -0.20779212
000260 b8 3b cb 3d 8d 38 b9 be d8 8b 15 be 42 fb 87 3d
       0.099235 -0.36175957 -0.14604127 0.066397205
000270 47 a9 52 3e 73 dd 08 3f de 41 c8 3e 3a 83 54 3e
       0.20572387 0.53462905 0.39112753 0.20753184
000280 6c 02 13 3c db 73 2b bf 8f cf 94 3d 0d b8 a8 3e
       0.008972745 -0.66973656 0.07266151 0.3295292
000290 11 a5 b7 3d b6 83 60 bf d3 fb 63 3e 24 9f f1 3e
       0.08967031 -0.87700975 0.22264032 0.47191727
0002a0 5c c8 25 3f d8 c3 1f 3e 81 cd 91 3e fe 3a 17 bf
       0.6475885 0.15602052 0.284771 -0.5907439
0002b0 99 4b 7e 3d 99 ad 7a 3e 0b 9b 52 be 15 1f 76 bf
       0.062083814 0.24480285 -0.20566957 -0.9614118
0002c0 69 dc 3c be 2e 16 74 3d 1c 39 90 bc a5 fe e7 bd
       -0.18443455 0.059591465 -0.017605357 -0.113278665
0002d0 10 03 c6 3e 2a 70 e4 3c 39 85 03 bd 9d d0 81 3d
       0.38674212 0.027885515 -0.032109473 0.06338618
0002e0 9e 69 2f 3d 1c 9e 11 3d 0b 44 b9 3d 35 68 13 3e
       0.042825334 0.035551175 0.09046181 0.1439522
0002f0 89 f0 e8 bd d8 4e 08 3c ec da 8d 3e 35 3c 20 3e
       -0.113740034 0.008319579 0.27706087 0.15647967
000300 60 75 47 3e 17 1f 7e 3d 2c f2 12 be 4f d2 0c bd
       0.19478369 0.06204137 -0.14350194 -0.034380253
000310 31 f8 74 3d 5c a6 14 bd bb 5b 8a bd 83 5c 2a bd
       0.059807006 -0.036291465 -0.067557774 -0.041592132
000320 d8 1f 45 be 59 ce 8d be dd 78 6d bd 40 30 d3 3e
       -0.19250429 -0.27696493 -0.057976592 0.4124775
000330 10 82 aa 3e 90 58 46 3d f0 63 91 3e a7 7d 28 bf
       0.33302355 0.048424304 0.2839656 -0.6581673
000340 a1 62 21 bb 72 24 d0 bc ff be 87 be 09 84 92 39
       -0.0024625438 -0.025408003 -0.26512906 0.00027945664
000350 bb 6f 9e 3c 24 6a 25 3f eb 7f 23 3f d5 5a 64 be
       0.019340387 0.6461508 0.6386706 -0.22300275
000360 9f c9 a8 3e 8f a5 33 bf 07 e3 8b bd 5e 19 c1 3d
       0.32966325 -0.701745 -0.068304114 0.094286665
000370 08 b7 7a 3e 3a 09 8e be f2 d6 b7 bc 5e ae 40 bf
       0.24483883 -0.27741414 -0.022441361 -0.75266063
000380 ae f9 29 be 64 5b 43 3d b2 d8 16 3e 22 be a8 3e
       -0.16599151 0.04769458 0.147311 0.3295756
000390 55 aa b6 be 45 7f 55 bf 2e 89 80 3c ab b2 c4 bb
       -0.35676828 -0.8339732 0.015690412 -0.006002744
0003a0 e9 69 8e 3d 5d 9c 20 bf 95 29 ab 3d 2a 37 da 3d
       0.069537945 -0.6273859 0.083575405 0.10655053
0003b0 f6 42 b5 3d c6 b4 b6 3e 4f 96 aa be 58 d0 05 bf
       0.088506624 0.35684794 -0.333178 -0.5227103
0003c0 61 dc 13 bd a4 ef 74 bc 1d 97 c9 bd f0 7f 88 bd
       -0.03609884 -0.014949713 -0.09843276 -0.06665027
0003d0 83 cd 54 be 08 35 ad be db ac bc 3e 8f 93 fb 3e
       -0.20781521 -0.33829522 0.36850628 0.49136016
0003e0 ee 67 46 bc 54 a0 ca be 54 84 65 bd b7 7a ea bd
       -0.01210974 -0.39575446 -0.0560344 -0.11449187
0003f0 14 ec 09 bf 3a c1 d6 3e b2 1c ce bd 64 af af be
       -0.5387585 0.41944295 -0.10064067 -0.343135

layer1.bias f4 [32]
000000 67 1d 1f bf 21 a9 08 bf 07 ad ea bd 24 16 30 3e
       -0.6215424 -0.5338307 -0.114587836 0.17195946
000010 7e 8e 2c bf c0 c2 5e 3e ab 31 2c bf 9d 07 2e bf
       -0.67404926 0.21753979 -0.6726329 -0.67980367
000020 f0 93 1a bf fc 3b 4b bf 44 19 e6 be 22 c1 70 3d
       -0.60381985 -0.79388404 -0.4494115 0.058777936
000030 4e 7d 51 3e a0 d0 48 bf e0 32 52 bf 85 99 37 bf
       0.20457956 -0.78443336 -0.8210888 -0.7171863
000040 d5 59 19 3e 1c d4 2e 3e 57 7e 9b 3d 3e 56 ab bd
       0.14975674 0.17073101 0.07592457 -0.08366059
000050 2f 41 fa be 4e 48 c2 bd 42 3a 88 3d 91 bf 14 3e
       -0.48877856 -0.09486447 0.06651737 0.14526202
000060 8b 9f 41 be 63 25 8f 3e 08 ea 2d bf 67 0f bc 3d
       -0.18908517 0.2795821 -0.6793523 0.09182625
000070 4e 5c 81 be b3 b1 d4 bd b1 fa 5d 3e f8 05 41 bf
       -0.25265735 -0.10385456 0.21677662 -0.7539973

layer2.weight f4 [64, 32]
000000 17 dd a6 be 69 ac 90 be e6 69 87 3d 0b bf 7f be
       -0.32590553 -0.2825654 0.066119954 -0.24975221
000010 0e 7b bc 3c 65 2c 78 3e 94 2b ad 3d cb 01 8f be
       0.023007896 0.24235685 0.084555775 -0.27931055
000020 33 a1 cc be c5 a7 99 be 3c be 4c be 48 b6 44 3c
       -0.39966735 -0.3001081 -0.19994444 0.01200635
000030 75 f0 da be 9e a0 46 be ea ca 19 bf b1 f0 be be
       -0.4276158 -0.19397208 -0.6007525 -0.37293008
000040 3b 4e e6 bd 65 63 d4 be 64 b3 d6 be c7 49 7a be
       -0.1124539 -0.41482082 -0.4193374 -0.24442206
000050 d3 a5 24 be 35 bb fd bd fe a1 bc bd eb 1f 2e bf
       -0.16078882 -0.123892225 -0.09210585 -0.6801745
000060 9b ba 4b bd 1d 07 ef bd 4c 6c d1 bd 15 c0 c4 bd
       -0.049738508 -0.116712786 -0.10225734 -0.09606949
000070 4b 1f 13 3d c6 27 b3 3d 06 f1 d2 3d d3 cf 02 bf
       0.035918515 0.087478206 0.10299878 -0.51098365
000080 bb 81 14 be 3a 97 71 bd d2 2c 00 be 2b d3 7e 3d
       -0.14502613 -0.05898211 -0.12517098 0.062213104
000090 6c b8 31 be c9 d0 9d be 15 c4 23 3e 16 ff ce bd
       -0.17355508 -0.30823353 0.15992768 -0.101072475
0000a0 fc fd 21 3c f4 e3 d4 be d3 bd 0a be 93 b3 24 bf
       0.009887215 -0.41580164 -0.13548975 -0.6433651
0000b0 42 e8 ed be 51 5c 59 be f0 e1 aa be fd 46 d6 be
       -0.4646626 -0.21226622 -0.33375502 -0.41851035
0000c0 83 b3 0f bf 7c b9 61 be a2 70 1c bd b1 14 82 bc
       -0.5613329 -0.22043413 -0.038193353 -0.015879007
0000d0 69 11 c2 bd 45 af 35 bc 32 b8 99 be 9b 66 d8 bd
       -0.09475977 -0.011089151 -0.30023342 -0.105664454
0000e0 d2 43 bd 3c 8c d2 37 bb c2 74 1f bc 66 a7 81 be
       0.023103628 -0.002804908 -0.009732427 -0.25323027
0000f0 b3 01 34 3e 36 2a 1a 3d 2c 17 c4 bd 05 70 e9 bd
       0.17578773 0.03763791 -0.09574732 -0.11398319
000100 09 5f 9e be b2 af 27 bd b4 04 55 3d b2 c7 8c 3e
       -0.3093188 -0.04093904 0.05200644 0.27496105
000110 e3 9b a2 bd 64 84 ee be 00 d2 a5 bd 5b 7e b8 be
       -0.07939889 -0.4658538 -0.08096695 -0.36033902
000120 ef de ab 3d 47 5e 0e bf 12 16 87 bf 00 f4 14 3f
       0.083921306 -0.55612606 -1.055361 0.58184814
000130 e9 98 92 3c 5a 75 c5 be c6 e8 40 bf 48 ed 9e be
       0.017895179 -0.38566095 -0.75355184 -0.31040406
000140 d0 10 42 be e9 a9 9a 3e 7d 8a a9 bc a5 05 0b bf
       -0.18951726 0.30207756 -0.02069592 -0.5430549
000150 1e f3 d7 be 35 95 6c 3e ab 8b ee be 71 d0 40 bf
       -0.4217767 0.23103793 -0.46590933 -0.75318056
000160 b3 07 85 3e 98 7e 2a be 60 e2 4c be 9d 67 51 3f
       0.25982437 -0.16649854 -0.2000823 0.81798726
000170 69 5d 1f 3f 51 9a 09 bf bc 97 17 be 76 8f 13 bf
       0.6225191 -0.53751093 -0.14803976 -0.5764078
000180 67 fe 68 be 68 19 0d be 69 0f 8e bd 3a 86 c1 be
       -0.22753297 -0.13779223 -0.06936533 -0.3779772
000190 b4 de e0 3c b0 53 83 bc 5a fc 0e be e9 8a 00 bf
       0.027449943 -0.016031116 -0.13963452 -0.5021196
0001a0 2d 80 16 be 5e da d4 3d f4 6c c6 bd e7 de 29 3d
       -0.14697333 0.10393213 -0.0968875 0.041472342
0001b0 a2 98 f6 3d 94 ec b3 be bf 99 7b bc 36 d1 39 be
       0.12040831 -0.35141432 -0.01535648 -0.18146214
0001c0 79 24 90 3c dc e9 a8 3d cc ad 1a 3d bb 37 98 bd
       0.017595517 0.0824773 0.037763402 -0.07432505
0001d0 19 d3 28 3e 14 06 a8 be 06 4b a7 3e 99 0a 4e be
       0.16486777 -0.32817137 0.32674426 -0.2012123
0001e0 6e 6f 62 3c 75 5f 01 3d dc a7 d6 3d 60 80 dc 3d
       0.013820512 0.031585176 0.104812354 0.10766673
0001f0 93 ea 5b 3e 21 e4 2d be c4 7d 50 3f 73 a2 27 bf
       0.21476202 -0.16981556 0.81441903 -0.6548225
000200 97 9d 1b 3f d9 a7 cd 3e 0c 96 0d 3f b2 8f 2b be
       0.6078734 0.4016712 0.5530708 -0.16754034
000210 a1 3b 94 3e a8 4b 63 be 7b 45 61 3f ca 5f cd 3e
       0.28951743 -0.2219683 0.87996644 0.40112144
000220 8e 90 67 bd 9c d2 47 3e a3 29 74 3f 5a 28 19 3f
       -0.056534342 0.19513935 0.9537603 0.59827197
000230 fc ef 0d bf dd c1 0e bd 65 bd 5e 3e f7 2c 29 3f
       -0.5544431 -0.03485285 0.21751936 0.66084236
000240 1d f5 fe 3e 6e 10 50 be 29 4b 10 bd 03 f9 93 3c
       0.49796382 -0.20318767 -0.03522793 0.018063074
000250 e0 24 b8 3d 53 e1 63 3e a0 9b 86 3d 97 34 76 bd
       0.08991408 0.22253923 0.06572652 -0.060108747
000260 c6 9e 02 3e fc 8c 5c bd b6 b2 08 3f a5 f0 65 bd
       0.1275588 -0.05384539 0.5339769 -0.0561377
000270 2c cd 60 3e 02 55 fd 3e 64 64 96 be a6 f4 35 3f
       0.21953267 0.49478918 -0.29373467 0.7107643
000280 2a 04 92 be aa 1c 77 bd cd 5e 08 be 50 18 41 bd
       -0.28518802 -0.06033007 -0.13317414 -0.047142327
000290 6b 40 f1 3d e8 61 da bd ab f2 d4 be a6 47 54 be
       0.11779865 -0.106632054 -0.4159139 -0.20730457
0002a0 9d 8c 87 be 87 d4 06 3e 3b 80 9a be ad 37 7c be
       -0.26474467 0.1316701 -0.30175957 -0.24630614
0002b0 3c 2c 2c bf 34 bf 89 3e 06 56 d7 be 3a 4e 06 3e
       -0.67254996 0.2690369 -0.42057818 0.13115779
0002c0 77 31 68 bd f8 a8 26 bf e4 35 f3 be 58 c2 83 3c
       -0.0566878 -0.65101576 -0.47502053 0.016083881
0002d0 8a ee 98 be 71 55 57 bc 06 f9 8b be 69 4a dc be
       -0.2986949 -0.013142929 -0.27338427 -0.4302552
0002e0 65 9d 6a be 68 bf 8c 3d 99 8e 73 3d 1a 08 8f bc
       -0.22911604 0.06872445 0.059462164 -0.017459918
0002f0 6d a1 df 3d 17 1e ef bd 42 d4 77 be d5 26 33 be
       0.109194614 -0.11675661 -0.24202064 -0.17495282
000300 fc 4e f9 be 7d ad 74 be 74 ae 19 3e 51 d8 fb 3d
       -0.48693073 -0.23894306 0.15007955 0.122971185
000310 d2 96 bd be 5a e5 02 be f4 68 da 3d 05 f2 06 bd
       -0.3702913 -0.12782803 0.106645495 -0.03294565
000320 25 ae 03 bf ec ec 52 be 7c 9d e1 be c9 14 89 bd
       -0.514376 -0.20598191 -0.44065464 -0.066934176
000330 f9 0e ea be f0 c2 cb 3e 3c 40 01 bf 82 e7 5b bd
       -0.45714548 0.39797163 -0.5048864 -0.05368758
000340 98 a7 f9 3d 54 57 90 bd 2b 67 8c 3d 25 48 b1 be
       0.12190169 -0.070479065 0.06855615 -0.34625354
000350 ae 89 99 be 0f 67 83 be 6b a7 70 bf 11 4f b4 be
       -0.29987854 -0.25664565 -0.9400546 -0.35216573
000360 46 0c 8a be c3 70 95 be 57 91 82 be 6f 1a c3 be
       -0.2696249 -0.29187593 -0.2550151 -0.38106105
000370 d0 40 a8 bc 00 71 d3 3d b8 34 75 be 9d 7f 7f 3d
       -0.020538718 0.103242874 -0.23945892 0.06237756
000380 9b cb 1c be 63 87 a7 3e 19 10 0c 3e 17 76 43 be
       -0.15312044 0.3272048 0.13678016 -0.19088016
000390 01 d1 3f 3e 24 a7 21 be 82 a1 e1 3b 63 a3 97 be
       0.18732072 -0.15786415 0.0068857083 -0.29616842
0003a0 2a 55 6e 3c 87 9e d4 bd 15 1b 6f be f8 2d eb bd
       0.014546672 -0.10381799 -0.23350175 -0.11483377
0003b0 07 2b 0e bf 16 d8 b1 3c a3 f8 0f 3b 76 8d db 3d
       -0.55534405 0.021709483 0.0021968267 0.10720341
0003c0 b8 62 dd bd d3 77 17 bf e1 55 5b bd bb 11 2f 3e
       -0.10809845 -0.5916721 -0.053548697 0.17096607
0003d0 7d e9 df be 64 75 d2 3c 26 dc e7 be dd 0b fe be
       -0.43732825 0.025690742 -0.45285147 -0.49618426
0003e0 3f 8f 3b be 0b 9b 64 be 75 e5 88 3d c7 7c 07 be
       -0.18316363 -0.22324769 0.066843905 -0.13231193
0003f0 dd ac 2d bd da f2 c3 bd e3 4d ff be f2 96 db 3d
       -0.042401183 -0.09567805 -0.4986411 0.1072215

layer2.bias f4 [64]
000000 93 2e 50 be 5b 11 a1 bd ac 05 1f be f6 f8 1d 3d
       -0.20330267 -0.078646384 -0.15529507 0.038567506
000010 04 b7 5f bf 85 08 7d bd ad 5f 9c be 38 1d d9 be
       -0.87388635 -0.061775703 -0.30541745 -0.42405105
000020 96 08 a1 be 31 04 af 3d 05 27 93 bd d8 b4 4c be
       -0.31451863 0.08545721 -0.07185177 -0.19990861
000030 bf 73 47 be 3f ec c9 be df e3 3e be c2 21 9d be
       -0.19477747 -0.39438054 -0.18641613 -0.30689818
000040 d6 8a 9a bd b3 7b 9e 3d 5a ec 06 bf 09 fe 22 3c
       -0.07546012 0.077384375 -0.52704394 0.009948262
000050 ed 1d 87 bd 99 03 ea 3c 5f a8 58 be 5b da 86 3d
       -0.06597505 0.028566169 -0.21157978 0.06584617
000060 0f 0e 8a be 97 c8 62 be 13 68 1a bf cc 4f b2 bd
       -0.2696385 -0.22146831 -0.60315055 -0.08706626
000070 b7 e1 fd 3d 8c e5 2b be e7 d8 5b be ac 34 b8 bd
       0.12396567 -0.16786784 -0.2146946 -0.08994421
000080 96 2c 62 be 71 33 3c bd 03 a1 0d be 8d 9a 8d be
       -0.2208732 -0.045947496 -0.13830952 -0.27656975
000090 8b 41 94 bd 60 1c 7e be f2 43 aa bd d5 e7 94 3e
       -0.07239064 -0.24815512 -0.08313741 0.29083124
0000a0 0a 20 64 be 91 b3 24 3e c2 f0 1d be cc d3 f2 bd
       -0.22277847 0.16084124 -0.15423873 -0.11856803
0000b0 a4 7b d4 bf 15 67 f9 3b 4d f5 3b be b0 cb 25 3d
       -1.6600232 0.0076111653 -0.18355294 0.040477455
0000c0 a1 3c 7a bf de b9 33 be 8a fe 14 bf cf 8e 67 be
       -0.9774876 -0.17551371 -0.58200896 -0.22613071
0000d0 50 43 2e 3d 1a f3 24 be c8 d3 96 be 83 58 cc bd
       0.042544663 -0.16108361 -0.2945845 -0.0997782
0000e0 56 b7 2c 3e 9f 6a 8a 3d 30 05 1e 3e e1 98 ac be
       0.16866812 0.067586176 0.15431666 -0.33710387
0000f0 ee c0 b0 bd 8a fd 43 be 59 ed a6 bd 92 a7 bd bd
       -0.086305484 -0.19139686 -0.08150739 -0.09260477

layer3.weight f4 [128, 64]
000000 17 07 0d be a8 09 f6 3d 15 ba c2 3e e9 d8 68 bf
       -0.13772236 0.120135605 0.38032594 -0.9095598
000010 8a ba ac be 5a c0 80 3e ff c2 69 be da 0d 25 bd
       -0.33736068 0.25146753 -0.22828291 -0.040296413
000020 c8 c0 5f be 65 d2 02 3e 33 d6 2b bf c0 28 8a bc
       -0.21850884 0.12775572 -0.6712372 -0.016865134
000030 7e 00 a0 bd 35 f3 fc be af 66 e0 3c 32 e0 58 be
       -0.07812594 -0.49404302 0.027392713 -0.21179274
000040 e4 45 26 3e 37 5b e1 3e 71 fd ab be 47 7f 4f be
       0.16237599 0.44014904 -0.33591798 -0.20263396
000050 55 e4 d5 3c d8 ff c5 be 8a 9d 28 be 3d 43 93 be
       0.026109854 -0.38671756 -0.16466346 -0.28762236
000060 4e e3 9d bd 2e 7a 9d be 75 6e 3b be 6f b5 93 3e
       -0.077093706 -0.30757278 -0.18303855 0.2884936
000070 9f c2 f9 be 2d 78 58 bd 4b e9 3f be a5 2b 04 bd
       -0.48781297 -0.052848984 -0.18741338 -0.032268185
000080 23 d7 ff bd 50 3e 48 bf 3e b0 d1 bd 70 94 00 bf
       -0.12492206 -0.7822008 -0.10238694 -0.502265
000090 7d 5b 1c bf ba 16 04 be 05 70 6f 3e d3 84 f1 bd
       -0.610771 -0.12899294 0.23382576 -0.11792912
0000a0 57 72 f1 3d 06 ef d2 3d 10 76 75 bd 38 c2 c7 3c
       0.11789387 0.10299496 -0.059927046 0.024384603
0000b0 88 c1 7d be 7e 87 0a be fd ce bc bd 65 55 a5 3d
       -0.24780858 -0.13528249 -0.092191674 0.08072928
0000c0 eb b5 de be 7e 76 66 bd 2b fb 4c bf cb ee 82 bb
       -0.43498167 -0.056265347 -0.8007075 -0.0039957515
0000d0 ed f1 2c be 42 ac 55 3e 9d c3 8b 3e 30 a1 63 be
       -0.16889162 0.20866492 0.2729768 -0.22229457
0000e0 82 78 64 bd a7 53 93 be a9 57 80 3d 35 01 1e 3d
       -0.055778988 -0.2877476 0.0626672 0.03857537
0000f0 65 84 dc 3d 4d 3e 66 3d 62 1c 29 be a9 23 67 be
       0.1076744 0.05621176 -0.16514733 -0.22572197
000100 49 02 52 3d b3 2c a5 bd 3a 88 6b be 68 4c 07 be
       0.05127171 -0.08065166 -0.23001185 -0.1321274
000110 5d d4 23 be df 8b 23 be 96 ce 16 3c f7 57 9b bb
       -0.15998979 -0.15971325 0.009204527 -0.004740711
000120 90 e5 fc bd cc 18 99 3d cb 51 92 be 0f 52 b1 bd
       -0.12348473 0.07475433 -0.28578028 -0.086582296
000130 80 9c 32 3b 71 09 81 3d f8 c2 b2 3c aa 59 13 3d
       0.0027253926 0.06300629 0.021821484 0.035974182
000140 9c 53 95 bc 4f ae bb be 51 70 89 bd 93 58 4a 3d
       -0.018228345 -0.36656424 -0.06710876 0.049400877
000150 18 b6 63 3c f8 50 85 bd a2 8a 96 be fe 59 af bd
       0.013898395 -0.06509584 -0.29402643 -0.085620865
000160 eb 12 0c bc f9 5e 8d bd 2c 96 06 3d 1d a2 d6 bd
       -0.008549432 -0.0690288 0.03285806 -0.104801394
000170 ae b9 59 3d be 85 bc bd 0f 93 ff 3d 99 a8 43 bd
       0.053155594 -0.09205197 0.12479221 -0.04776821
000180 b4 d3 de bd f9 0a 1c be 40 fa 94 bd d0 eb f3 bc
       -0.10880223 -0.1523856 -0.07274294 -0.02977553
000190 9f 3c f7 bd 58 3e 80 bd 48 43 77 3d 8d 26 f4 bd
       -0.120721094 -0.06261891 0.0603669 -0.119214155
0001a0 7c 96 9a 3d d1 78 7a bd a6 9d 64 3d 48 0a 31 bc
       0.07548234 -0.061150376 0.055814408 -0.010805674
0001b0 60 df 0d bd 9d 59 c8 bd fe a6 ad 3d 22 3b 62 bb
       -0.034636855 -0.097827174 0.08479117 -0.003452011
0001c0 40 2e 99 3d a1 53 8e 3d 09 33 70 3d 1a cc 78 3d
       0.074795246 0.06949545 0.05864242 0.06074152
0001d0 52 bc 99 be d4 1c fb bd 55 87 ff bc a7 9b e7 bd
       -0.3002649 -0.12261358 -0.031192461 -0.11308985
0001e0 2f f7 57 be 1d 86 e4 bd 2b 0d 16 3d c6 89 4a 3c
       -0.21090387 -0.111583926 0.03663365 0.012361949
0001f0 39 b4 d9 bd 16 dd 97 bd 7a c2 79 bd 9e 5f d5 bd
       -0.10630078 -0.07415216 -0.060976483 -0.10418628
000200 d3 fa 93 bd 8f f0 86 3c 46 6d 0b 3c b4 f3 61 bd
       -0.07225575 0.01647213 0.00850994 -0.055164054
000210 2c a9 3e be c6 81 92 bd 3d 14 f4 bd 5e 2e 04 ba
       -0.18619221 -0.071536586 -0.11917923 -0.00050423096
000220 3c 8e f6 bd 7a a9 98 3d 38 25 88 bd 6e f9 81 be
       -0.12038848 0.074542 -0.06647724 -0.25385612
000230 f4 4d da bd 9a 30 0d 3d 25 6b f7 3d 40 84 56 be
       -0.106594 0.03447018 0.12080983 -0.20948887
000240 44 70 c1 bc 70 52 a4 bd 9a 3a a2 3d 5a 62 50 3d
       -0.023613103 -0.08023536 0.079213336 0.050875045
000250 2c 95 0b bd b9 fd 0e 3e fd bb 04 be 4c 47 27 be
       -0.03407781 0.13963975 -0.12962337 -0.16335791
000260 ef 48 8c 3d 38 b7 3a bd ab 8a 2d be f1 06 72 bd
       0.068498485 -0.045584887 -0.16947429 -0.05908865
000270 24 47 27 bb 44 f8 86 bc 6f c6 b9 bd e8 65 2d 3d
       -0.002552458 -0.016475804 -0.09071051 0.042333513
000280 40 33 65 3d 25 70 e4 bd a3 19 9c bd 81 e0 0c be
       0.05595708 -0.11154202 -0.07622077 -0.13757516
000290 27 17 0a be d4 55 b5 bb 0b f5 17 3d 2a f7 29 be
       -0.13485394 -0.005533913 0.037098926 -0.16598192
0002a0 bf e3 52 bd e5 d3 b4 bd 86 62 dd 3d a4 bd 3c 3d
       -0.051486727 -0.08829478 0.108098075 0.046079293
0002b0 f0 58 cf bc 46 63 ab bd 0d d3 50 be 20 fd 03 be
       -0.025310963 -0.08368544 -0.2039301 -0.12889528
0002c0 9b 14 02 be fb d7 01 be 5b 5a ef bc 3e 19 bc 3d
       -0.12703173 -0.12680046 -0.02921789 0.09184502
0002d0 14 86 4d 3d 13 d1 de 3c c0 35 91 bb 32 af 05 be
       0.050176695 0.027199304 -0.0044314563 -0.13055113
0002e0 d0 22 3d bd 56 e8 8f bd 01 38 f4 bd 34 f9 f8 bd
       -0.046175778 -0.070267364 -0.119247444 -0.12156907
0002f0 7c 40 36 be f0 d7 cb bc 21 17 b4 bc 8b f1 6a bd
       -0.17798036 -0.02488324 -0.021983685 -0.05735926
000300 06 7c 73 bd 78 f5 1d bd c3 3a 02 be 5f f2 82 bc
       -0.05944445 -0.038564175 -0.12717728 -0.015984712
000310 c9 00 c9 bd 1e 32 8a 3b 60 21 3e bc 4b 0c 96 3d
       -0.09814603 0.0042174 -0.011604637 0.073265634
000320 30 61 e4 3c 67 0c 9b bd 76 7f ad bd ff aa 0b be
       0.027878374 -0.07570725 -0.08471577 -0.13639449
000330 7a 3c 32 bd 8d a8 16 3d 44 fe db bc a7 c0 9f 3c
       -0.043514706 0.036781836 -0.026854642 0.019501043
000340 ce af 01 be 3e 20 0c be b2 c4 65 bd 02 e9 27 be
       -0.1266472 -0.13684174 -0.056095786 -0.16397479
000350 61 06 6a 3c 5e 8c dd bd fe 04 d8 bd e7 76 63 bd
       0.014283747 -0.108177885 -0.10547827 -0.055533316
000360 e4 ea a7 3c 08 ab 15 bd 71 bd 2d bd a9 fb a3 bd
       0.020497747 -0.03654006 -0.042416994 -0.08006985
000370 3c 40 18 be 2d 75 47 3d b6 1b 1a be ce 86 15 be
       -0.14868253 0.048695732 -0.15049633 -0.14602205
000380 5b 5d 8e bd c8 cf 1c be eb 4a be bd b9 10 0f be
       -0.069514 -0.15313637 -0.09291633 -0.13971223
000390 68 57 69 bd 1c fb ac bd e8 90 da bc e7 f1 82 bb
       -0.056968123 -0.08446333 -0.026680425 -0.003996122
0003a0 05 42 be 3d 57 26 06 bd 18 a4 2f bd 6f be a2 bc
       0.09289936 -0.032751407 -0.0428811 -0.019866196
0003b0 6e 7f 3f bd 22 89 eb 3c 57 96 83 bd 52 31 9d bd
       -0.046752386 0.028751913 -0.064251594 -0.07675423
0003c0 5b 0a 98 bd b6 e8 cd 3d 5a 46 b7 bc 22 cc c4 bd
       -0.0742385 0.10054152 -0.022372413 -0.09609248
0003d0 d2 31 eb bd eb 98 34 bd e3 28 74 bd c9 12 8a 3c
       -0.11484112 -0.044091146 -0.059609305 0.01685466
0003e0 bf 77 08 be e3 b4 1f be 3e b0 54 bd dd 58 d8 3c
       -0.1332693 -0.15596347 -0.05192589 0.02640956
0003f0 91 bf 8d 3c e5 e2 0c 3e fb a7 a6 3c 46 22 26 bd
       0.01730326 0.13758428 0.020343771 -0.04056003

layer3.bias f4 [128]
000000 23 c0 3c bd 44 8a 81 bd da 4f 1f be fe 3e 60 bd
       -0.046081673 -0.063252 -0.15557805 -0.054747574
000010 de 6d 88 bd 3f bd c1 bd d7 4b f5 bd ed ce 9f bd
       -0.066615805 -0.09459924 -0.11977356 -0.0780314
000020 e4 20 a7 bd 74 ea a7 bb ab db c7 bd 7f 5d 19 be
       -0.0816057 -0.0051243845 -0.09758695 -0.14977072
000030 a8 aa 8c bd 8f 2f 09 be 12 b6 cc bd b8 b1 b9 bd
       -0.068684876 -0.13397048 -0.09995665 -0.090671
000040 48 b9 1b bd ce 85 02 be fd 73 3b be 4a ae d6 3d
       -0.038018495 -0.12746355 -0.18305965 0.10482462
000050 b9 4b 52 bd a5 9e ce bd ac 51 5b be 17 17 0e be
       -0.051341746 -0.10088853 -0.21417874 -0.13875996
000060 2e 7f 0e bd 34 bc 03 be 8a 06 7f be f7 b3 12 3e
       -0.034789257 -0.12864763 -0.24904838 0.14326464
000070 12 ad 18 be ce a5 57 be 2d 2b 4a be 5a ab 1e 3e
       -0.14909771 -0.21059343 -0.19743033 0.15495053
000080 b6 26 c0 bd 74 dd 87 bc 1d 68 65 be 2b b7 68 be
       -0.093823835 -0.01658509 -0.22402997 -0.22726123
000090 b1 70 49 be 5e 82 19 3e a1 a2 6c be 9a 3b 32 be
       -0.19671895 0.14991137 -0.23108913 -0.17405549
0000a0 6f ce 1d be 1a 0c 42 be f5 88 c6 bd bf cb ce bd
       -0.1541078 -0.18949929 -0.09694091 -0.10097455
0000b0 77 87 16 3e f2 43 18 be 38 c8 54 be 11 0c 1b be
       0.14700113 -0.14869669 -0.20779502 -0.15141322
0000c0 2b b8 98 bb 9b 51 39 be f0 7d 71 bd db f2 c9 bd
       -0.0046606264 -0.18097536 -0.058957994 -0.09860774
0000d0 61 ba 03 be 0a 0e 15 be bc ac d9 3b 35 47 42 be
       -0.12864067 -0.14556137 0.006642906 -0.18972476
0000e0 1a 6f 15 be 9d b4 a8 bd db 1a 32 be dd 99 18 be
       -0.14593163 -0.08237574 -0.17393057 -0.14902444
0000f0 ac 4c 0c be 0b c1 1e bd be d5 99 bd 83 0b 46 be
       -0.13701123 -0.03875832 -0.07511471 -0.19340329
000100 12 19 12 bb 37 5b 33 be e5 64 be bd 22 cf bf bd
       -0.0022292775 -0.17515264 -0.09296588 -0.09365679
000110 87 b1 90 bd 5d 02 b7 bd 46 7a 0d be dd c6 35 be
       -0.07065111 -0.08935998 -0.13816175 -0.17751642
000120 9d ac f7 bd 26 d6 c2 bd 92 3f 1d be 63 00 ce bd
       -0.1209347 -0.09513502 -0.15356281 -0.100586675
000130 36 ae 20 be cf e4 2e be 60 10 f7 bd dd 5f 41 be
       -0.15691456 -0.17079471 -0.1206367 -0.18884225
000140 34 01 5c 3e 17 87 df bd 78 f0 54 be 33 25 62 3e
       0.21484834 -0.10914438 -0.20794857 0.22084503
000150 b8 d0 66 bd 3c 2d 24 be 24 6f 0d be 8e 25 31 be
       -0.056351393 -0.1603288 -0.13811928 -0.17299482
000160 54 ae 9e bd d4 c1 4e 3d e4 f5 ef bd 46 96 b2 bd
       -0.07748094 0.050477818 -0.11716822 -0.08720069
000170 e9 e7 df bd 44 98 bd 3b 53 02 59 be 63 08 fa bd
       -0.10932905 0.0057859737 -0.21192293 -0.12208631
000180 a0 1c 6b be 28 f4 96 bd 71 3c 4e be 01 e2 03 be
       -0.22960138 -0.07370788 -0.20140244 -0.12879182
000190 e6 71 10 be 64 7a 6c be 6a f7 e1 bd 6b 47 3d be
       -0.14105949 -0.23093563 -0.110335186 -0.18484275
0001a0 8a fc c2 bd b3 d6 02 be 31 85 03 be 37 03 85 bc
       -0.09520824 -0.12777214 -0.12843777 -0.016236885
0001b0 08 4e db bd 70 05 ed bc 56 89 33 bd fc 03 0e be
       -0.10708243 -0.028933257 -0.043832146 -0.13868707
0001c0 df b0 ed bd 79 03 a1 bd 74 7b 12 be 4e 7e c7 bd
       -0.11606001 -0.078619905 -0.14304906 -0.097408876
0001d0 e7 a6 d0 bd 5f 7a 22 be d0 b1 c9 bd bf 46 0b be
       -0.10188084 -0.15866993 -0.09848368 -0.13601206
0001e0 55 27 82 be ae 4d 9b bd cb 53 f3 bd e8 75 2a be
       -0.25420633 -0.075831756 -0.118812166 -0.1664654
0001f0 f5 c2 02 be 1c 5e 41 be 61 db da bd 9f 3d 0a be
       -0.12769683 -0.18883556 -0.106863745 -0.13500069

layer4.weight f4 [22, 128]
000000 7d df 46 be 75 06 4d 3d 85 c2 c1 bd ef 64 c3 3d
       -0.19421192 0.050054986 -0.0946093 0.09540736
000010 03 e3 8c 3d 2b 75 f5 3c a1 3a 1d bb dd 90 b0 bd
       0.068792365 0.029963097 -0.0023991244 -0.086213805
000020 e9 8b 8a bd 65 55 e6 3d 30 1a 79 bc 1e 6d 86 3e
       -0.06764967 0.112467565 -0.0152039975 0.26255125
000030 69 7c c6 3d fe 9c b5 bd 19 bc 9f bc 5f a5 a0 bd
       0.09691698 -0.088678345 -0.019498872 -0.07844042
000040 67 13 65 bc e4 b2 85 bd 97 ce 1b bd 2f 7e a5 bc
       -0.013981677 -0.06528261 -0.038038816 -0.02020177
000050 34 36 e8 bd 46 e6 a5 3d 5f dd f0 3d e2 01 97 bd
       -0.113384634 0.08100562 0.11760973 -0.07373406
000060 e1 2f da 3b 18 51 53 bc c3 42 77 be b1 bd 3f 3d
       0.0066585396 -0.012897752 -0.24146561 0.046811763
000070 0e 70 81 3d c6 fe f2 3b 87 3d 73 bd cd 1a 23 be
       0.06320201 0.0074156253 -0.05938485 -0.15928192
000080 a6 28 32 3e 6e 42 c8 3c 2b df bb bd 9a ce ce 3d
       0.17398319 0.024445739 -0.09173425 0.10098
000090 32 c2 22 be ef 02 9a 3b e8 34 54 3c 06 85 95 bd
       -0.15894392 0.0047000567 0.012952067 -0.07300763
0000a0 a2 25 6b 3d d7 7a 2b bd b2 a2 c8 bc f8 11 0f 3b
       0.057408936 -0.041865196 -0.024491642 0.0021830779
0000b0 b5 b8 9f 3c 51 44 91 3d 48 24 7c bd bf f0 e9 3c
       0.019497255 0.070931084 -0.061558038 0.02855718
0000c0 90 bb 8f 3a b2 d2 9b 3c a9 4b 39 be 94 05 63 3d
       0.0010965932 0.019021366 -0.18095268 0.05542524
0000d0 95 e9 d5 be fb c8 cb bc c8 ee d9 bd a6 19 03 be
       -0.4177977 -0.024876108 -0.10641247 -0.12802753
0000e0 83 89 01 3d f1 38 ca 3d d0 30 cf bd 2a ef 57 3b
       0.031625282 0.09874142 -0.10116732 0.003294895
0000f0 00 4c 28 bd aa d0 b0 3d 96 f5 81 3d 2a c4 6b 3c
       -0.041088104 0.086335495 0.0634567 0.014390031
000100 59 a4 27 bd fa d9 22 bc 0e a7 6f bc c0 76 13 be
       -0.04092822 -0.009939665 -0.014627231 -0.14400768
000110 7b 3b 3e bd c6 6c 38 bd 79 db 7e 3d 1c af eb 3c
       -0.046443444 -0.04502561 0.062221024 0.028770022
000120 a2 c9 58 3c 1c f5 9d bc 0f 5d 15 bd aa 22 ef bd
       0.013231667 -0.019281916 -0.0364657 -0.116765335
000130 16 37 43 bd 87 21 eb 3c e9 f6 73 3d 96 7c 60 be
       -0.047659956 0.02870251 0.059561644 -0.21922526
000140 76 32 f2 3c 11 c3 84 3d 97 48 6a 3d 7c f5 60 3c
       0.029565077 0.064825185 0.057198133 0.013730403
000150 7d 8a 9d bd 20 85 09 be c2 a0 2a 3e eb 32 c8 bd
       -0.0769243 -0.1342969 0.16662887 -0.09775337
000160 74 80 43 bd 60 55 3e 3d 64 88 12 3d 73 d2 0e 3d
       -0.047729924 0.04646814 0.035774603 0.03486867
000170 55 bc cc 3d 94 40 19 3d 9a 45 0e bd 3f 17 fe bc
       0.09996859 0.037415102 -0.034734346 -0.031016944
000180 b2 a8 e9 3c 7b ee a3 bd 86 52 b7 3c b5 42 1e bd
       0.028522823 -0.08004471 0.022378217 -0.038637836
000190 c4 1d f2 bc c0 9f 15 3d 72 e1 35 bc a5 fc 66 3d
       -0.029555209 0.036529303 -0.011101114 0.056393284
0001a0 d9 33 47 be 5b 76 82 bd 20 7e 56 3d 80 6c b2 3d
       -0.19453372 -0.06370231 0.052366376 0.08712101
0001b0 09 88 1e bb 40 5d 31 bc 06 c5 e5 3c c7 1a c5 bd
       -0.002418997 -0.010825455 0.02804805 -0.09624248
0001c0 be 1f 6a bc a5 4b 1c 3d 8e 15 09 bd d5 a9 00 bc
       -0.0142897945 0.038158078 -0.03346782 -0.007852991
0001d0 33 bd 3a 3e 8c 93 de 3d 20 d1 f9 bc 3f a7 6b bd
       0.18236236 0.10867986 -0.030495226 -0.057532545
0001e0 b3 19 50 3d 6e 0c 14 3d 25 89 5c bc 60 fa 4d 3d
       0.05080576 0.036144666 -0.013460432 0.050287604
0001f0 1a 1e 18 ba f4 33 a0 3d ee 4d 5c 3d 88 de 07 be
       -0.00058028253 0.07822409 0.053785257 -0.13268483
000200 f2 1d 80 3e a5 92 06 bd 6e ac 2a bd 1d bc 09 bd
       0.25022846 -0.032854695 -0.041668348 -0.033626664
000210 91 d8 90 3d 26 a4 01 3d 19 ed ac bc e3 e6 ea bd
       0.07072557 0.031650685 -0.02110915 -0.114698194
000220 d4 e1 26 bd b4 e2 ca 3c da b4 52 bd 08 8e b5 3d
       -0.04074271 0.024766304 -0.051442005 0.08864981
000230 b7 76 1e 3e 26 68 3c 3e 23 24 a2 3d be a2 c0 3c
       0.15474974 0.18399104 0.07917049 0.023515102
000240 83 8e 17 3d 52 ac e8 3d 87 83 ba 3d de e8 1a 3c
       0.037001144 0.113609925 0.09107118 0.009454934
000250 d1 c9 1d 3e 9e 5a be 3d f8 39 87 3c 78 11 15 3e
       0.15409018 0.092946276 0.016507134 0.14557445
000260 13 6f 94 3d 14 f5 47 3c 61 5c 6a 3e e7 d3 3d be
       0.07247748 0.012204427 0.22886802 -0.18537866
000270 61 0e 1a be 9c c1 69 3b 2a a3 25 bd 31 9d 66 3c
       -0.15044548 0.0035668379 -0.04043881 0.014075563
000280 a1 47 6f 3d f7 a9 35 bd f7 1e 00 be 21 90 0c be
       0.05841792 -0.044351544 -0.12511812 -0.13726856
000290 33 3d 1d 3d 68 7a 8f bd df d7 4a bd ee da 14 3a
       0.038388442 -0.07005769 -0.049522277 0.0005678375
0002a0 84 15 ec 3d c9 d6 9c 3d 39 e5 c4 bd 94 d4 11 be
       0.11527541 0.076581545 -0.09614033 -0.14241248
0002b0 c9 8f 8a bd 97 69 6f 3e aa 09 80 3d 32 2f cb 3b
       -0.06765706 0.23380123 0.06251843 0.0062006945
0002c0 c0 0f 63 bc 2c 4f 05 3d 3a 61 e2 bd 09 30 e9 3c
       -0.013858736 0.032546207 -0.11053701 0.028465288
0002d0 0b fc 4c 3e 34 9b 93 bc d3 38 52 3e 89 62 02 3e
       0.20018022 -0.018018343 0.20529489 0.127329
0002e0 a3 f7 93 3d 2e a7 ab 3d 6e ef 2e 3d dc 08 26 3d
       0.07224967 0.08381496 0.042708807 0.040535793
0002f0 a5 19 ed 3d 22 8f 63 bd 6c 74 4d 3d 69 8c 7b bc
       0.11577157 -0.055556424 0.050159857 -0.015353301
000300 d0 96 48 bc f5 14 cb bd ce ef 37 3c 2d f2 a0 be
       -0.012242988 -0.099161066 0.0112266075 -0.31434765
000310 f0 c4 01 3e 1a 0f 52 3d 9d d7 93 bd e6 e8 0c 3d
       0.12672782 0.051283933 -0.07218859 0.034401797
000320 b5 8a 50 be cb dc 6a bd 7b d8 1a bb 20 b0 3e bc
       -0.20365413 -0.05733947 -0.0023627568 -0.011638671
000330 69 cd e3 3c cc d2 11 bd fc 11 a5 3c 81 62 72 be
       0.027807908 -0.035601422 0.020150177 -0.23670389
000340 09 c6 42 bd ac 07 41 bd c6 dc a6 3d d1 b5 74 bd
       -0.047552142 -0.047126457 0.08147578 -0.059743706
000350 7e c4 73 bd 4a 7a d3 3d f9 fb ac be e1 9c 8c 3c
       -0.05951356 0.10326059 -0.3378599 0.01716465
000360 54 1c 21 3e cc f4 a0 3d 13 e3 8e 3d b5 ef 6e 3d
       0.15733463 0.07859191 0.06976905 0.05833407
000370 f3 da 08 be a1 c2 a7 bc c3 a8 9d 3d 33 c8 ee be
       -0.13364772 -0.020478548 0.07698204 -0.46637115
000380 85 88 5d bd 88 4a aa 3d 51 8d e1 bd 79 61 3d bc
       -0.054085273 0.08314997 -0.11013282 -0.011558884
000390 3b 5a c5 3d a5 d0 e2 bc 2d dc 1b 3d 96 e1 bb 3d
       0.09636351 -0.02768738 0.038051773 0.091738865
0003a0 01 e9 f5 3d a6 75 9d bd 26 3a 4b bd 86 8f cf bd
       0.120073326 -0.07688455 -0.049616 -0.10134797
0003b0 d6 8b 1a 3c 82 f1 a5 3d 89 7c d5 3b 4d c3 00 b8
       0.009432754 0.081027046 0.00651509 -3.0699466e-05
0003c0 c2 82 f5 bb 22 37 c2 bc c5 da 06 3c 49 7a 3f bd
       -0.007492394 -0.02370793 0.00823087 -0.04674748
0003d0 22 f9 fa bd 85 01 0c be 4f a8 e9 3d 73 6a 2a 3e
       -0.122545496 -0.13672455 0.114090554 0.1664217
0003e0 6d 00 b7 3d 9d a7 6a bd 71 28 2c 3e 41 f3 0a bd
       0.08935628 -0.057288755 0.16812302 -0.03392339
0003f0 6f a1 16 3d fa 97 7b 3d f6 bc 8c bd ca cf 18 3d
       0.03677505 0.061424233 -0.06871979 0.037307538

layer4.bias f4 [22]
000000 db 87 d6 3c 86 b3 3d 3c 71 fe a9 3d 3e b5 fc 3c
       0.026187828 0.011578446 0.08300484 0.030848142
000010 10 3c b6 3c d6 6f 3b 3d 91 a2 34 3d dc f2 c3 3d
       0.022245437 0.045760952 0.044100348 0.09567806
000020 39 07 1a 3c 14 46 28 3d 24 be 13 3d 7b d5 19 3d
       0.009401136 0.041082457 0.036070004 0.037557106
000030 79 2b 28 3e f8 ae 63 3d 15 ac 21 3d ee 2c b9 3d
       0.16422834 0.055586785 0.03947075 0.09041773
000040 d1 47 b4 3d 0e d2 3a 3e 97 f7 d1 3b 4e 11 9e 3d
       0.088027604 0.18244192 0.006407689 0.07718144
000050 c2 4c 7f 3d fd b5 93 3d
       0.06232906 0.07212446

exp_avg f4 [32, 22]
000000 b5 52 19 2b 99 77 11 ac ee 50 a2 ac cf 30 77 ac
       5.44713e-13 -2.067213e-12 -4.613302e-12 -3.5127905e-12
000010 e9 73 91 ab 37 50 a2 ac 1e 21 94 ac 00 aa bb ac
       -1.0335041e-12 -4.6132226e-12 -4.2100897e-12 -5.3337335e-12
000020 99 f7 bc ac 81 3c 8e ac e4 a8 8e 2b 45 35 aa 2b
       -5.3707702e-12 -4.0426e-12 1.0136583e-12 1.2094012e-12
000030 ee 50 22 ad cf 30 f7 ac e9 73 11 ac 37 50 22 ad
       -9.226604e-12 -7.025581e-12 -2.0670082e-12 -9.226445e-12
000040 1e 21 14 ad 00 aa 3b ad 99 f7 3c ad 81 3c 0e ad
       -8.4201795e-12 -1.0667467e-11 -1.07415405e-11 -8.0852e-12
000050 e4 a8 0e 2c 45 35 2a 2c 31 53 43 9b c3 d7 6a 1c
       2.0273167e-12 2.4188024e-12 -1.6156903e-22 7.770297e-22
000060 af a2 e3 99 06 4c 74 18 44 bc a1 98 26 f8 5b 97
       -2.3536957e-23 3.1574643e-24 -4.1807624e-24 -7.1075924e-25
000070 1e 12 fb 18 8b 19 16 19 bc c1 2f 19 0f 37 6e 99
       6.4900273e-24 7.7599766e-24 9.086412e-24 -1.2315431e-23
000080 6a b8 17 9a 59 e4 07 1a af a2 63 9a 06 4c f4 18
       -3.1375037e-23 2.8101803e-23 -4.7073915e-23 6.3149286e-24
000090 44 bc 21 99 26 f8 db 97 1e 12 7b 19 8b 19 96 19
       -8.361525e-24 -1.4215185e-24 1.29800546e-23 1.5519953e-23
0000a0 bc c1 af 19 0f 37 ee 99 6a b8 97 9a 59 e4 87 1a
       1.8172825e-23 -2.4630861e-23 -6.2750073e-23 5.620361e-23
0000b0 a4 03 e7 b5 e0 cd d7 b6 29 a7 bd 36 3b 70 43 37
       -1.7211901e-06 -6.4314663e-06 5.652099e-06 1.1649036e-05
0000c0 82 c3 96 35 72 15 d7 36 d3 b7 d2 36 52 e4 94 b4
       1.1232771e-06 6.409996e-06 6.2798877e-06 -2.7733273e-07
0000d0 f3 6c 3b 37 4a 28 19 37 54 ab 26 37 f9 4e 86 36
       1.1171435e-05 9.128891e-06 9.9342615e-06 4.002705e-06
0000e0 29 a7 3d 37 3b 70 c3 37 82 c3 16 36 72 15 57 37
       1.1304198e-05 2.3298073e-05 2.2465542e-06 1.2819992e-05
0000f0 d3 b7 52 37 52 e4 14 b5 f3 6c bb 37 4a 28 99 37
       1.2559775e-05 -5.5466546e-07 2.234287e-05 1.8257782e-05
000100 54 ab a6 37 f9 4e 06 37 44 20 31 b8 cb 19 89 b6
       1.9868523e-05 8.00541e-06 -4.223014e-05 -4.085921e-06
000110 b7 f3 83 b8 93 b1 43 b8 f2 a6 59 b8 97 f5 b5 b8
       -6.291962e-05 -4.6657e-05 -5.189231e-05 -8.676497e-05
000120 06 7f 8c b8 16 3a 80 b8 a2 e1 7b b8 b1 f8 4e b8
       -6.69938e-05 -6.114335e-05 -6.00532e-05 -4.934584e-05
000130 ba 2d 9a b8 dc 47 5d b8 b7 f3 03 b9 93 b1 c3 b8
       -7.3518095e-05 -5.275743e-05 -0.00012583924 -9.3314e-05
000140 f2 a6 d9 b8 97 f5 35 b9 06 7f 0c b9 16 3a 00 b9
       -0.00010378462 -0.00017352994 -0.0001339876 -0.0001222867
000150 a2 e1 fb b8 b1 f8 ce b8 ba 2d 1a b9 dc 47 dd b8
       -0.0001201064 -9.869168e-05 -0.00014703619 -0.00010551486
000160 46 c3 8f 35 40 a0 12 b6 cb 8b 09 35 a3 3a 3c 35
       1.0711162e-06 -2.1848973e-06 5.12399e-07 7.0120785e-07
000170 3c 4e 87 33 07 c6 23 35 eb 25 f2 34 66 4a 3c 35
       6.300658e-08 6.10104e-07 4.5103602e-07 7.014372e-07
000180 c1 41 14 35 24 78 06 35 46 6f 2e 35 92 8d b3 34
       5.522998e-07 5.009372e-07 6.4981975e-07 3.3444354e-07
000190 cb 8b 89 35 a3 3a bc 35 3c 4e 07 34 07 c6 a3 35
       1.024798e-06 1.4024157e-06 1.2601316e-07 1.220208e-06
0001a0 eb 25 72 35 66 4a bc 35 c1 41 94 35 24 78 86 35
       9.0207203e-07 1.4028744e-06 1.1045996e-06 1.0018744e-06
0001b0 46 6f ae 35 92 8d 33 35 f0 ad 21 38 eb 5e 61 38
       1.2996395e-06 6.688871e-07 3.8547383e-05 5.373258e-05
0001c0 d8 e6 b8 37 e5 fc a1 38 62 24 57 38 e8 34 29 38
       2.2042004e-05 7.7241835e-05 5.129388e-05 4.0342013e-05
0001d0 8c f7 8f 38 6d 5a 25 38 9d 8b 4a 38 8a 94 81 38
       6.8648806e-05 3.942328e-05 4.8290578e-05 6.178867e-05
0001e0 fe 44 90 38 62 f8 2b 38 d8 e6 38 38 e5 fc 21 39
       6.879306e-05 4.10009e-05 4.408401e-05 0.00015448367
0001f0 62 24 d7 38 e8 34 a9 38 8c f7 0f 39 6d 5a a5 38
       0.00010258776 8.0684025e-05 0.00013729761 7.884656e-05
000200 9d 8b ca 38 8a 94 01 39 fe 44 10 39 62 f8 ab 38
       9.6581156e-05 0.00012357734 0.00013758612 8.20018e-05
000210 e4 07 1f 02 55 d4 10 02 ea 02 12 82 ac 4e 17 82
       1.168374e-37 1.0640385e-37 -1.0727222e-37 -1.1116306e-37
000220 0d 40 1c 82 60 b6 16 02 3b 68 11 82 60 b9 1b 82
       -1.1479452e-37 1.1072599e-37 -1.068283e-37 -1.1440802e-37
000230 c1 0d 13 02 48 19 1f 82 2a 30 19 82 70 b4 1d 02
       1.0803802e-37 -1.168873e-37 -1.1254487e-37 1.1586321e-37
000240 60 31 1b 82 58 bd 10 82 cd 77 15 82 aa 2b 10 02
       -1.1401771e-37 -1.0633788e-37 -1.0981172e-37 1.059198e-37
000250 f8 8c 1a 82 f9 f6 14 82 00 4d 1c 02 5f 31 18 82
       -1.1354589e-37 -1.09442e-37 1.1483168e-37 -1.1181365e-37
000260 f0 89 12 82 07 dc 16 02 87 1c 44 2d aa 17 12 2d
       -1.0765972e-37 1.1083404e-37 1.11476444e-11 8.304394e-12
000270 65 6b 99 ad 00 8d 03 2d 98 ab 08 ac b6 28 6c 29
       -1.7441779e-11 7.477796e-12 -1.9422016e-12 5.2437838e-14
000280 38 63 a1 2c 17 c0 6d 2d b2 9e 22 2d 83 a0 21 2c
       4.5869107e-12 1.3514543e-11 9.243871e-12 2.2968578e-12
000290 9c 32 f0 2d 0d da 05 2e 65 6b 19 ae 00 8d 83 2d
       2.7307316e-11 3.0434367e-11 -3.4883558e-11 1.4955592e-11
0002a0 98 ab 88 ac b6 28 ec 29 38 63 21 2d 17 c0 ed 2d
       -3.884403e-12 1.04875676e-13 9.173821e-12 2.7029086e-11
0002b0 b2 9e a2 2d 83 a0 a1 2c 9c 32 70 2e 0d da 85 2e
       1.8487743e-11 4.5937156e-12 5.4614632e-11 6.0868734e-11
0002c0 42 b8 13 02 30 12 1f 82 90 f3 1b 02 41 85 12 02
       1.0852734e-37 -1.1686695e-37 1.14575e-37 1.0764628e-37
0002d0 c7 b8 12 82 60 1e 1c 82 68 39 18 02 83 cc 1f 82
       -1.0779414e-37 -1.1469787e-37 1.1183671e-37 -1.1740167e-37
0002e0 9d aa 17 82 ef 8f 1e 82 ae c2 1e 82 ee 83 15 82
       -1.1142692e-37 -1.1649314e-37 -1.1663877e-37 -1.0984653e-37
0002f0 a2 2e 15 02 e9 bb 1b 02 ac f2 1b 82 97 57 15 82
       1.0960174e-37 1.1441529e-37 -1.1457245e-37 -1.0971928e-37
000300 e5 9d 11 02 d4 dc 18 82 4c 15 11 82 fe ad 17 82
       1.0698231e-37 -1.1230571e-37 -1.065903e-37 -1.1143661e-37
000310 89 de 17 82 cc ea 1e 82 db 9e 17 02 cb f1 12 82
       -1.1157592e-37 -1.167539e-37 1.1139317e-37 -1.0795777e-37
000320 09 10 10 02 d6 63 16 02 13 98 16 82 2e 37 10 82
       1.0584051e-37 1.1048911e-37 -1.1063903e-37 -1.0595285e-37
000330 75 3e 1c 02 ec 9d 13 82 cc aa 1b 82 71 79 12 82
       1.1478994e-37 -1.0845176e-37 -1.1436618e-37 -1.0761238e-37
000340 83 a8 12 82 cc d9 1e 02 20 1f 19 02 c8 d8 1f 02
       -1.0774746e-37 1.1670511e-37 1.1249597e-37 1.1743688e-37
000350 ad 0e 10 82 bb 48 19 82 46 76 15 02 3a e6 1c 82
       -1.0583661e-37 -1.1261537e-37 1.0980734e-37 -1.1527142e-37
000360 07 e9 14 82 5b af 1b 82 64 e1 1b 82 a6 f4 17 02
       -1.0940198e-37 -1.1437926e-37 -1.1452285e-37 1.1163939e-37
000370 ce cc 19 b7 71 ae b3 37 ef 60 b1 b3 64 af 49 36
       -9.1671955e-06 2.1419693e-05 -8.259837e-08 3.0053425e-06
000380 03 74 84 b4 82 2b 9b 33 b4 1f 06 b5 14 9a 15 b6
       -2.4671326e-07 7.225664e-08 -4.9965024e-07 -2.2292415e-06
000390 0c 84 1f b6 ea fb ec 35 e4 fa ad b5 3b e6 bb 34
       -2.3769708e-06 1.7656687e-06 -1.2962523e-06 3.499898e-07
0003a0 ef 60 31 b4 64 af c9 36 03 74 04 b5 82 2b 1b 34
       -1.6519674e-07 6.010685e-06 -4.934265e-07 1.4451328e-07
0003b0 b4 1f 86 b5 14 9a 95 b6 0c 84 9f b6 ea fb 6c 36
       -9.993005e-07 -4.458483e-06 -4.7539415e-06 3.5313374e-06
0003c0 e4 fa 2d b6 3b e6 3b 35 13 b9 e8 b7 d5 2c cb b7
       -2.5925046e-06 6.999796e-07 -2.7742737e-05 -2.4220362e-05
0003d0 a0 bd 16 b7 5a e2 2c 37 b2 8c 58 35 c6 76 a1 b7
       -8.984847e-06 1.03047005e-05 8.067101e-07 -1.9248004e-05
0003e0 b7 b7 1d b6 32 1f 70 b7 75 1a 32 b7 88 eb 96 36
       -2.350176e-06 -1.4312378e-05 -1.0615787e-05 4.497768e-06
0003f0 1c 41 86 b6 e7 25 84 b6 a0 bd 96 b7 5a e2 ac 37
       -4.001091e-06 -3.938319e-06 -1.7969694e-05 2.0609401e-05

exp_avg_sq f4 [32, 22]
000000 ac f7 74 2e 25 29 7c 2f 4d 92 00 2f e9 31 92 2f
       5.5699154e-11 2.2933884e-10 1.1693509e-10 2.6592709e-10
000010 31 5f 17 2d 9b 66 c8 2f e3 8e 95 2e dd 9a c4 2f
       8.604493e-12 3.6452694e-10 6.801117e-11 3.576223e-10
000020 f2 22 27 30 3d ee ce 2f 7a d1 87 2f 88 ab 3f 2e
       6.0803906e-10 3.764046e-10 2.47052e-10 4.3580722e-11
000030 4d 92 00 30 e9 31 92 30 31 5f 17 2e 9b 66 c8 30
       4.6774035e-10 1.0637083e-09 3.4417972e-11 1.4581077e-09
000040 e3 8e 95 2f dd 9a c4 30 f2 22 27 31 3d ee ce 30
       2.720447e-10 1.4304892e-09 2.4321563e-09 1.5056184e-09
000050 7a d1 87 30 88 ab 3f 2f c1 27 04 2f ce d0 2b 30
       9.88208e-10 1.7432289e-10 1.2019453e-10 6.2506167e-10
000060 52 63 e8 2d 6a a7 99 2e b6 65 88 2d 30 45 d0 2e
       2.6419453e-11 6.987373e-11 1.5506579e-11 9.471035e-11
000070 6e a0 17 2e 35 c4 51 2e 02 d1 93 2e f8 08 0b 2e
       3.4475915e-11 4.7695365e-11 6.721913e-11 3.1612907e-11
000080 bc 83 e1 2e 13 d0 12 2f 52 63 e8 2e 6a a7 99 2f
       1.0255216e-10 1.3352545e-10 1.05677814e-10 2.7949493e-10
000090 b6 65 88 2e 30 45 d0 2f 6e a0 17 2f 35 c4 51 2f
       6.2026315e-11 3.788414e-10 1.3790366e-10 1.9078146e-10
0000a0 02 d1 93 2f f8 08 0b 2f bc 83 e1 2f 13 d0 12 30
       2.6887653e-10 1.2645163e-10 4.1020864e-10 5.341018e-10
0000b0 bb 4b cc 31 a3 c5 ac 32 ae a4 83 31 3d 74 85 31
       5.945791e-09 2.011331e-08 3.8313237e-09 3.884024e-09
0000c0 35 98 31 31 13 e9 3d 31 36 54 3c 31 d5 57 52 31
       2.584341e-09 2.7635607e-09 2.740547e-09 3.0608949e-09
0000d0 95 0a 5a 31 2f e5 5e 31 c4 22 8e 31 57 f1 61 31
       3.172919e-09 3.2435528e-09 4.1366963e-09 3.2878995e-09
0000e0 ae a4 83 32 3d 74 85 32 35 98 31 32 13 e9 3d 32
       1.5325295e-08 1.5536097e-08 1.0337364e-08 1.1054243e-08
0000f0 36 54 3c 32 d5 57 52 32 95 0a 5a 32 2f e5 5e 32
       1.0962188e-08 1.22435795e-08 1.2691676e-08 1.2974211e-08
000100 c4 22 8e 32 57 f1 61 32 7d 08 db 32 90 4e a6 33
       1.6546785e-08 1.3151598e-08 2.5498816e-08 7.744268e-08
000110 59 f9 87 32 2b 3d 82 32 f1 a0 89 32 a5 d2 9c 32
       1.5829459e-08 1.5161808e-08 1.6022087e-08 1.825658e-08
000120 d1 fc 9d 32 5c e9 8c 32 5f 73 82 32 cc 80 86 32
       1.8392173e-08 1.6404265e-08 1.5186457e-08 1.5658223e-08
000130 32 d4 85 32 f2 43 89 32 59 f9 87 33 2b 3d 82 33
       1.5579733e-08 1.5979797e-08 6.3317835e-08 6.064723e-08
000140 f1 a0 89 33 a5 d2 9c 33 d1 fc 9d 33 5c e9 8c 33
       6.408835e-08 7.302632e-08 7.356869e-08 6.561706e-08
000150 5f 73 82 33 cc 80 86 33 32 d4 85 33 f2 43 89 33
       6.0745826e-08 6.263289e-08 6.231893e-08 6.391919e-08
000160 25 ad c9 30 ee 47 2b 31 61 d3 52 30 49 7e 49 30
       1.4673885e-09 2.4924662e-09 7.669794e-10 7.3302836e-10
000170 f2 89 bb 2f e2 38 2b 30 89 9b 28 30 5e a2 6b 30
       3.4113118e-10 6.2290273e-10 6.133907e-10 8.572324e-10
000180 52 be 5c 30 bd 3b 59 30 75 13 43 30 1c 00 40 30
       8.0305995e-10 7.9029033e-10 7.0968237e-10 6.984935e-10
000190 61 d3 52 31 49 7e 49 31 f2 89 bb 30 e2 38 2b 31
       3.0679177e-09 2.9321134e-09 1.3645247e-09 2.491611e-09
0001a0 89 9b 28 31 5e a2 6b 31 52 be 5c 31 bd 3b 59 31
       2.453563e-09 3.4289296e-09 3.2122398e-09 3.1611613e-09
0001b0 75 13 43 31 1c 00 40 31 d3 91 bf 32 16 b3 8d 33
       2.8387295e-09 2.793974e-09 2.230164e-08 6.5984e-08
0001c0 f0 d2 5e 32 56 1f 70 32 b3 77 43 32 4b 17 73 32
       1.2970062e-08 1.3976964e-08 1.137771e-08 1.4149758e-08
0001d0 7b 1d 6b 32 36 1f 83 32 4c 62 81 32 e9 7f 6b 32
       1.3685503e-08 1.52646e-08 1.5062277e-08 1.3707884e-08
0001e0 98 76 67 32 50 d3 77 32 f0 d2 5e 33 56 1f 70 33
       1.3472935e-08 1.4425339e-08 5.188025e-08 5.5907854e-08
0001f0 b3 77 43 33 4b 17 73 33 7b 1d 6b 33 36 1f 83 33
       4.551084e-08 5.659903e-08 5.4742014e-08 6.10584e-08
000200 4c 62 81 33 e9 7f 6b 33 98 76 67 33 50 d3 77 33
       6.024911e-08 5.4831535e-08 5.389174e-08 5.7701357e-08
000210 69 f0 8b 2e 75 d6 da 2f 0b a9 46 2e f1 19 1b 2e
       6.3636936e-11 3.980635e-10 4.5170128e-11 3.526596e-11
000220 43 96 a6 2b 98 01 27 2b 2a c0 24 2c 42 78 55 2e
       1.1836715e-12 5.933253e-13 2.3412474e-12 4.8537403e-11
000230 8b 01 f9 2a 07 c7 ca 2b e7 db 82 2c f7 9b 8a 2c
       4.4232356e-13 1.4408204e-12 3.7192363e-12 3.9395115e-12
000240 0b a9 46 2f f1 19 1b 2f 43 96 a6 2c 98 01 27 2c
       1.8068051e-10 1.4106384e-10 4.734686e-12 2.3733012e-12
000250 2a c0 24 2d 42 78 55 2f 8b 01 f9 2b 07 c7 ca 2c
       9.36499e-12 1.9414961e-10 1.7692942e-12 5.7632818e-12
000260 e7 db 82 2d f7 9b 8a 2d 50 d7 c3 2f c5 6d bd 30
       1.4876945e-11 1.5758046e-11 3.5623282e-10 1.3782758e-09
000270 b9 44 1b 2d 74 f0 31 2e 3f 99 22 2d bb 09 85 2d
       8.825989e-12 4.0458706e-11 9.242661e-12 1.512467e-11
000280 42 53 93 2d 7a 56 d4 2d 56 cd 3b 2d 4f d2 0f 2d
       1.6748939e-11 2.4140013e-11 1.0675313e-11 8.175307e-12
000290 ce 21 3d 2d c2 87 02 2e b9 44 1b 2e 74 f0 31 2f
       1.0750912e-11 2.9679155e-11 3.5303958e-11 1.6183482e-10
0002a0 3f 99 22 2e bb 09 85 2e 42 53 93 2e 7a 56 d4 2e
       3.6970645e-11 6.049868e-11 6.6995756e-11 9.656005e-11
0002b0 56 cd 3b 2e 4f d2 0f 2e ce 21 3d 2e c2 87 02 2f
       4.2701252e-11 3.2701227e-11 4.300365e-11 1.1871662e-10
0002c0 08 43 90 2d a7 18 b4 2e b9 f3 56 2d bd 95 ba 26
       1.6400672e-11 8.1898315e-11 1.2218609e-11 1.2946929e-15
0002d0 c6 75 80 2a 27 49 77 27 9c 48 5e 26 e5 07 4d 2d
       2.281909e-13 3.4317792e-15 7.7120126e-16 1.1654654e-11
0002e0 e3 25 77 29 c2 ea fb 26 41 f8 99 2b 30 38 6d 29
       5.487788e-14 1.7480255e-15 1.0940208e-12 5.2673306e-14
0002f0 b9 f3 56 2e bd 95 ba 27 c6 75 80 2b 27 49 77 28
       4.8874436e-11 5.1787717e-15 9.127636e-13 1.3727117e-14
000300 9c 48 5e 27 e5 07 4d 2e e3 25 77 2a c2 ea fb 27
       3.084805e-15 4.6618615e-11 2.1951152e-13 6.992102e-15
000310 41 f8 99 2c 30 38 6d 2a a8 5a 4f 2f 46 db 21 2f
       4.3760833e-12 2.1069323e-13 1.8858748e-10 1.4720766e-10
000320 0a 8d a7 2d 91 46 50 2d 51 f6 23 2c 1d 83 39 2f
       1.9048336e-11 1.18391e-11 2.3300426e-12 1.6872233e-10
000330 fa ee eb 2e 52 d0 d9 2e 42 47 2a 2f 50 c4 f3 2c
       1.07290135e-10 9.9050226e-11 1.5486726e-10 6.9282705e-12
000340 85 fc dd 2e 82 5e 28 2f 0a 8d a7 2e 91 46 50 2e
       1.0094773e-10 1.5313087e-10 7.619334e-11 4.73564e-11
000350 51 f6 23 2d 1d 83 39 30 fa ee eb 2f 52 d0 d9 2f
       9.3201705e-12 6.748893e-10 4.2916054e-10 3.962009e-10
000360 42 47 2a 30 50 c4 f3 2d 85 fc dd 2f 82 5e 28 30
       6.1946903e-10 2.7713082e-11 4.0379092e-10 6.125235e-10
000370 cd b3 82 31 d3 91 e4 31 5d 8e 49 31 1b 9b 90 31
       3.803939e-09 6.6522516e-09 2.9330274e-09 4.208585e-09
000380 1c 5a 26 31 7d d8 4e 31 e2 29 47 31 e1 d3 1e 31
       2.42074e-09 3.0100005e-09 2.898212e-09 2.3112465e-09
000390 3f 30 23 31 89 ee 7d 31 fd 22 0e 31 d1 27 23 31
       2.3747047e-09 3.6951937e-09 2.0683608e-09 2.3742255e-09
0003a0 5d 8e 49 32 1b 9b 90 32 1c 5a 26 32 7d d8 4e 32
       1.17321095e-08 1.683434e-08 9.68296e-09 1.2040002e-08
0003b0 e2 29 47 32 e1 d3 1e 32 3f 30 23 32 89 ee 7d 32
       1.1592848e-08 9.244986e-09 9.498819e-09 1.4780775e-08
0003c0 fd 22 0e 32 d1 27 23 32 e2 26 8f 32 bc 5c 7f 33
       8.273443e-09 9.496902e-09 1.6665073e-08 5.9456156e-08
0003d0 0f a9 5d 32 c2 a6 4b 32 9c 38 70 32 ee 7f 7f 32
       1.29023325e-08 1.18540715e-08 1.398271e-08 1.4872041e-08
0003e0 88 d6 62 32 71 50 81 32 e2 ec 2d 32 a9 f7 4d 32
       1.320371e-08 1.5054157e-08 1.0123786e-08 1.1988882e-08
0003f0 d2 fb 2c 32 77 56 3f 32 0f a9 5d 33 c2 a6 4b 33
       1.0068975e-08 1.1137323e-08 5.160933e-08 4.7416286e-08
