checkpoints/MLP_bs32_lr0.001_win50-30-20_vTrue_scTrue_ep4.pth (torch, 178894 bytes, 24 tensors)

layer1.weight f4 [32, 22]
00000000: de8a 2fbe a32c 2d3e 11d7 563e 5668 c4bd
00000010: 6c34 393f 328a bfbe 28b4 19be 3585 78bf
00000020: f160 3dbe fef1 eebe 172f f43d dae0 9c3e
00000030: d988 c13e 1870 dcbd ea41 313f d099 5ebe
00000040: b83d d33d 38a4 63bf 5909 1fbe 553f 1cbf
00000050: 929e 4cbe 7b12 123e afac 15be a1d4 6fba
00000060: bb98 18be 69c6 8cbe 583a bdbe 3b9c 353f
00000070: cc0f e2bd 60aa 4f3e 0542 54be 7332 1fbf
00000080: 5827 e9bc d1cf a43f 46af 32be 3a0f 2abf
00000090: 559d f2be ee8b 1a3f e1db 71be e9da 77bd
000000a0: b3c6 f2be fdf0 ecbe 339f 073e ef96 bd3f
000000b0: 5704 b53d f71c bebd 24cc 00bf 16d4 bd3e
000000c0: 88d1 543e 3eee a53e 2214 1abf 1c22 ba3d
000000d0: f2fe 8abf 5e4a 473e c7db 013f 1805 f63e
000000e0: 9cd9 f6be 5c22 aa3e f75f 6c3e 0141 b4bd
000000f0: c570 abbe c24f 80bb 1824 5abf 4c05 59bb
00000100: 82aa 2d3f fd2f 313f e32e eabc 4321 253d
00000110: 393e 4f3d 69f7 16bf 1817 a3bd b8cd f63d
00000120: 282d 343d 9206 883e f911 20bf 920c d9bc
00000130: 721a c03d ff0b 0abe ee05 8a3e edf3 26bf
00000140: 3c85 f23d cd5f 503e e2b6 d13e 40ae 1c3e
00000150: 6f1e cbbe e331 3dbd 0c4b 8a3e 94b7 dfbd
00000160: 5a3b 8ebe 8c79 0f3e 31bf e33e 83ac 38bd
00000170: 42f0 44be 502c 37be 1021 b73e 7a77 bc3e
00000180: 6130 213f ee70 db3e ce3d 1c3d 0dfe e43e
00000190: 62c0 b03e ab8e 29be cbf7 6cbe 2540 a2bd
000001a0: 5260 aebc 49d2 033e bff5 203f f5bb 393f
000001b0: 43a6 a0bd b470 fb3e 0b5c 683d 728b a3bc
000001c0: c98b 0ebf 31ba 53bd d005 c4be 259d 803d
000001d0: 843e 703e ac71 40be 6be5 c13e 9228 523d
000001e0: 85b4 d6bd 6455 313f 38e1 13bf a5c9 f73d
000001f0: 6cf2 97be 31d2 b83c 248a c33e 97e8 35be
00000200: 2a6b 4a3d 6c0b 293e 327e 8abe 93e8 0f3f
00000210: e5c1 af3e a1ea a83d f6bd 03bf 3579 49be
00000220: 87cb 833d f2dc 483e 95bb a73e d442 e63e
00000230: e1ac ea3c 0a9f 8bbe 6b9f 683e 5d9f d4be
00000240: 0db4 22bf f275 82be 0a2a d1bc 52bd 563d
00000250: f26f f03e cac1 e03e f235 99be 8038 4fbe
00000260: 4024 cfbb c1a8 e1be ef5e 9fbc 7a8b c8bd
00000270: bad0 d33d 0d26 123f 6ca0 e13e a348 323d
00000280: f9bb 6dbc 357c 6fbf ebf5 fb3d 0a04 093b
00000290: 9536 e93d 040f 8dbf d05e f63d fb2f 023f
000002a0: 9b98 323f a1d1 05bc f2c5 853e 7a53 5bbf
000002b0: 25fd e63d 04a5 a9bd f99b 39be a7e1 97bf
000002c0: 721f 82be 24d9 33bd 0c42 23bd de4e 89bc
000002d0: 1716 e73e 01a3 073e eaed 563d 9675 18bd
000002e0: 368c 573d 70cc 333e e59d f33d b005 483e
000002f0: 758d 07be afec d93d 7da0 ae3e e077 873e
00000300: 8b0c 8e3e 1e07 26bd 61ce 0abe 7631 e53d
00000310: 2439 b93d ed3f 8a3c cfd7 da3d 39fc c53d
00000320: c481 30bd bec2 fdbe 392d 7fbc d913 b93e
00000330: 8ed6 f43e df32 3b3d 3d9b 50bc ada2 78bf
00000340: 71e7 01be bc20 0bbe 8c66 ecbd b26f 5ebe
00000350: db19 7b3d 4045 183f 3ace 483f 9646 67be
00000360: d845 0a3d 91f6 81bf d14d 46be 53b4 84bc
00000370: 0bc1 433e c30a 95bc 9d36 e8bc 28cb 82bf
00000380: 04ee fe3c 7736 973d 3af9 fa3e 8a0d a53e
00000390: 02a0 81be b170 3bbf 65bf 553c 5bfa 203e
000003a0: dc74 813d 9ac5 65bf 744a 903e fa44 083e
000003b0: b932 dd3e fb1c b33e 86c6 6bbe 74a8 d7be
000003c0: 87a8 20bd 6643 183e 6ae3 8dbd 8853 4abd
000003d0: bc17 a8be a597 b9be fa24 ca3e d8d4 053f
000003e0: f9b7 9abd 0b55 afbe fb3c 57bd 75bb 31be
000003f0: 9755 0ebf 03ed a23e e173 62be 6012 bcbe
-0.17142817 0.16911559 0.20980479 -0.09590213 0.72345614 -0.37410122 -0.1501013 -0.9707826
-0.18494011 -0.46669 0.11923044 0.30640298 0.3779972 -0.10763568 0.692412 -0.21738362
0.10314506 -0.8892245 -0.1553091 -0.61034137 -0.19982365 0.14264862 -0.14616655 -0.00091488106
-0.14902012 -0.27495125 -0.36958575 0.70941514 -0.11038169 0.20279837 -0.2072831 -0.62186354
-0.028461143 1.287592 -0.17449674 -0.66429484 -0.4738566 0.60369766 -0.23619033 -0.060511503
-0.4741722 -0.4627761 0.13244323 1.4811686 0.088387184 -0.09282868 -0.50311494 0.3707587
0.20783055 0.32408327 -0.6018697 0.09088537 -1.0859053 0.19461963 0.5072598 0.4805076
-0.48212898 0.3322934 0.23083483 -0.08801461 -0.33484474 -0.003915758 -0.85211325 -0.003311473
0.678383 0.6921385 -0.02858681 0.040314924 0.05059645 -0.5897127 -0.07963389 0.120509565
0.043988377 0.26567513 -0.62527424 -0.026495252 0.09380044 -0.13481139 0.2695765 -0.6521595
0.11841819 0.20349045 0.4095984 0.15300846 -0.39671656 -0.046190154 0.2701038 -0.109236866
-0.27779657 0.1401121 0.44481805 -0.045086395 -0.19232276 -0.17887998 0.35767412 0.36809903
0.62964445 0.42859596 0.03814488 0.44725075 0.34521776 -0.1655833 -0.231414 -0.07922391
-0.021286163 0.12873186 0.6287498 0.72552425 -0.07844212 0.49109423 0.056728404 -0.019963954
-0.55682045 -0.051691238 -0.38285685 0.06279973 0.23461348 -0.18793362 0.37870345 0.051308222
-0.1048365 0.6927092 -0.5776553 0.120990075 -0.2967714 0.022561165 0.3819133 -0.17764507
0.049418606 0.16508263 -0.27049404 0.56214255 0.34327617 0.08247877 -0.5146173 -0.19675143
0.06435304 0.19615534 0.327603 0.4497286 0.028646888 -0.27269775 0.22717063 -0.41527835
-0.63555986 -0.2548061 -0.025532741 0.052426644 0.46960407 0.4389785 -0.2992397 -0.20236397
-0.00632146 -0.44074062 -0.019454448 -0.09792228 0.10342546 0.5708931 0.44067705 0.043526303
-0.014510148 -0.935489 0.123027645 0.0020906948 0.11387364 -1.1020207 0.12029803 0.5085446
0.6976411 -0.008167655 0.26127583 -0.8567425 0.11278752 -0.08283427 -0.18125905 -1.1865739
-0.25414616 -0.043908253 -0.03985791 -0.01676124 0.4513404 0.13245775 0.052472986 -0.037221514
0.05262395 0.17558455 0.1189535 0.1953342 -0.13237555 0.10640847 0.34106818 0.26458645
0.27743945 -0.04053413 -0.1355529 0.111910746 0.09044102 0.016876185 0.106856935 0.09667248
-0.043092504 -0.4956264 -0.015574747 0.36147955 0.47819942 0.04570281 -0.012732324 -0.97123224
-0.12685944 -0.13586706 -0.11542997 -0.21722296 0.061303955 0.5948067 0.78439677 -0.2258552
0.033758014 -1.0153371 -0.19365622 -0.016199267 0.19116609 -0.018193608 -0.028346354 -1.0218248
0.031119354 0.07383435 0.4901827 0.32236892 -0.2531739 -0.7321883 0.01304612 0.15720503
0.06321117 -0.8975464 0.28181803 0.13307562 0.4320276 0.34983048 -0.2302495 -0.42120707
-0.03922322 0.1486946 -0.069281414 -0.049396068 -0.32830608 -0.36248508 0.39481336 0.522779
-0.07554621 -0.3424457 -0.05254839 -0.17356665 -0.5559935 0.3182145 -0.22114517 -0.3673277

layer1.bias f4 [32]
00000000: 0295 2ebf b37b 21bf 9b1d 04be 9617 133e
00000010: 76d9 26bf 4852 493e d84a 65bf 8209 00bf
00000020: f321 12bf ce20 10bf b199 3bbf 8fd2 ef3d
00000030: 1aef 583e f78f 62bf 09de 6bbf 0fb3 39bf
00000040: 5fe7 283e 8cf3 223e 7c03 be3d 931e fcbd
00000050: 6594 fdbe dbe1 f5bd f3d7 c53d 89a5 123e
00000060: 32c5 40be fa2a 8a3e 0919 36bf c738 af3d
00000070: 24df 8fbe 2870 f3bd 60ee 693e 70e0 31bf
-0.6819612 -0.63079375 -0.12901919 0.14364466 -0.6517557 0.19660294 -0.8956733 -0.5001451
-0.5708305 -0.56300056 -0.7328139 0.11710083 0.2118496 -0.8850092 -0.92135674 -0.72538847
0.16494511 0.15913218 0.09278008 -0.12310519 -0.4952728 -0.12005969 0.0966033 0.14320959
-0.18825224 0.26985914 -0.7113195 0.08555751 -0.2809993 -0.118866265 0.22844839 -0.6948309

layer2.weight f4 [64, 32]
00000000: 17dd a6be 69ac 90be e669 873d 0bbf 7fbe
00000010: 0e7b bc3c 652c 783e 942b ad3d cb01 8fbe
00000020: 33a1 ccbe c5a7 99be 3cbe 4cbe 48b6 443c
00000030: 75f0 dabe 9ea0 46be eaca 19bf b1f0 bebe
00000040: 3b4e e6bd 6563 d4be 64b3 d6be c749 7abe
00000050: d3a5 24be 35bb fdbd fea1 bcbd eb1f 2ebf
00000060: 9bba 4bbd 1d07 efbd 4c6c d1bd 15c0 c4bd
00000070: 4b1f 133d c627 b33d 06f1 d23d d3cf 02bf
00000080: bb81 14be 3a97 71bd d22c 00be 2bd3 7e3d
00000090: 6cb8 31be c9d0 9dbe 15c4 233e 16ff cebd
000000a0: fcfd 213c f4e3 d4be d3bd 0abe 93b3 24bf
000000b0: 42e8 edbe 515c 59be f0e1 aabe fd46 d6be
000000c0: 83b3 0fbf 7cb9 61be a270 1cbd b114 82bc
000000d0: 6911 c2bd 45af 35bc 32b8 99be 9b66 d8bd
000000e0: d243 bd3c 8cd2 37bb c274 1fbc 66a7 81be
000000f0: b301 343e 362a 1a3d 2c17 c4bd 0570 e9bd
00000100: 034b c7be ff4f a5be 83d9 c63c 2cd0 5a3e
00000110: 0921 77be 81a1 f1be d139 43be c5c3 5cbe
00000120: 4053 82be 157a 0dbf 4023 66bf ddb6 fc3e
00000130: 15db 813d 4739 f0be 070b 56bf d756 3bbe
00000140: 9a16 3dbe 3cc0 7f3e ddd3 683c f577 eabe
00000150: df82 a5be c60d 573e 6ac6 aabe 802d 4cbf
00000160: ab9b 963e dc4f 50be c58b d5be 8018 4d3f
00000170: 6df8 f33e ab86 b8be 3f14 5abe 15a2 3bbf
00000180: 0cc9 e5be aead 19be f675 6bbd 869c b2be
00000190: 7c5e b0be 60aa 29bd 209e 813d c8f2 973b
000001a0: 99bc 993d 7b8f f0bd bb03 083e a5c3 9e3d
000001b0: 3c14 153e 6cbb 97be 33b0 6d3d c676 a7be
000001c0: 34e2 9a3c fa33 233d 665d 573d f7c0 b4bd
000001d0: 2ca8 463e 3efa 9dbe 9cca ab3e 1c30 77be
000001e0: cfdb bf3c 6119 a23d 8704 2c3e 5c13 cb3d
000001f0: f7d0 6b3e 40f7 40be dfd7 4b3f 6b05 d9be
00000200: e7f0 293f a89b e63e 26a7 e53e 2224 9dbe
00000210: f1bd 483e 6ef1 60be ac2d 573f 694b c33e
00000220: 5daf 96bb 91b6 943e 5f58 863f c090 ac3e
00000230: bc08 a4be 65ad 573e 2fe7 e33d c0fd 093f
00000240: 053d ff3e db90 18bf 0c87 89bd 2711 503e
00000250: 64aa 053d b549 a03e 0e8b a7bd c385 7d3e
00000260: bd9d a03e 945f 4ebd be06 473f ce4d 23bd
00000270: bdf3 e6bd 721c ff3e 4868 9fbe 8002 3e3f
00000280: 64c6 95be f083 863c e089 1bbe c068 583d
00000290: 2b06 8b3e d7b4 8ebd a3ce c0be a647 54be
000002a0: 0cc7 b6be f5a7 2a3e 3b80 9abe f415 71be
000002b0: 25c6 26bf 7d0d 9f3e 0656 d7be aef3 833e
000002c0: eb9c c83c 1ffc 1dbf c064 cbbe b366 353e
000002d0: b6a3 69be 46f5 4c3e 8900 b2be e4c1 f3be
000002e0: da7a acbb e6f7 703e b844 c73d 2869 c93d
000002f0: f47f 953e 9a86 40bd a084 61be 1066 f2bd
00000300: fc4e f9be 7dad 74be 74ae 193e 51d8 fb3d
00000310: d296 bdbe 5ae5 02be f468 da3d 05f2 06bd
00000320: 25ae 03bf ecec 52be 7c9d e1be c914 89bd
00000330: f90e eabe f0c2 cb3e 3c40 01bf 82e7 5bbd
00000340: 98a7 f93d 5457 90bd 2b67 8c3d 2548 b1be
00000350: ae89 99be 0f67 83be 6ba7 70bf 114f b4be
00000360: 460c 8abe c370 95be 5791 82be 6f1a c3be
00000370: d040 a8bc 0071 d33d b834 75be 9d7f 7f3d
00000380: 9bcb 1cbe 6387 a73e 1910 0c3e 1776 43be
00000390: 01d1 3f3e 24a7 21be 82a1 e13b 63a3 97be
000003a0: 2a55 6e3c 879e d4bd 151b 6fbe f82d ebbd
000003b0: 072b 0ebf 16d8 b13c a3f8 0f3b 768d db3d
000003c0: b862 ddbd d377 17bf e155 5bbd bb11 2f3e
000003d0: 7de9 dfbe 6475 d23c 26dc e7be dd0b febe
000003e0: 3f8f 3bbe 0b9b 64be 75e5 883d c77c 07be
000003f0: ddac 2dbd daf2 c3bd e34d ffbe f296 db3d
-0.32590553 -0.2825654 0.066119954 -0.24975221 0.023007896 0.24235685 0.084555775 -0.27931055
-0.39966735 -0.3001081 -0.19994444 0.01200635 -0.4276158 -0.19397208 -0.6007525 -0.37293008
-0.1124539 -0.41482082 -0.4193374 -0.24442206 -0.16078882 -0.123892225 -0.09210585 -0.6801745
-0.049738508 -0.116712786 -0.10225734 -0.09606949 0.035918515 0.087478206 0.10299878 -0.51098365
-0.14502613 -0.05898211 -0.12517098 0.062213104 -0.17355508 -0.30823353 0.15992768 -0.101072475
0.009887215 -0.41580164 -0.13548975 -0.6433651 -0.4646626 -0.21226622 -0.33375502 -0.41851035
-0.5613329 -0.22043413 -0.038193353 -0.015879007 -0.09475977 -0.011089151 -0.30023342 -0.105664454
0.023103628 -0.002804908 -0.009732427 -0.25323027 0.17578773 0.03763791 -0.09574732 -0.11398319
-0.38924417 -0.32287595 0.02427364 0.21368474 -0.24133696 -0.4719353 -0.19065024 -0.21559055
-0.2545414 -0.5526441 -0.8989754 0.49358264 0.06340615 -0.469187 -0.83610576 -0.18294846
-0.18465653 0.24975675 0.014210668 -0.45794645 -0.3232641 0.21001348 -0.33354503 -0.7975693
0.2941564 -0.20342964 -0.41708198 0.8011551 0.4765047 -0.36040244 -0.21296786 -0.7329419
-0.4487995 -0.1500766 -0.057485543 -0.34885043 -0.34447086 -0.041422248 0.06328988 0.004637096
0.07506675 -0.11746117 0.13282673 0.0775216 0.145585 -0.2963518 0.058029365 -0.32707804
0.01890669 0.03984449 0.052579306 -0.088258676 0.1940009 -0.30854982 0.33553016 -0.24139446
0.023420243 0.07914997 0.16798602 0.09915802 0.23028933 -0.18844318 0.7962627 -0.42386946
0.6638321 0.4504063 0.44854087 -0.3069163 0.19603707 -0.21967098 0.84054065 0.3814347
-0.0045985417 0.29045537 1.0495719 0.33704185 -0.32037914 0.21062239 0.11128079 0.53902817
0.49851242 -0.5959603 -0.06715211 0.20319043 0.0326332 0.31306234 -0.081808195 0.24758057
0.31370345 -0.05038412 0.7774466 -0.039869122 -0.11276958 0.4982639 -0.31134248 0.74222565
-0.29252923 0.016420335 -0.15189314 0.052834272 0.27153143 -0.06968086 -0.3765765 -0.20730457
-0.35698736 0.16665633 -0.30175957 -0.2354353 -0.65146095 0.31064978 -0.42057818 0.2577185
0.024488887 -0.6171283 -0.39725304 0.17714958 -0.22816357 0.2001544 -0.34766033 -0.47608864
-0.0052636685 0.23532066 0.09729904 0.0983451 0.29199183 -0.047003366 -0.22023249 -0.11835873
-0.48693073 -0.23894306 0.15007955 0.122971185 -0.3702913 -0.12782803 0.106645495 -0.03294565
-0.514376 -0.20598191 -0.44065464 -0.066934176 -0.45714548 0.39797163 -0.5048864 -0.05368758
0.12190169 -0.070479065 0.06855615 -0.34625354 -0.29987854 -0.25664565 -0.9400546 -0.35216573
-0.2696249 -0.29187593 -0.2550151 -0.38106105 -0.020538718 0.103242874 -0.23945892 0.06237756
-0.15312044 0.3272048 0.13678016 -0.19088016 0.18732072 -0.15786415 0.0068857083 -0.29616842
0.014546672 -0.10381799 -0.23350175 -0.11483377 -0.55534405 0.021709483 0.0021968267 0.10720341
-0.10809845 -0.5916721 -0.053548697 0.17096607 -0.43732825 0.025690742 -0.45285147 -0.49618426
-0.18316363 -0.22324769 0.066843905 -0.13231193 -0.042401183 -0.09567805 -0.4986411 0.1072215

layer2.bias f4 [64]
00000000: 932e 50be 5b11 a1bd 9512 28be b6a8 1dbc
00000010: dc30 82bf fc7e a93d ad5f 9cbe 381d d9be
00000020: 9608 a1be 2c21 a53d 4742 c7bd 13b8 68be
00000030: 483e 0cbe f65c e7be 1009 5cbe 4f86 b3be
00000040: bae5 95bd 7a53 8d3d 3722 dfbe ecdc 42bd
00000050: ed1d 87bd 1432 de3c 5fa8 58be 1f46 373d
00000060: 0f0e 8abe 7d06 44be c30c 1cbf cc4f b2bd
00000070: c097 c83d 8ce5 2bbe 15d7 89be 99e7 f6bd
00000080: 5572 b8bd 99fd dbbd 7883 49be 3ad4 79be
00000090: ff77 02be 19fc bfbe f243 aabd 3f5c 8c3e
000000a0: 9e56 92be 7852 2e3e c2f0 1dbe ccd3 f2bd
000000b0: cd2c ddbf 1567 f93b 002a 9bbe ed85 a23d
000000c0: 3048 8cbf a0d8 39be 4079 14bf cf8e 67be
000000d0: 1e51 693d 1af3 24be 8bf9 b7be 8358 ccbd
000000e0: c08d 3d3e 7735 6d3d 2421 633e e198 acbe
000000f0: eec0 b0bd 8afd 43be 59ed a6bd 5722 b7bd
-0.20330267 -0.078646384 -0.16413338 -0.009622743 -1.0171161 0.082761735 -0.30541745 -0.42405105
-0.31451863 0.08062968 -0.09729438 -0.22726469 -0.13695633 -0.4518811 -0.21487832 -0.35063407
-0.073192075 0.069006875 -0.4358079 -0.04757397 -0.06597505 0.027123488 -0.21157978 0.044744607
-0.2696385 -0.191431 -0.6095697 -0.08706626 0.09794569 -0.16786784 -0.26921907 -0.120558925
-0.09006182 -0.10741729 -0.19679058 -0.24397364 -0.12741087 -0.37497023 -0.08313741 0.27414128
-0.2858171 0.17023647 -0.15423873 -0.11856803 -1.7279297 0.0076111653 -0.3030548 0.079357006
-1.095953 -0.18149042 -0.5799751 -0.22613071 0.056962125 -0.16108361 -0.35932574 -0.0997782
0.18511105 0.057912316 0.22180611 -0.33710387 -0.086305484 -0.19139686 -0.08150739 -0.08942097

layer3.weight f4 [128, 64]
00000000: 1707 0dbe a809 f63d 9810 513e d678 9fbf
00000010: 2fc7 8bbe 6aba 313e ffc2 69be da0d 25bd
00000020: c8c0 5fbe b907 c5bd 490a 35bf 6b37 cabc
00000030: 7e00 a0bd a602 1cbf af66 e03c 17b6 9dbe
00000040: da9f 333e 64f6 fc3e 71fd abbe 978b 7dbe
00000050: 55e4 d53c 055f 65be 8a9d 28be a3c7 92be
00000060: 4ee3 9dbd ea70 dabe 756e 3bbe 6fb5 933e
00000070: 56ac c0be 2d78 58bd b7d7 5bbe a52b 04bd
00000080: 254a 83bd 8c26 5cbf ca3b d63c a749 fabe
00000090: f2c0 43bf ba16 04be 0570 6f3e 84e1 3dbe
000000a0: 5772 f13d 447e 773e 1076 75bd 38c2 c73c
000000b0: 88c1 7dbe 7e87 0abe fdce bcbd afa8 12bd
000000c0: 08b8 cbbe 7e76 66bd ab92 04bf cbee 82bb
000000d0: d8cb e33b 42ac 553e 0e7f a63e 30a1 63be
000000e0: 2bb6 923d fde0 03bf cbfd 70bd 3501 1e3d
000000f0: 6584 dc3d 4d3e 663d 621c 29be 6d64 9fbe
00000100: 4902 523d b32c a5bd 4497 8cbe 62d9 f1bd
00000110: 0842 27be 2bab 66be 96ce 163c f757 9bbb
00000120: 90e5 fcbd a454 883d 3b38 bbbe b632 84bc
00000130: 809c 323b 7109 813d f8c2 b23c fe0a 3b3d
00000140: bac4 9ebd 6548 acbe 5170 89bd bed3 f7bc
00000150: 18b6 633c 8413 0bbd a28a 96be 518e b1bc
00000160: eb12 0cbc f95e 8dbd 2c96 063d 1da2 d6bd
00000170: 0fe6 0dbd be85 bcbd 2149 f33d 99a8 43bd
00000180: 004c 1cbe 2d26 1cbe 40fa 94bd f533 85bd
00000190: ac84 32be 583e 80bd 4843 773d 842e bcbd
000001a0: 7c96 9a3d d178 7abd a69d 643d 480a 31bc
000001b0: c1a2 1dbd 9d59 c8bd fea6 ad3d 451b 2dbd
000001c0: ea55 7b3d a153 8e3d 2cc2 3c3d 1acc 783d
000001d0: 929b b1be d41c fbbd 6fdf 40bc a79b e7bd
000001e0: ffe3 83be 3ac0 d1bd 2b0d 163d c689 4a3c
000001f0: 39b4 d9bd 16dd 97bd 7ac2 79bd 347a 50be
00000200: d3fa 93bd 8ff0 863c 466d 0b3c b4f3 61bd
00000210: 2ca9 3ebe c681 92bd 3d14 f4bd 5e2e 04ba
00000220: 3c8e f6bd 7aa9 983d 3825 88bd 6ef9 81be
00000230: f44d dabd 9a30 0d3d 256b f73d 4084 56be
00000240: 4470 c1bc 7052 a4bd 9a3a a23d 5a62 503d
00000250: 2c95 0bbd b9fd 0e3e fdbb 04be 4c47 27be
00000260: ef48 8c3d 38b7 3abd ab8a 2dbe f106 72bd
00000270: 2447 27bb 44f8 86bc 6fc6 b9bd e865 2d3d
00000280: 4033 653d 2570 e4bd a319 9cbd 81e0 0cbe
00000290: 2717 0abe d455 b5bb 0bf5 173d 2af7 29be
000002a0: bfe3 52bd e5d3 b4bd 8662 dd3d a4bd 3c3d
000002b0: f058 cfbc 4663 abbd 0dd3 50be 20fd 03be
000002c0: 9b14 02be fbd7 01be 5b5a efbc 3e19 bc3d
000002d0: 1486 4d3d 13d1 de3c c035 91bb 32af 05be
000002e0: d022 3dbd 56e8 8fbd 0138 f4bd 34f9 f8bd
000002f0: 7c40 36be f0d7 cbbc 2117 b4bc 8bf1 6abd
00000300: 067c 73bd 78f5 1dbd c33a 02be 5ff2 82bc
00000310: c900 c9bd 1e32 8a3b 6021 3ebc 4b0c 963d
00000320: 3061 e43c 670c 9bbd 767f adbd ffaa 0bbe
00000330: 7a3c 32bd 8da8 163d 44fe dbbc a7c0 9f3c
00000340: ceaf 01be 3e20 0cbe b2c4 65bd 02e9 27be
00000350: 6106 6a3c 5e8c ddbd fe04 d8bd e776 63bd
00000360: e4ea a73c 08ab 15bd 71bd 2dbd a9fb a3bd
00000370: 3c40 18be 2d75 473d b61b 1abe ce86 15be
00000380: 5b5d 8ebd c8cf 1cbe eb4a bebd b910 0fbe
00000390: 6857 69bd 1cfb acbd e890 dabc e7f1 82bb
000003a0: 0542 be3d 5726 06bd 18a4 2fbd 6fbe a2bc
000003b0: 6e7f 3fbd 2289 eb3c 5796 83bd 5231 9dbd
000003c0: 5b0a 98bd b6e8 cd3d 5a46 b7bc 22cc c4bd
000003d0: d231 ebbd eb98 34bd e328 74bd c912 8a3c
000003e0: bf77 08be e3b4 1fbe 3eb0 54bd dd58 d83c
000003f0: 91bf 8d3c e5e2 0c3e fba7 a63c 4622 26bd
-0.13772236 0.120135605 0.20416486 -1.2458751 -0.27300403 0.17356268 -0.22828291 -0.040296413
-0.21850884 -0.096206136 -0.7071882 -0.024684628 -0.07812594 -0.6094154 0.027392713 -0.30802986
0.17541447 0.4940673 -0.33591798 -0.2476028 0.026109854 -0.22399528 -0.16466346 -0.28667936
-0.077093706 -0.42664272 -0.18303855 0.2884936 -0.37631482 -0.052848984 -0.21469007 -0.032268185
-0.06410626 -0.8599632 0.026151557 -0.48884317 -0.76466286 -0.12899294 0.23382576 -0.18543059
0.11789387 0.2416926 -0.059927046 0.024384603 -0.24780858 -0.13528249 -0.092191674 -0.0358054
-0.39788842 -0.056265347 -0.517863 -0.0039957515 0.0069517903 0.20866492 0.3251881 -0.22229457
0.07163652 -0.5151518 -0.058835786 0.03857537 0.1076744 0.05621176 -0.16514733 -0.31131306
0.05127171 -0.08065166 -0.27459157 -0.118090406 -0.16333783 -0.22526233 0.009204527 -0.004740711
-0.12348473 0.06656769 -0.36566338 -0.016137462 0.0027253926 0.06300629 0.021821484 0.04566478
-0.07752366 -0.33648983 -0.06710876 -0.030252334 0.013898395 -0.03395416 -0.29402643 -0.021674307
-0.008549432 -0.0690288 0.03285806 -0.104801394 -0.03464323 -0.09205197 0.118791826 -0.04776821
-0.15263367 -0.15248938 -0.07274294 -0.06504051 -0.17433423 -0.06261891 0.0603669 -0.0918856
0.07548234 -0.061150376 0.055814408 -0.010805674 -0.038485292 -0.097827174 0.08479117 -0.042262334
0.06136123 0.06949545 0.046083614 0.06074152 -0.34689003 -0.12261358 -0.011772021 -0.11308985
-0.25759885 -0.102417424 0.03663365 0.012361949 -0.10630078 -0.07415216 -0.060976483 -0.20359117
-0.07225575 0.01647213 0.00850994 -0.055164054 -0.18619221 -0.071536586 -0.11917923 -0.00050423096
-0.12038848 0.074542 -0.06647724 -0.25385612 -0.106594 0.03447018 0.12080983 -0.20948887
-0.023613103 -0.08023536 0.079213336 0.050875045 -0.03407781 0.13963975 -0.12962337 -0.16335791
0.068498485 -0.045584887 -0.16947429 -0.05908865 -0.002552458 -0.016475804 -0.09071051 0.042333513
0.05595708 -0.11154202 -0.07622077 -0.13757516 -0.13485394 -0.005533913 0.037098926 -0.16598192
-0.051486727 -0.08829478 0.108098075 0.046079293 -0.025310963 -0.08368544 -0.2039301 -0.12889528
-0.12703173 -0.12680046 -0.02921789 0.09184502 0.050176695 0.027199304 -0.0044314563 -0.13055113
-0.046175778 -0.070267364 -0.119247444 -0.12156907 -0.17798036 -0.02488324 -0.021983685 -0.05735926
-0.05944445 -0.038564175 -0.12717728 -0.015984712 -0.09814603 0.0042174 -0.011604637 0.073265634
0.027878374 -0.07570725 -0.08471577 -0.13639449 -0.043514706 0.036781836 -0.026854642 0.019501043
-0.1266472 -0.13684174 -0.056095786 -0.16397479 0.014283747 -0.108177885 -0.10547827 -0.055533316
0.020497747 -0.03654006 -0.042416994 -0.08006985 -0.14868253 0.048695732 -0.15049633 -0.14602205
-0.069514 -0.15313637 -0.09291633 -0.13971223 -0.056968123 -0.08446333 -0.026680425 -0.003996122
0.09289936 -0.032751407 -0.0428811 -0.019866196 -0.046752386 0.028751913 -0.064251594 -0.07675423
-0.0742385 0.10054152 -0.022372413 -0.09609248 -0.11484112 -0.044091146 -0.059609305 0.01685466
-0.1332693 -0.15596347 -0.05192589 0.02640956 0.01730326 0.13758428 0.020343771 -0.04056003

layer3.bias f4 [128]
00000000: ec01 7abd 0eb6 51bd da4f 1fbe fe3e 60bd
00000010: de6d 88bd 3fbd c1bd 6c41 c9bd 78b1 0cbe
00000020: e420 a7bd d1f4 60bc abdb c7bd 39e8 82be
00000030: e60e cdbd 8f2f 09be 12b6 ccbd 9084 f9bd
00000040: 48b9 1bbd ce85 02be fd73 3bbe 40fb e23d
00000050: 9ce0 1abe a59e cebd b545 81be 1717 0ebe
00000060: 2e7f 0ebd 34bc 03be a0d3 95be a34d 073e
00000070: 12ad 18be cea5 57be 2d2b 4abe 8162 3c3e
00000080: b626 c0bd f586 c7bc 1d68 65be 2bb7 68be
00000090: b170 49be 1f2a 0e3e a1a2 6cbe 9a3b 32be
000000a0: 6fce 1dbe 1a0c 42be c42f c4bd bfcb cebd
000000b0: 98f8 083e f243 18be 38c8 54be cbb0 25be
000000c0: 9e7c 203c 9b51 39be f07d 71bd 03a2 02be
000000d0: 61ba 03be 0a0e 15be 087d 54bb 3547 42be
000000e0: 1a6f 15be 9db4 a8bd db1a 32be dd99 18be
000000f0: ac4c 0cbe 0bc1 1ebd bed5 99bd 830b 46be
00000100: 02dd 6e3b f98e 4dbe e564 bebd 9b53 9ebd
00000110: 87b1 90bd 5d02 b7bd 467a 0dbe ddc6 35be
00000120: 9dac f7bd 7639 10be 923f 1dbe 6300 cebd
00000130: 36ae 20be cfe4 2ebe 6010 f7bd 25c5 69be
00000140: 1aec 563e 1787 dfbd 78f0 54be d1c2 703e
00000150: b8d0 66bd 3c2d 24be 246f 0dbe 8e25 31be
00000160: 9cf1 a93b c8cd 933c 5b9b dfbd 4696 b2bd
00000170: af0b 82bd a862 acbc 5302 59be 5699 adbd
00000180: a01c 6bbe ec25 19be 713c 4ebe 373a 13be
00000190: e671 10be 647a 6cbe 6af7 e1bd 6b47 3dbe
000001a0: 8afc c2bd b3d6 02be 16db 23be 3703 85bc
000001b0: 7b9a e5bd 7005 edbc 5689 33bd fc03 0ebe
000001c0: dfb0 edbd 7903 a1bd 3d59 00be 4e7e c7bd
000001d0: e7a6 d0bd 8cc0 44be da46 05be f387 59be
000001e0: 5527 82be f9ac 06be cb53 f3bd e875 2abe
000001f0: f250 2dbe f4d9 4fbe e7ea dabd 9f3d 0abe
-0.06103699 -0.05119901 -0.15557805 -0.054747574 -0.066615805 -0.09459924 -0.09826931 -0.13739574
-0.0816057 -0.013730244 -0.09758695 -0.25567797 -0.10012607 -0.13397048 -0.09995665 -0.121834874
-0.038018495 -0.12746355 -0.18305965 0.110830784 -0.15124744 -0.10088853 -0.25248495 -0.13875996
-0.034789257 -0.12864763 -0.2926302 0.1321321 -0.14909771 -0.21059343 -0.19743033 0.18396951
-0.093823835 -0.024356345 -0.22402997 -0.22726123 -0.19671895 0.13883255 -0.23108913 -0.17405549
-0.1541078 -0.18949929 -0.09579423 -0.10097455 0.13376081 -0.14869669 -0.20779502 -0.16180722
0.009795336 -0.18097536 -0.058957994 -0.12757115 -0.12864067 -0.14556137 -0.0032423157 -0.18972476
-0.14593163 -0.08237574 -0.17393057 -0.14902444 -0.13701123 -0.03875832 -0.07511471 -0.19340329
0.003644765 -0.20074071 -0.09296588 -0.0773079 -0.07065111 -0.08935998 -0.13816175 -0.17751642
-0.1209347 -0.1408442 -0.15356281 -0.100586675 -0.15691456 -0.17079471 -0.1206367 -0.22829111
0.20988503 -0.10914438 -0.20794857 0.23511817 -0.056351393 -0.1603288 -0.13811928 -0.17299482
0.005186273 0.01804246 -0.109183036 -0.08720069 -0.06349885 -0.021043137 -0.21192293 -0.08476512
-0.22960138 -0.14955872 -0.20140244 -0.14377676 -0.14105949 -0.23093563 -0.110335186 -0.18484275
-0.09520824 -0.12777214 -0.16001543 -0.016236885 -0.112111054 -0.028933257 -0.043832146 -0.13868707
-0.11606001 -0.078619905 -0.12534042 -0.097408876 -0.10188084 -0.19214076 -0.13015309 -0.21243267
-0.25420633 -0.13151921 -0.118812166 -0.1664654 -0.1692541 -0.20297986 -0.10689335 -0.13500069

layer4.weight f4 [22, 128]
00000000: ab97 5abe 5f3a 3e3d 85c2 c1bd ef64 c33d
00000010: 03e3 8c3d 2b75 f53c 98ca 86bb c34e 8e3c
00000020: e98b 8abd d557 dc3d 301a 79bc 7814 ad3e
00000030: 8d6b fb3d fe9c b5bd 19bc 9fbc 0670 8dbd
00000040: 6713 65bc e4b2 85bd 97ce 1bbd 307a 8ebc
00000050: 6c52 50be 46e6 a53d 0332 163e e201 97bd
00000060: e12f da3b 1851 53bc 4426 2abe 9522 8d3d
00000070: 0e70 813d c6fe f23b 873d 73bd 147c 1fbe
00000080: a628 323e 755b 53bd 2bdf bbbd 9ace ce3d
00000090: 32c2 22be 0e0e 563a e834 543c 0685 95bd
000000a0: a225 6b3d d77a 2bbd 8034 cbbd f811 0f3b
000000b0: f2b8 623c 5144 913d 4824 7cbd a12f e23b
000000c0: 75cf 3dbb b2d2 9b3c a94b 39be 4b94 9b3d
000000d0: 95e9 d5be fbc8 cbbc 1a36 9ebc a619 03be
000000e0: 8389 013d f138 ca3d d030 cfbd 2aef 573b
000000f0: 004c 28bd aad0 b03d 96f5 813d 2ac4 6b3c
00000100: a2a1 29bd 701f 423c 0ea7 6fbc 89fe c1bd
00000110: 7b3b 3ebd c66c 38bd 79db 7e3d 1caf eb3c
00000120: a2c9 583c 1d49 b93c 0f5d 15bd aa22 efbd
00000130: 1637 43bd 8721 eb3c e9f6 733d d22a dd3d
00000140: 6096 f13c 11c3 843d 9748 6a3d 979d 8a3b
00000150: 7d8a 9dbd 2085 09be c2a0 2a3e eb32 c8bd
00000160: 56af 26bd 014c 4c3d 04a7 3b3c 73d2 0e3d
00000170: 5065 103e d07e 1f3d 9a45 0ebd 67fa f9bc
00000180: b2a8 e93c 5221 3c3d 8652 b73c 4bc5 26bd
00000190: c41d f2bc c09f 153d 72e1 35bc a5fc 663d
000001a0: d933 47be 5b76 82bd ec47 263d 806c b23d
000001b0: 2c53 fc3b 405d 31bc 06c5 e53c c71a c5bd
000001c0: be1f 6abc a54b 1c3d 417a a4bd d5a9 00bc
000001d0: 33bd 3a3e 6dcc 5e3d 449d e4bb f173 8f3d
000001e0: b319 503d f948 48bd 2589 5cbc 60fa 4d3d
000001f0: fecf fbbc fb29 1a3e 0e06 363d 88de 07be
00000200: 824a 4e3e 3871 96bd 6eac 2abd 1dbc 09bd
00000210: 91d8 903d 26a4 013d 5142 babc 7a1c 17be
00000220: d4e1 26bd e7b6 0d3d dab4 52bd 892c 993d
00000230: 16a0 fe3d 2668 3c3e 2324 a23d 3efd 5b3d
00000240: 838e 173d 52ac e83d 8783 ba3d 2f72 4f3c
00000250: e6db 1bbe 9e5a be3d b349 f738 7811 153e
00000260: 136f 943d 14f5 473c e145 2f3e fa70 3fbe
00000270: 610e 1abe 9cc1 693b 2aa3 25bd d25b 2f3c
00000280: a147 6f3d ec88 a33c f71e 00be 2190 0cbe
00000290: 333d 1d3d 9a4f 87bd dfd7 4abd eeda 143a
000002a0: 8415 ec3d c9d6 9c3d eda7 83bd 94d4 11be
000002b0: 19d1 98bd 9769 6f3e aa09 803d d765 743d
000002c0: 1538 a5bc 2c4f 053d 3a61 e2bd 596f fb3d
000002d0: 0bfc 4c3e 349b 93bc 7821 c63d 8962 023e
000002e0: a3f7 933d 2ea7 ab3d 6eef 2e3d dc08 263d
000002f0: a519 ed3d 228f 63bd 6c74 4d3d 698c 7bbc
00000300: da3e c9bc 5552 eb3c ceef 373c 0550 c6be
00000310: f0c4 013e 1a0f 523d 9dd7 93bd e6e8 0c3d
00000320: b58a 50be 39db cdbd 7bd8 1abb 20b0 3ebc
00000330: 69cd e33c ccd2 11bd fc11 a53c 221c 26bc
00000340: 2844 72bd ac07 41bd c6dc a63d 8b66 7abd
00000350: 7ec4 73bd 4a7a d33d f9fb acbe e19c 8c3c
00000360: 79cc f93d 1e1a a63d e339 8f3d b5ef 6e3d
00000370: c418 b7bd 3b18 44bd c3a8 9d3d 90b9 f8be
00000380: 8588 5dbd fd82 1b3e 518d e1bd 9d4a f6bb
00000390: 3b5a c53d a5d0 e2bc 2ddc 1b3d 96e1 bb3d
000003a0: 01e9 f53d a675 9dbd 3706 8fbd 868f cfbd
000003b0: 559c 593c 82f1 a53d 897c d53b 4dc3 00b8
000003c0: c282 f5bb 2237 c2bc 2a3f 29bd 497a 3fbd
000003d0: 22f9 fabd 2c50 2fbe 86c0 bf3d 8e25 133e
000003e0: 6d00 b73d 611f b8bd 7128 2c3e 41f3 0abd
000003f0: 8d8d e1bc 92c2 23bc 70e3 8bbd cacf 183d
-0.21346919 0.046442386 -0.0946093 0.09540736 0.068792365 0.029963097 -0.0041135065 0.01737154
-0.06764967 0.1075894 -0.0152039975 0.3380468 0.12276373 -0.088678345 -0.019498872 -0.069061324
-0.013981677 -0.06528261 -0.038038816 -0.017392248 -0.20343941 0.08100562 0.14667515 -0.07373406
0.0066585396 -0.012897752 -0.1661616 0.068913616 0.06320201 0.0074156253 -0.05938485 -0.15574676
0.17398319 -0.051600892 -0.09173425 0.10098 -0.15894392 0.00081655465 0.012952067 -0.07300763
0.057408936 -0.041865196 -0.09922123 0.0021830779 0.01383804 0.070931084 -0.061558038 0.0069026505
-0.0028962765 0.019021366 -0.18095268 0.07596644 -0.4177977 -0.024876108 -0.019312907 -0.12802753
0.031625282 0.09874142 -0.10116732 0.003294895 -0.041088104 0.086335495 0.0634567 0.014390031
-0.04141391 0.011848316 -0.014627231 -0.09472377 -0.046443444 -0.04502561 0.062221024 0.028770022
0.013231667 0.022617871 -0.0364657 -0.116765335 -0.047659956 0.02870251 0.059561644 0.10799183
0.02949065 0.064825185 0.057198133 0.004230212 -0.0769243 -0.1342969 0.16662887 -0.09775337
-0.040694557 0.04987717 0.011453394 0.03486867 0.14101148 0.038939297 -0.034734346 -0.030514909
0.028522823 0.045930214 0.022378217 -0.040715497 -0.029555209 0.036529303 -0.011101114 0.056393284
-0.19453372 -0.06370231 0.040595934 0.08712101 0.0077003445 -0.010825455 0.02804805 -0.09624248
-0.0142897945 0.038158078 -0.080311306 -0.007852991 0.18236236 0.054394174 -0.0069767553 0.07004536
0.05080576 -0.048897717 -0.013460432 0.050287604 -0.030738827 0.15055077 0.044439368 -0.13268483
0.2014561 -0.073458135 -0.041668348 -0.033626664 0.07072557 0.031650685 -0.0227367 -0.14756957
-0.04074271 0.034598257 -0.051442005 0.074791975 0.12432878 0.18399104 0.07917049 0.053708307
0.037001144 0.113609925 0.09107118 0.012661501 -0.15220603 0.092946276 0.00011791605 0.14557445
0.07247748 0.012204427 0.171165 -0.18695441 -0.15044548 0.0035668379 -0.04043881 0.010703044
0.05841792 0.01996275 -0.12511812 -0.13726856 0.038388442 -0.0660698 -0.049522277 0.0005678375
0.11527541 0.076581545 -0.06428514 -0.14241248 -0.07461757 0.23380123 0.06251843 0.059667435
-0.020168344 0.032546207 -0.11053701 0.12277097 0.20018022 -0.018018343 0.096743524 0.127329
0.07224967 0.08381496 0.042708807 0.040535793 0.11577157 -0.055556424 0.050159857 -0.015353301
-0.024566103 0.028725782 0.0112266075 -0.38732925 0.12672782 0.051283933 -0.07218859 0.034401797
-0.20365413 -0.10051579 -0.0023627568 -0.011638671 0.027807908 -0.035601422 0.020150177 -0.010138543
-0.05914703 -0.047126457 0.08147578 -0.06113295 -0.05951356 0.10326059 -0.3378599 0.01716465
0.12197203 0.0811045 0.06993463 0.05833407 -0.089402705 -0.04787467 0.07698204 -0.48579073
-0.054085273 0.15186687 -0.11013282 -0.007516219 0.09636351 -0.02768738 0.038051773 0.091738865
0.120073326 -0.07688455 -0.06983607 -0.10134797 0.013281901 0.081027046 0.00651509 -3.0699466e-05
-0.007492394 -0.02370793 -0.041320004 -0.04674748 -0.122545496 -0.17120427 0.09362893 0.14369795
0.08935628 -0.0899036 0.16812302 -0.03392339 -0.027533317 -0.00999512 -0.0683049 0.037307538

layer4.bias f4 [22]
00000000: 28fe 093d 4aa3 683c e0ea a93d bbdf b83c
00000010: 252c c83c 741a 413d c8d6 493d e4d8 ca3d
00000020: 8524 913c bcd8 4b3d 5d68 053d e034 243d
00000030: 2699 283e 85c3 2a3d 01f8 333d 5f06 c03d
00000040: a8e2 c93d 15cd 413e 7d0d d13c 95c9 c23d
00000050: e71b 673d 57aa 9e3d
0.033689648 0.014199087 0.08296752 0.02256762 0.024435112 0.04714437 0.049277097 0.0990465
0.01771761 0.04976724 0.03257023 0.040089488 0.16464671 0.04169037 0.043937687 0.09376215
0.098576844 0.18925889 0.025519127 0.09511105 0.056423094 0.077473335

exp_avg f4 [32, 22]
00000000: 19d5 602d dbbd 54ae c6ee f0ae 94dc b7ae
00000010: d8d6 e5ad 059b ffae e892 ccae 3010 0daf
00000020: 482e ecae 1e92 adae edc2 0c2e 2759 0b2e
00000030: c6ee 70af 94dc 37af d8d6 65ae 059b 7faf
00000040: e892 4caf 3010 8daf 482e 6caf 1e92 2daf
00000050: edc2 8c2e 2759 8b2e b36f 169d 228c 5a19
00000060: 08aa 9d19 b257 c197 3696 4397 ac85 1918
00000070: ad2f e798 be66 db96 6bde a618 c5df f417
00000080: 49a5 dd97 d685 3a99 08aa 1d1a b257 4198
00000090: 3696 c397 ac85 9918 ad2f 6799 be66 5b97
000000a0: 6bde 2619 c5df 7418 49a5 5d98 d685 ba99
000000b0: 00f1 8135 297d 13b6 4e55 c436 c6ca 2c37
000000c0: eaa6 dfb4 9ceb b136 38fa 7b36 8207 99b6
000000d0: b6ad 4f37 e47d 2237 0880 0c37 726a 7436
000000e0: 4e55 4437 c6ca ac37 eaa6 5fb5 9ceb 3137
000000f0: 38fa fb36 8207 19b7 b6ad cf37 e47d a237
00000100: 0880 8c37 726a f436 5cb1 02b8 2541 5936
00000110: 9bd1 79b8 ce9f 4bb8 322a 58b8 fb39 b6b8
00000120: 5401 9cb8 40df 96b8 48af 82b8 2dd5 43b8
00000130: 5bbd a1b8 7cd4 4cb8 9bd1 f9b8 ce9f cbb8
00000140: 322a d8b8 fb39 36b9 5401 1cb9 40df 16b9
00000150: 48af 02b9 2dd5 c3b8 5bbd 21b9 7cd4 ccb8
00000160: 26ad 97b5 a3c4 3133 5e12 82b5 0ce8 80b5
00000170: 4d8e eeb3 cf51 9ab5 f01d 0db5 540b a3b5
00000180: 6ed1 91b5 19b5 93b5 5497 9db5 50ff 86b5
00000190: 5e12 02b6 0ce8 00b6 4d8e 6eb4 cf51 1ab6
000001a0: f01d 8db5 540b 23b6 6ed1 11b6 19b5 13b6
000001b0: 5497 1db6 50ff 06b6 c0da 0738 4432 6d38
000001c0: 9d3f 6637 d9bd 9538 46bd 5038 c07d 1038
000001d0: 29a9 8738 b6a1 3538 cb43 2838 bc53 6238
000001e0: 1424 7c38 37a0 1938 9d3f e637 d9bd 1539
000001f0: 46bd d038 c07d 9038 29a9 0739 b6a1 b538
00000200: cb43 a838 bc53 e238 1424 fc38 37a0 9938
00000210: 7a83 401e d631 f29b 34f9 ca1a e104 d49a
00000220: a105 2a99 a817 e21a c2a4 4499 d791 1e1a
00000230: f50a 031a 3d1c 8999 ae57 2e98 2dc4 0a9b
00000240: 34f9 4a1b e104 549b a105 aa99 a817 621b
00000250: c2a4 c499 d791 9e1a f50a 831a 3d1c 099a
00000260: ae57 ae98 2dc4 8a9b 7695 b8b6 c21b 9436
00000270: be46 d035 8881 0035 d39f dd35 03ea 4935
00000280: 4301 8535 153b 2035 761a b7b5 2e18 b135
00000290: fdef 2e35 bb5b 7c36 be46 5036 8881 8035
000002a0: d39f 5d36 03ea c935 4301 0536 153b a035
000002b0: 761a 37b6 2e18 3136 fdef ae35 bb5b fc36
000002c0: 7bdf 141e 9046 589a 8806 9c9a 3455 bf18
000002d0: ee8d 4118 35ed 1799 88c8 e419 ef1e d917
000002e0: 6c22 a599 4854 f298 9757 db18 8795 381a
000002f0: 8806 1c9b 3455 3f19 ee8d c118 35ed 9799
00000300: 88c8 641a ef1e 5918 6c22 259a 4854 7299
00000310: 9757 5b19 8795 b81a 2a54 1e34 4969 a8b4
00000320: 452b eb33 3e3b 5a33 59a1 6b33 2691 d0b1
00000330: 7227 0131 1837 8934 0907 a934 ae77 ce34
00000340: cc6b 3734 cac9 7a34 452b 6b34 3e3b da33
00000350: 59a1 eb33 2691 50b2 7227 8131 1837 0935
00000360: 0907 2935 ae77 4e35 cc6b b734 cac9 fa34
00000370: a0c5 9e1d ecbe 479b 0266 271a e2db 2e9a
00000380: fb38 8c98 2f77 3a1a a12d a298 07c7 8219
00000390: 7e26 5819 a028 e298 22c9 8f97 dbe3 649a
000003a0: 0266 a71a e2db ae9a fb38 0c99 2f77 ba1a
000003b0: a12d 2299 07c7 021a 7e26 d819 a028 6299
000003c0: 22c9 0f98 dbe3 e49a 727d 0bb7 8431 c0b7
000003d0: ef2d 0cb7 db1e 8737 b210 3a36 3055 86b7
000003e0: 8076 a0b4 3c75 2cb7 e715 e2b6 5a02 2537
000003f0: 9ce2 40b5 57d9 83b5 ef2d 8cb7 db1e 0738
1.2780243e-11 -4.8371845e-11 -1.0956351e-10 -8.361059e-11 -2.6129696e-11 -1.16235944e-10 -9.302942e-11 -1.2829626e-10
-1.0740259e-10 -7.893085e-11 3.2005443e-11 3.1684124e-11 -2.1912702e-10 -1.6722118e-10 -5.225939e-11 -2.3247189e-10
-1.8605884e-10 -2.5659253e-10 -2.1480517e-10 -1.578617e-10 6.401089e-11 6.336825e-11 -1.9910082e-21 1.12986354e-23
1.6302095e-23 -1.249447e-24 -6.319749e-25 1.9842274e-24 -5.976024e-24 -3.5446198e-25 4.313458e-24 1.5824618e-24
-1.4323514e-24 -9.6430026e-24 3.260419e-23 -2.498894e-24 -1.2639498e-24 3.9684547e-24 -1.1952048e-23 -7.0892395e-25
8.626916e-24 3.1649236e-24 -2.8647028e-24 -1.9286005e-23 9.681389e-07 -2.197756e-06 5.851186e-06 1.0299211e-05
-4.1658433e-07 5.3024396e-06 3.754756e-06 -4.5606293e-06 1.2378607e-05 9.685264e-06 8.37446e-06 3.6420793e-06
1.1702372e-05 2.0598422e-05 -8.3316866e-07 1.0604879e-05 7.509512e-06 -9.121259e-06 2.4757213e-05 1.9370527e-05
1.674892e-05 7.2841585e-06 -3.1159594e-05 3.237344e-06 -5.9561437e-05 -4.85478e-05 -5.153771e-05 -8.689236e-05
-7.438907e-05 -7.194141e-05 -6.231532e-05 -4.669016e-05 -7.7123485e-05 -4.883528e-05 -0.00011912287 -9.70956e-05
-0.00010307542 -0.00017378472 -0.00014877814 -0.00014388282 -0.00012463063 -9.338032e-05 -0.00015424697 -9.767056e-05
-1.130077e-06 4.1389864e-08 -9.6911e-07 -9.604278e-07 -1.1108623e-07 -1.1497704e-06 -5.257016e-07 -1.2147743e-06
-1.0864294e-06 -1.100506e-06 -1.1741454e-06 -1.0058084e-06 -1.93822e-06 -1.9208555e-06 -2.2217246e-07 -2.2995407e-06
-1.0514032e-06 -2.4295487e-06 -2.1728588e-06 -2.201012e-06 -2.3482908e-06 -2.0116167e-06 3.2390235e-05 5.6552017e-05
1.3723879e-05 7.1402355e-05 4.976734e-05 3.444939e-05 6.46881e-05 4.3304368e-05 4.011746e-05 5.3960583e-05
6.0115082e-05 3.6627254e-05 2.7447759e-05 0.00014280471 9.953468e-05 6.889878e-05 0.0001293762 8.6608736e-05
8.023492e-05 0.000107921165 0.000120230165 7.325451e-05 1.0191584e-20 -4.0067747e-22 8.394785e-23 -8.768903e-23
-8.789931e-24 9.350963e-23 -1.0166235e-23 3.2791443e-23 2.7099016e-23 -1.4176873e-23 -2.253324e-24 -1.147848e-22
1.678957e-22 -1.7537805e-22 -1.7579862e-23 1.8701926e-22 -2.033247e-23 6.5582885e-23 5.419803e-23 -2.8353747e-23
-4.506648e-24 -2.295696e-22 -5.501027e-06 4.413975e-06 1.5517796e-06 4.787221e-07 1.6512298e-06 7.5218867e-07
9.909639e-07 5.969062e-07 -1.3642264e-06 1.3194565e-06 6.516928e-07 3.760432e-06 3.1035593e-06 9.574442e-07
3.3024596e-06 1.5043773e-06 1.9819279e-06 1.1938124e-06 -2.7284527e-06 2.638913e-06 1.3033856e-06 7.520864e-06
7.8812694e-21 -4.4724753e-23 -6.453064e-23 4.9458376e-24 2.5016322e-24 -7.854421e-24 2.3655641e-23 1.4031105e-24
-1.7074503e-23 -6.2640636e-24 5.6698616e-24 3.8171095e-23 -1.2906128e-22 9.891675e-24 5.0032643e-24 -1.5708841e-23
4.7311283e-23 2.806221e-24 -3.4149006e-23 -1.2528127e-23 1.1339723e-23 7.634219e-23 1.4745515e-07 -3.1369044e-07
1.0950911e-07 5.081096e-08 5.4861946e-08 -6.070098e-09 1.8794393e-09 2.5558325e-07 3.1483822e-07 3.8457569e-07
1.708242e-07 2.3356475e-07 2.1901822e-07 1.0162192e-07 1.0972389e-07 -1.2140196e-08 3.7588785e-09 5.111665e-07
6.2967644e-07 7.6915137e-07 3.416484e-07 4.671295e-07 4.202659e-21 -1.6522584e-22 3.4617192e-23 -3.6159977e-23
-3.6246687e-24 3.8560174e-23 -4.192209e-24 1.3522071e-23 1.1174712e-23 -5.846065e-24 -9.291931e-25 -4.7333355e-23
6.9234384e-23 -7.231995e-23 -7.2493375e-24 7.712035e-23 -8.384418e-24 2.7044143e-23 2.2349423e-23 -1.169213e-23
-1.8583863e-24 -9.466671e-23 -8.314253e-06 -2.2911241e-05 -8.355345e-06 1.6107622e-05 2.7725878e-06 -1.6013713e-05
-2.9888542e-07 -1.0279295e-05 -6.7378746e-06 9.835314e-06 -7.1855334e-07 -9.823515e-07 -1.671069e-05 3.2215245e-05

exp_avg_sq f4 [32, 22]
00000000: 1ed2 442f 574e 4330 9b29 ef2e 292c 0a2f
00000010: a35c fc2d 5d56 462f a968 4b2f ad68 ac2f
00000020: 6a5f 8b2f 8749 332f fc0d 052f d280 f62d
00000030: 9b29 ef2f 292c 0a30 a35c fc2e 5d56 4630
00000040: a968 4b30 ad68 ac30 6a5f 8b30 8749 3330
00000050: fc0d 0530 d280 f62e 6a87 7330 add5 4830
00000060: 68de 0a2e edb4 9d2d ea1c a32d 32f8 9a2e
00000070: faa9 f42d eb6a fe2d e5d8 e22d 34de d82d
00000080: d026 d52e a2fe 1d2f 68de 0a2f edb4 9d2e
00000090: ea1c a32e 32f8 9a2f faa9 f42e eb6a fe2e
000000a0: e5d8 e22e 34de d82e d026 d52f a2fe 1d30
000000b0: 4235 b731 e4e7 9132 d7a5 8a31 d41a a831
000000c0: 8ac3 4c31 0004 4231 8b54 4331 7cf5 6031
000000d0: 13da 5431 ae0d 6931 df57 9b31 5e57 8731
000000e0: d7a5 8a32 d41a a832 8ac3 4c32 0004 4232
000000f0: 8b54 4332 7cf5 6032 13da 5432 ae0d 6932
00000100: df57 9b32 5e57 8732 9866 cf32 4c17 9d33
00000110: bfb2 7d32 2a18 7032 91bc 7832 97a7 8032
00000120: 2889 8a32 34ae 8132 e633 6e32 0c7b 7132
00000130: f861 8332 e093 7c32 bfb2 7d33 2a18 7033
00000140: 91bc 7833 97a7 8033 2889 8a33 34ae 8133
00000150: e633 6e33 0c7b 7133 f861 8333 e093 7c33
00000160: 5328 5d30 9520 702f 6fb2 e62f 291b d02f
00000170: b974 c72e 0b2e 0d30 4891 4c2f 652a 2830
00000180: 078c 1830 049a 1230 10d2 1c30 790e fd2f
00000190: 6fb2 e630 291b d030 b974 c72f 0b2e 0d31
000001a0: 4891 4c30 652a 2831 078c 1831 049a 1231
000001b0: 10d2 1c31 790e fd30 f246 ea32 e69b 9933
000001c0: 3375 6c32 e599 7d32 078c 5732 24c7 8932
000001d0: 7840 8232 f2e1 8b32 28a0 9032 f29d 8132
000001e0: debd 7c32 eb60 8232 3375 6c33 e599 7d33
000001f0: 078c 5733 24c7 8933 7840 8233 f2e1 8b33
00000200: 28a0 9033 f29d 8133 debd 7c33 eb60 8233
00000210: 6639 0530 93d8 9230 91b7 c528 c130 b92a
00000220: 4a9d 612a 1ba0 1b2b 0c30 852b 2e3f 972a
00000230: 7617 3728 f7f8 8828 64d5 6e29 c592 0d29
00000240: 91b7 c529 c130 b92b 4a9d 612b 1ba0 1b2c
00000250: 0c30 852c 2e3f 972b 7617 3729 f7f8 8829
00000260: 64d5 6e2a c592 0d2a 1d78 0031 63e6 5d31
00000270: 73fa 9b30 a86a 1431 6103 ce30 cc5c 0231
00000280: 7d57 0731 1f5f 2631 516e 0b31 497a c630
00000290: f791 af30 7ad4 4731 73fa 9b31 a86a 1432
000002a0: 6103 ce31 cc5c 0232 7d57 0732 1f5f 2632
000002b0: 516e 0b32 497a c631 f791 af31 7ad4 4732
000002c0: bb98 1e2e ee20 792f 81d7 032d 7367 7b2c
000002d0: 56e5 112d 0855 ea2d 09c5 5b2d 7140 292d
000002e0: 9880 dd2c a150 ab2c 99c3 a52d cc37 7f2d
000002f0: 81d7 032e 7367 7b2d 56e5 112e 0855 ea2e
00000300: 09c5 5b2e 7140 292e 9880 dd2d a150 ab2d
00000310: 99c3 a52e cc37 7f2e 9076 8430 1e26 5730
00000320: fb09 6730 088a df30 5f99 d430 fed3 8530
00000330: f604 862f 1c1d c230 e98e a830 8cae 0a31
00000340: 3337 3d30 5755 c530 fb09 6731 088a df31
00000350: 5f99 d431 fed3 8531 f604 8630 1c1d c231
00000360: e98e a831 8cae 0a32 3337 3d31 5755 c531
00000370: 1c14 382f f054 422d 6bcd 6528 5886 752b
00000380: c891 692c dbe3 292b 2ddc d12c e586 592a
00000390: c5d7 8d28 9dc1 3f28 bad9 272a 18cf c829
000003a0: 6bcd 6529 5886 752c c891 692d dbe3 292c
000003b0: 2ddc d12d e586 592b c5d7 8d29 9dc1 3f29
000003c0: bad9 272b 18cf c82a df25 9332 3fde 4633
000003d0: 18f8 5632 0ce8 4632 b732 6432 e7a3 7b32
000003e0: 0519 7832 d7ac 6432 a259 2b32 88a6 3932
000003f0: 9b4f 2c32 4135 4c32 18f8 5633 0ce8 4633
1.7900745e-10 7.1051914e-10 1.0875852e-10 1.2566716e-10 2.8690222e-11 1.8038677e-10 1.8499925e-10 3.1360994e-10
2.5351748e-10 1.6306077e-10 1.2101248e-10 2.802417e-11 4.350341e-10 5.0266863e-10 1.1476089e-10 7.215471e-10
7.39997e-10 1.2544398e-09 1.0140699e-09 6.522431e-10 4.840499e-10 1.1209668e-10 8.859532e-10 7.306323e-10
3.1575104e-11 1.792918e-11 1.8543795e-11 7.0471975e-11 2.7815073e-11 2.8923938e-11 2.5789546e-11 2.4655035e-11
9.693013e-11 1.436953e-10 1.2630041e-10 7.171672e-11 7.417518e-11 2.818879e-10 1.1126029e-10 1.1569575e-10
1.0315818e-10 9.862014e-11 3.8772052e-10 5.747812e-10 5.3320557e-09 1.6985673e-08 4.0351824e-09 4.8924935e-09
2.9797058e-09 2.823299e-09 2.8424292e-09 3.2735832e-09 3.0974021e-09 3.3913738e-09 4.5210835e-09 3.9389496e-09
1.614073e-08 1.9569974e-08 1.1918823e-08 1.1293196e-08 1.1369717e-08 1.3094333e-08 1.23896085e-08 1.3565495e-08
1.8084334e-08 1.5755798e-08 2.4144626e-08 7.31512e-08 1.476718e-08 1.3975333e-08 1.4478375e-08 1.4977372e-08
1.6127686e-08 1.5096795e-08 1.3865224e-08 1.4056024e-08 1.5294958e-08 1.4701953e-08 5.906872e-08 5.590133e-08
5.79135e-08 5.990949e-08 6.451074e-08 6.038718e-08 5.5460895e-08 5.6224096e-08 6.117983e-08 5.8807814e-08
8.0456636e-10 2.1839448e-10 4.196354e-10 3.7854278e-10 9.0702064e-11 5.136093e-10 1.8605306e-10 6.117829e-10
5.549627e-10 5.333336e-10 5.7050986e-10 4.6030715e-10 1.6785416e-09 1.5141711e-09 3.6280826e-10 2.0544373e-09
7.4421225e-10 2.4471316e-09 2.2198507e-09 2.1333344e-09 2.2820394e-09 1.8412286e-09 2.7273448e-08 7.1529755e-08
1.3763656e-08 1.476153e-08 1.2546486e-08 1.6039458e-08 1.5163309e-08 1.6284478e-08 1.6836637e-08 1.5089402e-08
1.4711501e-08 1.5178065e-08 5.5054624e-08 5.904612e-08 5.0185943e-08 6.415783e-08 6.0653235e-08 6.513791e-08
6.734655e-08 6.035761e-08 5.8846005e-08 6.071226e-08 4.8466686e-10 1.0684452e-09 2.1951003e-14 3.289643e-13
2.0038585e-13 5.5289253e-13 9.463554e-13 2.6866828e-13 1.0163628e-14 1.5207004e-14 5.3031703e-14 3.143559e-14
8.780401e-14 1.3158573e-12 8.015434e-13 2.2115701e-12 3.7854216e-12 1.0746731e-12 4.0654512e-14 6.082802e-14
2.1212681e-13 1.2574237e-13 1.8694728e-09 3.2290692e-09 1.1348916e-09 2.1597462e-09 1.4989433e-09 1.8970239e-09
1.9694817e-09 2.421025e-09 2.028987e-09 1.4441152e-09 1.2774412e-09 2.907909e-09 4.5395665e-09 8.638985e-09
5.995773e-09 7.5880955e-09 7.877927e-09 9.6841e-09 8.115948e-09 5.7764606e-09 5.1097646e-09 1.1631636e-08
3.6060693e-11 2.2658117e-10 7.494339e-12 3.5726671e-12 8.2932185e-12 2.6640481e-11 1.2492459e-11 9.620847e-12
6.2954746e-12 4.869064e-12 1.8845191e-11 1.4507461e-11 2.9977357e-11 1.42906685e-11 3.3172874e-11 1.06561926e-10
4.9969837e-11 3.8483387e-11 2.5181898e-11 1.9476256e-11 7.5380764e-11 5.8029845e-11 9.637962e-10 7.827071e-10
8.4051494e-10 1.6264616e-09 1.5468621e-09 9.737275e-10 2.4377983e-10 1.4123631e-09 1.2264226e-09 2.0180861e-09
6.883624e-10 1.4357892e-09 3.3620597e-09 6.5058465e-09 6.1874483e-09 3.89491e-09 9.751193e-10 5.6494525e-09
4.9056905e-09 8.072345e-09 2.7534497e-09 5.7431566e-09 1.6741847e-10 1.1046483e-11 1.27565966e-14 8.7227925e-13
3.3192216e-12 6.0357074e-13 5.9645817e-12 1.9320273e-13 1.574772e-14 1.0644613e-14 1.4908119e-13 8.917709e-14
5.1026386e-14 3.489117e-12 1.32768865e-11 2.414283e-12 2.3858327e-11 7.728109e-13 6.299088e-14 4.2578452e-14
5.9632475e-13 3.5670837e-13 1.7130274e-08 4.63026e-08 1.2512849e-08 1.1577878e-08 1.3282878e-08 1.464739e-08
1.4441189e-08 1.3310646e-08 9.97389e-09 1.0806282e-08 1.0029818e-08 1.1886471e-08 5.0051398e-08 4.6311513e-08

exp_avg f4 [32]
00000000: 6e03 6030 587f 981b f617 17b8 25d7 7cba
00000010: 4cf9 dbb6 84a9 fd39 ac8c c61c b7ec aab7
00000020: 9ee9 969c 2c62 2bb6 10c0 231c 7f5f e0b8
00000030: 7709 94b9 0669 599c f220 1f02 ce30 999c
00000040: 0fc4 c839 2e2a 9039 f405 99b8 82de ae38
00000050: ebb4 15b6 3005 84b7 d7e0 cf39 0f3f 273a
00000060: 323d 9739 76ce feb9 f114 d8a0 396a 7939
00000070: a360 7436 b0d6 6bb6 d5b5 803a 9295 bd2f
8.14956e-10 2.5228585e-22 -3.602352e-05 -0.0009645096 -6.5557306e-06 0.0004838222 1.3138904e-21 -2.0375808e-05
-9.986556e-22 -2.553813e-06 5.418041e-22 -0.0001069894 -0.00028235812 -7.1935017e-22 1.169093e-37 -1.0137306e-21
0.00038293048 0.00027497247 -7.2967174e-05 8.338412e-05 -2.2308038e-06 -1.5738042e-05 0.00039649635 0.0006379941
0.00028846558 -0.0004860048 -3.660568e-19 0.00023786062 3.6415083e-06 -3.5142693e-06 0.0009819815 3.4485176e-10

exp_avg_sq f4 [32]
00000000: 23c3 3232 bcb8 0a32 20d2 2735 1981 5d36
00000010: 7873 aa32 c482 4736 fc6e 402d 6570 2734
00000020: 233e 2b30 3329 c833 abbb a42c de6e 1a36
00000030: 186d 8736 ff2f 4930 b4e8 cc31 416c 0631
00000040: 633b db37 6f76 5e36 9b71 1e36 be94 f434
00000050: 6db0 3333 4d9d 7c35 1c79 4536 7e34 ac36
00000060: 1455 6f37 a75b 2237 1c8c ae30 69e4 6d36
00000070: 2914 7e34 3b1a 0e35 6c71 6136 ae09 3533
1.0405333e-08 8.074661e-09 6.251812e-07 3.300671e-06 1.9843114e-08 2.9729426e-06 1.093858e-11 1.5593976e-07
6.229774e-10 9.32072e-08 4.6819957e-12 2.3012321e-06 4.0360137e-06 7.319158e-10 5.9636367e-09 1.9561102e-09
2.6134489e-05 3.3149515e-06 2.3609962e-06 4.5556766e-07 4.1837144e-08 9.410622e-07 2.9425782e-06 5.1321103e-06
1.4265319e-05 9.677292e-06 1.2699988e-09 3.5448704e-06 2.3662928e-07 5.293729e-07 3.3593633e-06 4.215115e-08
