checkpoints/MLP_bs32_lr0.001_win50-30-20_vTrue_scTrue_ep5.pth (torch, 178894 bytes, 24 tensors)

layer1.weight f4 [32, 22]
000000 9d e3 04 3e 6e e0 40 3e 34 28 00 3d 90 ab a0 bc
       0.12977453 0.18835613 0.03128834 -0.019613057
000010 37 d8 00 3f 6c 46 ea be 63 b0 89 bd ce 54 72 bf
       0.5032992 -0.45756853 -0.06723096 -0.9466065
000020 d3 8d 08 be 57 a4 82 be 5b 67 5b 3e 79 a0 df 3e
       -0.13335352 -0.25516006 0.21426146 0.43677118
000030 d0 eb 4b 3e f7 c3 00 bd c1 a5 f0 3e 39 4e 9a be
       0.19914174 -0.031436887 0.4700146 -0.30137804
000040 9d 62 3d 3e ce 73 5d bf f7 1e d4 bd 2f 23 cc be
       0.18494649 -0.8650483 -0.103574686 -0.39870593
000050 c2 4a d8 bd 48 ab 8b 3e 2f d1 e8 be c7 e2 ee 3c
       -0.10561134 0.27279115 -0.45472094 0.02916087
000060 18 06 57 be 66 78 02 be 81 91 9f be 8a fb 11 3f
       -0.20998418 -0.12741241 -0.31165698 0.57024443
000070 69 44 87 be 0e 75 5d 3e 80 cd 26 be 70 1a 3c bf
       -0.2641938 0.21626684 -0.1628933 -0.7347784
000080 89 ae 35 3e e5 f3 ac 3f 8c ef 70 be c5 2c 04 bf
       0.17742361 1.3511931 -0.2352888 -0.5163081
000090 16 d3 d4 be 94 ce ed 3e 6d cb c7 be 3d a9 3f bd
       -0.41567296 0.4644667 -0.3902239 -0.046792258
0000a0 7f 0b dc be ba 59 13 bf c8 4e ad 3e 7e bc c5 3f
       -0.4297752 -0.57558787 0.33849168 1.5448148
0000b0 bf aa 65 3d d4 9b d6 bd 81 a2 f6 be 37 be af 3e
       0.05607104 -0.104789406 -0.48170856 0.3432481
0000c0 d0 47 0d 3e de 54 67 3e ae 39 17 bf 07 9b 43 3d
       0.13796926 0.22590968 -0.5907239 0.047755267
0000d0 2b e0 8f bf f5 9d 6b 3e 8d 32 14 3f 34 9f 0d 3f
       -1.1240286 0.23009475 0.57889634 0.5532105
0000e0 05 e3 eb be 78 0e 9c 3e e7 d5 24 3e f9 a7 3e be
       -0.4607164 0.3047979 0.16097222 -0.18618764
0000f0 35 bb a5 be ba aa 40 bd 92 e6 63 bf 32 cc 03 3d
       -0.3236939 -0.047037818 -0.890237 0.032177158
000100 c4 02 40 3f a6 cd 43 3f 58 9c 9a bd 47 0e 18 3d
       0.7500422 0.7648567 -0.075493515 0.03712299
000110 12 84 07 3e c7 ed 0f bf 29 6d d9 bd a4 fa fb 3d
       0.13233975 -0.56222194 -0.10616524 0.12303665
000120 b2 66 62 3d 38 1f 92 3e 5b 32 40 bf ea 49 bd bc
       0.05527372 0.28539443 -0.75076836 -0.023106534
000130 e5 c5 2b 3d 61 d2 17 be 72 e0 b3 3e 47 ea 1f bf
       0.041936774 -0.14826347 0.35132176 -0.62466854
000140 c7 2e bc 3d 4e f7 52 3e 94 7d d7 3e b2 e0 30 3e
       0.091886096 0.20602152 0.42087996 0.17273214
000150 f4 af 05 bf 17 50 2f bd 23 7a 5f 3e 66 44 fb bd
       -0.5222161 -0.04280099 0.21823935 -0.12268905
000160 4b cb 02 bf bc 42 59 3e 6f 66 51 3e d2 33 b5 3c
       -0.5109145 0.21216863 0.20449232 0.022119436
000170 96 46 8e be b8 53 4e bd d7 54 c6 3e dc 18 f6 3e
       -0.27788228 -0.05037281 0.38736603 0.4806584
000180 7c 6d 36 3f eb e2 20 3e 09 bc 90 bd e8 e4 d2 3e
       0.7126081 0.15711562 -0.07067115 0.41190267
000190 bd e6 d4 3d 9c b2 c4 bd 16 9b a1 be ce e1 5f 3d
       0.10395572 -0.096043795 -0.31563634 0.054658704
0001a0 1b c5 42 3c a5 e2 77 3e bf 53 36 3f 99 57 e8 3e
       0.011887814 0.24207552 0.71221536 0.45379332
0001b0 91 2c 41 be 6f c0 ea 3e 64 6f 81 3d 91 25 f3 bc
       -0.18864657 0.4584994 0.06320074 -0.029680999
0001c0 e5 bf be be fe 9b c6 bd 74 3d e7 be 81 be df 3d
       -0.3725578 -0.09697722 -0.45164073 0.109250076
0001d0 4d 07 71 3e 54 ac 22 be 5e 7b a7 3e 25 ce 9a bd
       0.23537941 -0.1588605 0.3271131 -0.0755885
0001e0 0e 67 ad bd 5d 96 3e 3f ba 6a c9 be 87 09 9b 3d
       -0.08466922 0.74448186 -0.39339238 0.075701766
0001f0 56 2a bb be a6 57 8d 3d c4 ee c3 3e 5d 22 18 be
       -0.36555737 0.06901483 0.382681 -0.14856859
000200 f4 71 0e bb ad 65 1c 3d 10 2b 80 be ae 29 1d 3f
       -0.0021735402 0.038182903 -0.25032854 0.61391723
000210 74 c5 3f 3e 61 c6 92 3b da 6b 16 bf 44 43 cf bd
       0.18727666 0.004479215 -0.5875832 -0.10120252
000220 df 40 46 be 0a 6f 33 bd 15 34 00 3f 14 ea 8f 3e
       -0.19360684 -0.043807067 0.5007947 0.28108275
000230 00 98 4e bd 96 30 a9 be 8c 15 c3 3e 0b 3d d0 be
       -0.050437927 -0.3304488 0.38102376 -0.40671572
000240 07 5b 35 bf a4 da 22 be 0e 19 92 be 0d 46 42 be
       -0.7084202 -0.15903717 -0.2853474 -0.18972035
000250 ec 91 24 3f 85 51 8a 3e 6e 52 c2 be c4 6b 85 be
       0.6428516 0.2701532 -0.37953514 -0.2605878
000260 f1 24 17 3e fe 74 de be e4 67 85 bc 50 59 40 be
       0.14760186 -0.43448633 -0.01628489 -0.1878407
000270 7d 4d 05 3e c9 e1 2b 3f 27 de 09 3f 9b 23 e0 3d
       0.1301784 0.67141396 0.538546 0.10944291
000280 b7 ae 82 be 10 b0 66 bf ea c5 71 3e ac 17 de bd
       -0.25523922 -0.901124 0.23610654 -0.10844359
000290 9b 6e 91 3e 42 9a 8d bf 56 69 16 3e 5f fa 1b 3f
       0.28404698 -1.1062701 0.1468862 0.6092891
0002a0 b9 a1 4b 3f 46 1e 6c 3d d7 a4 a1 3c 4e 8e 52 bf
       0.79543644 0.05764606 0.019731922 -0.8224839
0002b0 d2 39 67 3e 80 5d 46 be 4f 13 38 bc 59 6f 98 bf
       0.2258065 -0.19371605 -0.011235072 -1.1908981
0002c0 55 a8 f8 be f9 4b 0d 3d 28 19 a4 bd 62 3d 84 3e
       -0.48565927 0.03449628 -0.08012611 0.2582808
0002d0 99 46 0e 3f 77 9b 5d 3e a6 b0 69 3e fa ba f0 bd
       0.55576473 0.21641336 0.22821292 -0.11754413
0002e0 91 4d af 3c 6f 9a a9 bd 40 0c 71 3e da 29 77 3d
       0.021399291 -0.08281409 0.23539829 0.060342647
0002f0 7c a1 30 be 7a e0 c2 3e 17 05 e5 3e 79 ab b1 3e
       -0.17249101 0.38061887 0.44730446 0.34701136
000300 5c f1 e8 3e a2 13 f7 bd 69 e6 2b be 80 fd 16 be
       0.45496643 -0.120642915 -0.16787113 -0.1474514
000310 6e f1 54 3e 7a f5 fb bd 4b 2b 50 3e a4 fd 04 be
       0.20795223 -0.1230268 0.20329015 -0.12987381
000320 13 af 5a bb d1 a1 8b be e5 67 31 3d 2c f2 ae 3d
       -0.0033368513 -0.27271894 0.043311972 0.08542284
000330 3a 8c 49 3e 49 a1 c1 3d b8 5f bb 3d 3b 1d 9f bf
       0.19682398 0.09454591 0.09149116 -1.2430795
000340 8c 1e b7 39 b2 31 40 be 98 4e 9b bd 5f 82 b4 3b
       0.0003492724 -0.18768957 -0.0758335 0.0055087055
000350 c1 dc f4 3d 80 37 a3 3e a5 c6 00 3f 3a cf 35 be
       0.11956168 0.3187828 0.5030311 -0.17754832
000360 00 85 0d 3e 44 ce a4 bf b9 55 88 bd 78 e9 8b bd
       0.13820267 -1.2875447 -0.06656975 -0.0683164
000370 b9 83 90 3e 8b 36 80 be 2a 3d 29 3e b1 a8 83 bf
       0.28225496 -0.25041613 0.16527238 -1.0285856
000380 7a a5 24 3e 80 51 2c be 0a 05 0d 3f 22 3d ce 3e
       0.1607875 -0.16827965 0.55085814 0.40281016
000390 63 ec c7 be bc 62 05 bf f3 3a 56 bd 75 3f 3f 3e
       -0.39047536 -0.5210378 -0.052302312 0.1867655
0003a0 f6 db 83 3e 5b a6 67 bf 5e cf d2 3e 01 b8 e1 bd
       0.25753754 -0.90488213 0.41173834 -0.11021424
0003b0 51 5e fc 3e e3 82 dc 3e c1 70 bc be 61 60 57 be
       0.49290708 0.4306861 -0.36804774 -0.2103286
0003c0 da fe d5 bd 19 ab 36 3e 0e 95 c0 bd da a9 e3 bc
       -0.10449 0.17838706 -0.0940343 -0.027790952
0003d0 ac c6 b9 be 63 ef b3 be 26 a7 f8 3e a3 21 08 3f
       -0.36284387 -0.35143575 0.48565024 0.53176326
0003e0 74 c4 ac bd 29 63 c3 be ae c3 b4 3c f4 c1 3a be
       -0.08435908 -0.3816159 0.022065964 -0.1823805
0003f0 a1 dd 0d bf e8 99 91 3e da e9 82 be b0 69 b6 be
       -0.55416304 0.28437734 -0.2556904 -0.35627508

layer1.bias f4 [32]
000000 a9 b4 3e bf c9 8e 4b bf a3 f3 39 be e8 10 0a 3e
       -0.74494416 -0.7951475 -0.18159346 0.13483012
000010 76 14 49 bf 60 61 43 3e 4a ba 84 bf d2 90 07 bf
       -0.78546846 0.19080114 -1.0369351 -0.52955353
000020 69 99 3a bf b4 ff 2a bf 6b 11 10 bf bb c5 05 3e
       -0.72890335 -0.6679642 -0.5627658 0.1306371
000030 7d e3 52 3e e7 c1 6b bf 34 b7 6c bf 69 6b 41 bf
       0.20594592 -0.92092746 -0.92467046 -0.7555452
000040 9d fa 2b 3e 90 2f d2 3d b3 37 e2 3d 9e 8e 1c be
       0.1679482 0.10262978 0.1104578 -0.15288779
000050 50 7b e0 be d1 1d f9 bd 73 f2 a2 3d 46 f7 ff 3d
       -0.4384408 -0.1216389 0.079564 0.124983355
000060 3a c5 44 be 2f 40 8a 3e 7e 43 59 bf b0 53 cb 3d
       -0.19215861 0.27002093 -0.8486861 0.099280715
000070 fe fa 87 be a5 db f3 bd 16 51 76 3e 82 7b 47 bf
       -0.2655868 -0.11907128 0.2405437 -0.7792283

layer2.weight f4 [64, 32]
000000 17 dd a6 be 69 ac 90 be e6 69 87 3d 0b bf 7f be
       -0.32590553 -0.2825654 0.066119954 -0.24975221
000010 0e 7b bc 3c 65 2c 78 3e 94 2b ad 3d cb 01 8f be
       0.023007896 0.24235685 0.084555775 -0.27931055
000020 33 a1 cc be c5 a7 99 be 3c be 4c be 48 b6 44 3c
       -0.39966735 -0.3001081 -0.19994444 0.01200635
000030 75 f0 da be 9e a0 46 be ea ca 19 bf b1 f0 be be
       -0.4276158 -0.19397208 -0.6007525 -0.37293008
000040 3b 4e e6 bd 65 63 d4 be 64 b3 d6 be c7 49 7a be
       -0.1124539 -0.41482082 -0.4193374 -0.24442206
000050 d3 a5 24 be 35 bb fd bd fe a1 bc bd eb 1f 2e bf
       -0.16078882 -0.123892225 -0.09210585 -0.6801745
000060 9b ba 4b bd 1d 07 ef bd 4c 6c d1 bd 15 c0 c4 bd
       -0.049738508 -0.116712786 -0.10225734 -0.09606949
000070 4b 1f 13 3d c6 27 b3 3d 06 f1 d2 3d d3 cf 02 bf
       0.035918515 0.087478206 0.10299878 -0.51098365
000080 bb 81 14 be 3a 97 71 bd d2 2c 00 be 2b d3 7e 3d
       -0.14502613 -0.05898211 -0.12517098 0.062213104
000090 6c b8 31 be c9 d0 9d be 15 c4 23 3e 16 ff ce bd
       -0.17355508 -0.30823353 0.15992768 -0.101072475
0000a0 fc fd 21 3c f4 e3 d4 be d3 bd 0a be 93 b3 24 bf
       0.009887215 -0.41580164 -0.13548975 -0.6433651
0000b0 42 e8 ed be 51 5c 59 be f0 e1 aa be fd 46 d6 be
       -0.4646626 -0.21226622 -0.33375502 -0.41851035
0000c0 83 b3 0f bf 7c b9 61 be a2 70 1c bd b1 14 82 bc
       -0.5613329 -0.22043413 -0.038193353 -0.015879007
0000d0 69 11 c2 bd 45 af 35 bc 32 b8 99 be 9b 66 d8 bd
       -0.09475977 -0.011089151 -0.30023342 -0.105664454
0000e0 d2 43 bd 3c 8c d2 37 bb c2 74 1f bc 66 a7 81 be
       0.023103628 -0.002804908 -0.009732427 -0.25323027
0000f0 b3 01 34 3e 36 2a 1a 3d 2c 17 c4 bd 05 70 e9 bd
       0.17578773 0.03763791 -0.09574732 -0.11398319
000100 34 c2 71 be b5 06 48 bd 29 bf 5f bd 67 18 35 3e
       -0.23609239 -0.04883452 -0.054625664 0.1768509
000110 28 11 90 be 93 f4 a6 be eb 7b 2f be 9f a9 12 bf
       -0.2813809 -0.3260847 -0.17137115 -0.5729007
000120 29 c8 ab be da 10 9e be c5 bc ff be fc e7 23 3f
       -0.33551148 -0.30872232 -0.49948707 0.64025855
000130 97 d1 00 3e 87 fa 0a bf b7 3c 32 bf dc 68 cd bd
       0.12579952 -0.54288524 -0.69623893 -0.10029766
000140 3a 47 4b be 6f bc 7a 3e 32 7e 50 bc 46 88 7c be
       -0.1985139 0.24485944 -0.0127254 -0.24661359
000150 b0 ad bf be 6f 6e a0 3e d9 d1 07 bf 05 6a 3a bf
       -0.374372 0.31334254 -0.5305458 -0.7281802
000160 ca 63 66 3e 0a 3a 95 be a5 f5 3c be e3 e1 42 3f
       0.22499004 -0.29145843 -0.18453081 0.76125926
000170 36 1a c8 3e 3f aa 11 bf 69 b4 65 be 01 df 22 bf
       0.39082497 -0.569004 -0.22432102 -0.63621527
000180 1d 2d 0f bf cc 91 97 be 00 45 87 bd 16 4f b7 be
       -0.5592821 -0.29603422 -0.066049576 -0.35802525
000190 61 90 84 be 98 71 04 bd 03 a5 07 be 26 4e 91 bc
       -0.25891402 -0.032334894 -0.1324654 -0.01773746
0001a0 16 e0 08 be 00 b6 3d 3e e2 31 28 be a6 7d cc 3d
       -0.13366732 0.18526459 -0.16425279 0.09984903
0001b0 88 28 31 3e 0f 0f 3e be 53 42 bd 3d 4a 09 04 bf
       0.17300618 -0.18560432 0.09241166 -0.51576674
0001c0 39 74 a0 3c 15 da 59 3d 49 43 39 3c 31 b5 34 be
       0.01958667 0.053186495 0.011307546 -0.17647244
0001d0 44 30 a1 3e 59 52 96 be e0 49 b5 3e 1b a5 97 be
       0.31482136 -0.293597 0.35407925 -0.29618153
0001e0 31 dd f1 3b 21 12 06 3e 0e 73 2b 3e d7 ab d6 3d
       0.0073811044 0.13092853 0.16743109 0.104819946
0001f0 4d fc a9 3e a8 06 85 be 85 32 46 3f bc e2 d8 be
       0.33200303 -0.2598164 0.77420837 -0.42360485
000200 67 ae 4d 3f 1c 74 b1 3b d3 5f 06 3f aa 07 ac bd
       0.8034424 0.0054154526 0.52489966 -0.08399899
000210 c2 00 fb bc 86 7c 0e be 66 53 5f 3f 07 79 b1 3e
       -0.03064001 -0.1391469 0.8723663 0.3466265
000220 c2 65 8b be 8a b1 4f bc 7a ad 86 3f ea 55 02 3f
       -0.27226073 -0.012676606 1.0521691 0.50912344
000230 d2 52 c0 3d b6 47 d1 3e 68 c2 0a be ed c8 06 3f
       0.09390797 0.40875024 -0.13550723 0.5265034
000240 65 50 12 3f cd f7 a8 be b4 14 06 be 1f eb 14 3e
       0.5715392 -0.33001557 -0.13093835 0.14542817
000250 e8 24 8b bd ab 99 e6 3e 70 47 c5 bd ba 78 b4 3e
       -0.06794149 0.45039114 -0.09632766 0.35248357
000260 0e 29 36 3e 2f 45 01 be 20 5a 20 3f 83 0a 18 3e
       0.17789099 -0.12624048 0.6263752 0.1484776
000270 9a 20 9d bd 4f c6 31 3e 38 60 52 be 9e 8c 00 3f
       -0.07672234 0.17360805 -0.20544517 0.50214565
000280 5c ad b8 be 5e 16 9f 3d 5f 71 4b be 8b 4d a6 bd
       -0.36069763 0.07767938 -0.19867466 -0.08120259
000290 e0 df 99 3e ef 15 e0 bd f5 56 8c be a6 47 54 be
       0.30053616 -0.109416835 -0.27410093 -0.20730457
0002a0 c2 78 93 be d9 ec 48 3e 7e 5e 90 be f3 16 94 be
       -0.28803068 0.196216 -0.28197092 -0.2892376
0002b0 9a 24 68 bf 14 a2 ba 3e a9 6e c0 be c7 78 8d 3e
       -0.9068085 0.3645178 -0.37584427 0.27631208
0002c0 a4 06 54 bd 43 9d 46 bf 37 7c 15 bf 9f 3f 9f bc
       -0.051764145 -0.7758371 -0.5839266 -0.019439517
0002d0 7c 32 3c be a7 5c 69 3e a4 fc cd be 18 56 09 bf
       -0.18378633 0.2278925 -0.40231812 -0.53646994
0002e0 1a 6b 1a 3d 58 7e 01 3e dd 03 95 3d ce 8c be bd
       0.037699796 0.12645853 0.072761275 -0.093042
0002f0 b4 d2 ea 3d ca 22 4b bd 47 69 11 be ed 99 42 bd
       0.1146597 -0.049593724 -0.14200316 -0.047510076
000300 fc 4e f9 be 7d ad 74 be 74 ae 19 3e 51 d8 fb 3d
       -0.48693073 -0.23894306 0.15007955 0.122971185
000310 d2 96 bd be 5a e5 02 be f4 68 da 3d 05 f2 06 bd
       -0.3702913 -0.12782803 0.106645495 -0.03294565
000320 25 ae 03 bf ec ec 52 be 7c 9d e1 be c9 14 89 bd
       -0.514376 -0.20598191 -0.44065464 -0.066934176
000330 f9 0e ea be f0 c2 cb 3e 3c 40 01 bf 82 e7 5b bd
       -0.45714548 0.39797163 -0.5048864 -0.05368758
000340 98 a7 f9 3d 54 57 90 bd 2b 67 8c 3d 25 48 b1 be
       0.12190169 -0.070479065 0.06855615 -0.34625354
000350 ae 89 99 be 0f 67 83 be 6b a7 70 bf 11 4f b4 be
       -0.29987854 -0.25664565 -0.9400546 -0.35216573
000360 46 0c 8a be c3 70 95 be 57 91 82 be 6f 1a c3 be
       -0.2696249 -0.29187593 -0.2550151 -0.38106105
000370 d0 40 a8 bc 00 71 d3 3d b8 34 75 be 9d 7f 7f 3d
       -0.020538718 0.103242874 -0.23945892 0.06237756
000380 9b cb 1c be f1 8e 98 3e 19 10 0c 3e 42 13 50 be
       -0.15312044 0.29796556 0.13678016 -0.20319846
000390 39 64 20 3e bc 38 41 be 82 a1 e1 3b 63 a3 97 be
       0.15663232 -0.18869299 0.0068857083 -0.29616842
0003a0 2a 55 6e 3c 87 9e d4 bd 15 1b 6f be f8 2d eb bd
       0.014546672 -0.10381799 -0.23350175 -0.11483377
0003b0 07 2b 0e bf a4 c8 18 bc a3 f8 0f 3b 76 8d db 3d
       -0.55534405 -0.00932518 0.0021968267 0.10720341
0003c0 b8 62 dd bd d3 77 17 bf c3 46 ab bd 2a 0f 0f 3e
       -0.10809845 -0.5916721 -0.08363106 0.13970628
0003d0 57 61 ed be b8 48 96 bb 26 dc e7 be dd 0b fe be
       -0.46363327 -0.0045863055 -0.45285147 -0.49618426
0003e0 38 26 51 be 02 c7 81 be 75 e5 88 3d db 6a 1c be
       -0.20424736 -0.25347143 0.066843905 -0.15275137
0003f0 d3 e3 95 bd da f2 c3 bd 9c 66 05 bf f2 96 db 3d
       -0.07318845 -0.09567805 -0.52109694 0.1072215

layer2.bias f4 [64]
000000 93 2e 50 be 5b 11 a1 bd fa 0c 25 be 38 02 65 bd
       -0.20330267 -0.078646384 -0.16118231 -0.05591032
000010 e4 e4 33 bf 7c e1 5a bd ad 5f 9c be 4f 15 e8 be
       -0.70271134 -0.053437695 -0.30541745 -0.45328757
000020 96 08 a1 be 02 5a 81 3d 7f 75 b6 bd 9e b7 99 be
       -0.31451863 0.06315996 -0.08909129 -0.300229
000030 9f 03 47 be 6f 57 f9 be 10 09 5c be bf 71 be be
       -0.19434975 -0.4869952 -0.21487832 -0.37196156
000040 fe 88 4d bd 06 a3 a2 3d 06 51 7c be 62 b7 56 3c
       -0.050179474 0.079412505 -0.24640283 0.013105245
000050 ed 1d 87 bd 30 73 bb bc 8a 59 76 be 28 de 76 b9
       -0.06597505 -0.022882074 -0.24057594 -0.00023543148
000060 91 86 70 be 0c 33 88 be c3 0c 1c bf c9 ff e3 bd
       -0.23488833 -0.26601446 -0.6095697 -0.111327715
000070 07 88 9f 3d 8c e5 2b be 49 81 8e be 99 e7 f6 bd
       0.07789617 -0.16786784 -0.27833012 -0.120558925
000080 0a 84 91 be 1d 86 2a be c5 2f 6f be c3 fc 95 be
       -0.2842105 -0.16652723 -0.23358066 -0.29294404
000090 5b 71 c1 bd c6 83 c5 be f2 43 aa bd a8 d2 85 3e
       -0.09445449 -0.38577098 -0.08313741 0.2613728
0000a0 9e 56 92 be e3 b7 3d 3e c2 f0 1d be cc d3 f2 bd
       -0.2858171 0.18527178 -0.15423873 -0.11856803
0000b0 e2 03 e9 bf 15 67 f9 3b 02 af 74 be 5a 85 10 3e
       -1.820431 0.0076111653 -0.23894885 0.1411337
0000c0 d9 ed 95 bf a0 d8 39 be ea d9 09 bf cf 8e 67 be
       -1.171321 -0.18149042 -0.53848135 -0.22613071
0000d0 96 1f 00 3d a8 2a 2b be 8b 77 c9 be 83 58 cc bd
       0.031280123 -0.16715491 -0.39349017 -0.0997782
0000e0 4f ec 43 3e 15 cc 5b 3d d0 91 8a 3e fd fc c3 be
       0.19133113 0.053661425 0.2706437 -0.38278952
0000f0 ee c0 b0 bd 8a fd 43 be 59 ed a6 bd 20 91 d6 bd
       -0.086305484 -0.19139686 -0.08150739 -0.10476899

layer3.weight f4 [128, 64]
000000 17 07 0d be a8 09 f6 3d 5a b6 20 3e 87 04 b9 bf
       -0.13772236 0.120135605 0.15694562 -1.4454507
000010 e7 3b e5 be 26 eb 6a 3d ff c2 69 be da 0d 25 bd
       -0.44772264 0.05735316 -0.22828291 -0.040296413
000020 c8 c0 5f be 85 1e 63 3d ff 44 62 bf 6b 37 ca bc
       -0.21850884 0.055449028 -0.8838653 -0.024684628
000030 7e 00 a0 bd 1b 54 1f bf af 66 e0 3c 91 cd 8d be
       -0.07812594 -0.6223771 0.027392713 -0.27695897
000040 67 8b f1 3d 32 fe bf 3e 71 fd ab be 23 bc f8 bc
       0.11794167 0.37498623 -0.33591798 -0.030363148
000050 55 e4 d5 3c 09 46 44 bd 8a 9d 28 be 9c 66 c0 bd
       0.026109854 -0.047918353 -0.16466346 -0.09394571
000060 4e e3 9d bd bf 9a f1 be 75 6e 3b be 6f b5 93 3e
       -0.077093706 -0.47188374 -0.18303855 0.2884936
000070 05 4d 95 be 2d 78 58 bd 77 da 7c be a5 2b 04 bd
       -0.29160324 -0.052848984 -0.24692713 -0.032268185
000080 25 4a 83 bd d0 5a 27 bf ca 3b d6 3c 88 c7 03 bf
       -0.06410626 -0.65372944 0.026151557 -0.51476336
000090 68 c0 98 bf ba 16 04 be 05 70 6f 3e b8 7e d0 bd
       -1.1933718 -0.12899294 0.23382576 -0.1018042
0000a0 57 72 f1 3d 3d a0 55 3e 10 76 75 bd 38 c2 c7 3c
       0.11789387 0.20861907 -0.059927046 0.024384603
0000b0 88 c1 7d be 7e 87 0a be fd ce bc bd 42 85 cf bd
       -0.24780858 -0.13528249 -0.092191674 -0.10132839
0000c0 45 c3 b5 be 7e 76 66 bd 0d c9 cf be cb ee 82 bb
       -0.3550054 -0.056265347 -0.40583077 -0.0039957515
0000d0 fa 22 02 3d 42 ac 55 3e 63 17 c0 3e 30 a1 63 be
       0.031771637 0.20866492 0.37517843 -0.22229457
0000e0 d4 7b 82 3d ad f6 1f bf e4 fb 9f 3d 35 01 1e 3d
       0.063712746 -0.6248577 0.07811716 0.03857537
0000f0 65 84 dc 3d 4d 3e 66 3d 62 1c 29 be 7a ac ba be
       0.1076744 0.05621176 -0.16514733 -0.36459714
000100 49 02 52 3d b3 2c a5 bd 44 97 8c be 62 d9 f1 bd
       0.05127171 -0.08065166 -0.27459157 -0.118090406
000110 08 42 27 be 2b ab 66 be 96 ce 16 3c f7 57 9b bb
       -0.16333783 -0.22526233 0.009204527 -0.004740711
000120 90 e5 fc bd a4 54 88 3d 3b 38 bb be b6 32 84 bc
       -0.12348473 0.06656769 -0.36566338 -0.016137462
000130 80 9c 32 3b 71 09 81 3d f8 c2 b2 3c fe 0a 3b 3d
       0.0027253926 0.06300629 0.021821484 0.04566478
000140 ba c4 9e bd 65 48 ac be 51 70 89 bd be d3 f7 bc
       -0.07752366 -0.33648983 -0.06710876 -0.030252334
000150 18 b6 63 3c 84 13 0b bd a2 8a 96 be 51 8e b1 bc
       0.013898395 -0.03395416 -0.29402643 -0.021674307
000160 eb 12 0c bc f9 5e 8d bd 2c 96 06 3d 1d a2 d6 bd
       -0.008549432 -0.0690288 0.03285806 -0.104801394
000170 0f e6 0d bd be 85 bc bd 21 49 f3 3d 99 a8 43 bd
       -0.03464323 -0.09205197 0.118791826 -0.04776821
000180 00 4c 1c be 2d 26 1c be 40 fa 94 bd f5 33 85 bd
       -0.15263367 -0.15248938 -0.07274294 -0.06504051
000190 ac 84 32 be 58 3e 80 bd 48 43 77 3d 84 2e bc bd
       -0.17433423 -0.06261891 0.0603669 -0.0918856
0001a0 7c 96 9a 3d d1 78 7a bd a6 9d 64 3d 48 0a 31 bc
       0.07548234 -0.061150376 0.055814408 -0.010805674
0001b0 c1 a2 1d bd 9d 59 c8 bd fe a6 ad 3d 45 1b 2d bd
       -0.038485292 -0.097827174 0.08479117 -0.042262334
0001c0 ea 55 7b 3d a1 53 8e 3d 2c c2 3c 3d 1a cc 78 3d
       0.06136123 0.06949545 0.046083614 0.06074152
0001d0 92 9b b1 be d4 1c fb bd 6f df 40 bc a7 9b e7 bd
       -0.34689003 -0.12261358 -0.011772021 -0.11308985
0001e0 ff e3 83 be 3a c0 d1 bd 2b 0d 16 3d c6 89 4a 3c
       -0.25759885 -0.102417424 0.03663365 0.012361949
0001f0 39 b4 d9 bd 16 dd 97 bd 7a c2 79 bd 34 7a 50 be
       -0.10630078 -0.07415216 -0.060976483 -0.20359117
000200 d3 fa 93 bd 8f f0 86 3c 46 6d 0b 3c b4 f3 61 bd
       -0.07225575 0.01647213 0.00850994 -0.055164054
000210 2c a9 3e be c6 81 92 bd 3d 14 f4 bd 5e 2e 04 ba
       -0.18619221 -0.071536586 -0.11917923 -0.00050423096
000220 3c 8e f6 bd 7a a9 98 3d 38 25 88 bd 6e f9 81 be
       -0.12038848 0.074542 -0.06647724 -0.25385612
000230 f4 4d da bd 9a 30 0d 3d 25 6b f7 3d 40 84 56 be
       -0.106594 0.03447018 0.12080983 -0.20948887
000240 44 70 c1 bc 70 52 a4 bd 9a 3a a2 3d 5a 62 50 3d
       -0.023613103 -0.08023536 0.079213336 0.050875045
000250 2c 95 0b bd b9 fd 0e 3e fd bb 04 be 4c 47 27 be
       -0.03407781 0.13963975 -0.12962337 -0.16335791
000260 ef 48 8c 3d 38 b7 3a bd ab 8a 2d be f1 06 72 bd
       0.068498485 -0.045584887 -0.16947429 -0.05908865
000270 24 47 27 bb 44 f8 86 bc 6f c6 b9 bd e8 65 2d 3d
       -0.002552458 -0.016475804 -0.09071051 0.042333513
000280 40 33 65 3d 25 70 e4 bd a3 19 9c bd 81 e0 0c be
       0.05595708 -0.11154202 -0.07622077 -0.13757516
000290 27 17 0a be d4 55 b5 bb 0b f5 17 3d 2a f7 29 be
       -0.13485394 -0.005533913 0.037098926 -0.16598192
0002a0 bf e3 52 bd e5 d3 b4 bd 86 62 dd 3d a4 bd 3c 3d
       -0.051486727 -0.08829478 0.108098075 0.046079293
0002b0 f0 58 cf bc 46 63 ab bd 0d d3 50 be 20 fd 03 be
       -0.025310963 -0.08368544 -0.2039301 -0.12889528
0002c0 9b 14 02 be fb d7 01 be 5b 5a ef bc 3e 19 bc 3d
       -0.12703173 -0.12680046 -0.02921789 0.09184502
0002d0 14 86 4d 3d 13 d1 de 3c c0 35 91 bb 32 af 05 be
       0.050176695 0.027199304 -0.0044314563 -0.13055113
0002e0 d0 22 3d bd 56 e8 8f bd 01 38 f4 bd 34 f9 f8 bd
       -0.046175778 -0.070267364 -0.119247444 -0.12156907
0002f0 7c 40 36 be f0 d7 cb bc 21 17 b4 bc 8b f1 6a bd
       -0.17798036 -0.02488324 -0.021983685 -0.05735926
000300 06 7c 73 bd 78 f5 1d bd c3 3a 02 be 5f f2 82 bc
       -0.05944445 -0.038564175 -0.12717728 -0.015984712
000310 c9 00 c9 bd 1e 32 8a 3b 60 21 3e bc 4b 0c 96 3d
       -0.09814603 0.0042174 -0.011604637 0.073265634
000320 30 61 e4 3c 67 0c 9b bd 76 7f ad bd ff aa 0b be
       0.027878374 -0.07570725 -0.08471577 -0.13639449
000330 7a 3c 32 bd 8d a8 16 3d 44 fe db bc a7 c0 9f 3c
       -0.043514706 0.036781836 -0.026854642 0.019501043
000340 ce af 01 be 3e 20 0c be b2 c4 65 bd 02 e9 27 be
       -0.1266472 -0.13684174 -0.056095786 -0.16397479
000350 61 06 6a 3c 5e 8c dd bd fe 04 d8 bd e7 76 63 bd
       0.014283747 -0.108177885 -0.10547827 -0.055533316
000360 e4 ea a7 3c 08 ab 15 bd 71 bd 2d bd a9 fb a3 bd
       0.020497747 -0.03654006 -0.042416994 -0.08006985
000370 3c 40 18 be 2d 75 47 3d b6 1b 1a be ce 86 15 be
       -0.14868253 0.048695732 -0.15049633 -0.14602205
000380 5b 5d 8e bd c8 cf 1c be eb 4a be bd b9 10 0f be
       -0.069514 -0.15313637 -0.09291633 -0.13971223
000390 68 57 69 bd 1c fb ac bd e8 90 da bc e7 f1 82 bb
       -0.056968123 -0.08446333 -0.026680425 -0.003996122
0003a0 05 42 be 3d 57 26 06 bd 18 a4 2f bd 6f be a2 bc
       0.09289936 -0.032751407 -0.0428811 -0.019866196
0003b0 6e 7f 3f bd 22 89 eb 3c 57 96 83 bd 52 31 9d bd
       -0.046752386 0.028751913 -0.064251594 -0.07675423
0003c0 5b 0a 98 bd b6 e8 cd 3d 5a 46 b7 bc 22 cc c4 bd
       -0.0742385 0.10054152 -0.022372413 -0.09609248
0003d0 d2 31 eb bd eb 98 34 bd e3 28 74 bd c9 12 8a 3c
       -0.11484112 -0.044091146 -0.059609305 0.01685466
0003e0 bf 77 08 be e3 b4 1f be 3e b0 54 bd dd 58 d8 3c
       -0.1332693 -0.15596347 -0.05192589 0.02640956
0003f0 91 bf 8d 3c e5 e2 0c 3e fb a7 a6 3c 46 22 26 bd
       0.01730326 0.13758428 0.020343771 -0.04056003

layer3.bias f4 [128]
000000 d0 5e cd bd 0e b6 51 bd da 4f 1f be fe 3e 60 bd
       -0.1002785 -0.05119901 -0.15557805 -0.054747574
000010 de 6d 88 bd 3f bd c1 bd b6 09 e0 bd bb 29 26 be
       -0.066615805 -0.09459924 -0.10939352 -0.16226856
000020 e4 20 a7 bd 6a f1 e4 bb ab db c7 bd e8 94 92 be
       -0.0816057 -0.0069867866 -0.09758695 -0.2862923
000030 e6 0e cd bd 4f 1e 38 be 12 b6 cc bd 90 84 f9 bd
       -0.10012607 -0.17980312 -0.09995665 -0.121834874
000040 48 b9 1b bd ce 85 02 be fd 73 3b be 8a d3 f0 3d
       -0.038018495 -0.12746355 -0.18305965 0.11759098
000050 e3 ce 51 be a5 9e ce bd b5 45 81 be 17 17 0e be
       -0.20489077 -0.10088853 -0.25248495 -0.13875996
000060 73 80 0f bd 34 bc 03 be bf 32 a0 be 71 0b ff 3d
       -0.035034608 -0.12864763 -0.31288716 0.12453354
000070 12 ad 18 be ce a5 57 be 2d 2b 4a be 3e f1 4f 3e
       -0.14909771 -0.21059343 -0.19743033 0.2030687
000080 b6 26 c0 bd 0b 2e b1 bd 1d 68 65 be 2b b7 68 be
       -0.093823835 -0.0865136 -0.22402997 -0.22726123
000090 b1 70 49 be 4b fb 08 3e a1 a2 6c be 9a 3b 32 be
       -0.19671895 0.1337711 -0.23108913 -0.17405549
0000a0 6f ce 1d be b7 15 54 be 97 04 1e be e7 14 06 be
       -0.1541078 -0.20711409 -0.15431438 -0.13093911
0000b0 aa 0d 13 3e f2 43 18 be 38 c8 54 be dc 35 1e be
       0.14360681 -0.14869669 -0.20779502 -0.15450233
0000c0 1c 2e 3d 3d 9b 51 39 be f0 7d 71 bd 69 ad ba bd
       0.04618655 -0.18097536 -0.058957994 -0.091151066
0000d0 61 ba 03 be 0a 0e 15 be 27 0f d3 bd 35 47 42 be
       -0.12864067 -0.14556137 -0.103056245 -0.18972476
0000e0 1a 6f 15 be 9d b4 a8 bd db 1a 32 be dd 99 18 be
       -0.14593163 -0.08237574 -0.17393057 -0.14902444
0000f0 ac 4c 0c be 0b c1 1e bd be d5 99 bd 83 0b 46 be
       -0.13701123 -0.03875832 -0.07511471 -0.19340329
000100 f1 00 99 3b f9 8e 4d be e5 64 be bd 18 97 cb bd
       0.0046693017 -0.20074071 -0.09296588 -0.09940928
000110 87 b1 90 bd 5d 02 b7 bd 46 7a 0d be dd c6 35 be
       -0.07065111 -0.08935998 -0.13816175 -0.17751642
000120 9d ac f7 bd 76 39 10 be 92 3f 1d be 63 00 ce bd
       -0.1209347 -0.1408442 -0.15356281 -0.100586675
000130 36 ae 20 be cf e4 2e be 60 10 f7 bd 34 c1 86 be
       -0.15691456 -0.17079471 -0.1206367 -0.26319277
000140 fc 8c 61 3e 17 87 df bd 78 f0 54 be 83 14 64 3e
       0.22026438 -0.10914438 -0.20794857 0.2227345
000150 b8 d0 66 bd 3c 2d 24 be 24 6f 0d be 8e 25 31 be
       -0.056351393 -0.1603288 -0.13811928 -0.17299482
000160 6f cd db bc e9 13 bf 3c fd 17 ed bd 46 96 b2 bd
       -0.026831357 0.023324924 -0.11576841 -0.08720069
000170 6b 07 c3 bd 4b 62 17 bd 53 02 59 be 28 63 29 be
       -0.09522899 -0.036958974 -0.21192293 -0.16541731
000180 a0 1c 6b be 6f 0f 18 be 71 3c 4e be 37 3a 13 be
       -0.22960138 -0.14849637 -0.20140244 -0.14377676
000190 e6 71 10 be 64 7a 6c be 6a f7 e1 bd 6b 47 3d be
       -0.14105949 -0.23093563 -0.110335186 -0.18484275
0001a0 8a fc c2 bd b3 d6 02 be 16 db 23 be 37 03 85 bc
       -0.09520824 -0.12777214 -0.16001543 -0.016236885
0001b0 ff 76 9a bd 70 05 ed bc 56 89 33 bd fc 03 0e be
       -0.07542228 -0.028933257 -0.043832146 -0.13868707
0001c0 df b0 ed bd 79 03 a1 bd 2e cd 20 be 4e 7e c7 bd
       -0.11606001 -0.078619905 -0.1570327 -0.097408876
0001d0 e7 a6 d0 bd 4a f8 7f be da 46 05 be f3 87 59 be
       -0.10188084 -0.24997059 -0.13015309 -0.21243267
0001e0 55 27 82 be 86 47 eb bd cb 53 f3 bd e8 75 2a be
       -0.25420633 -0.114882514 -0.118812166 -0.1664654
0001f0 f2 50 2d be 21 45 65 be e6 18 07 be 9f 3d 0a be
       -0.1692541 -0.22389652 -0.13193092 -0.13500069

layer4.weight f4 [22, 128]
000000 31 9d 97 3d 5f 3a 3e 3d 85 c2 c1 bd ef 64 c3 3d
       0.07403029 0.046442386 -0.0946093 0.09540736
000010 03 e3 8c 3d 2b 75 f5 3c c9 f1 bf bb 3f 01 27 ba
       0.068792365 0.029963097 -0.0058576805 -0.000637073
000020 e9 8b 8a bd 23 88 c6 3d 30 1a 79 bc 41 1d b5 3e
       -0.06764967 0.09693935 -0.0152039975 0.3537388
000030 8d 6b fb 3d 02 95 4a bd 19 bc 9f bc 06 70 8d bd
       0.12276373 -0.04945851 -0.019498872 -0.069061324
000040 67 13 65 bc e4 b2 85 bd 97 ce 1b bd 83 6a 0f bc
       -0.013981677 -0.06528261 -0.038038816 -0.008753422
000050 e2 e6 b3 bd 46 e6 a5 3d 03 32 16 3e e2 01 97 bd
       -0.08784272 0.08100562 0.14667515 -0.07373406
000060 94 99 3e 3d 18 51 53 bc 8d f9 90 be b9 a2 b0 3d
       0.046533182 -0.012897752 -0.28315392 0.08624787
000070 0e 70 81 3d c6 fe f2 3b 87 3d 73 bd 12 fc 16 be
       0.06320201 0.0074156253 -0.05938485 -0.14744595
000080 a6 28 32 3e e0 b3 d6 bd 2b df bb bd 9a ce ce 3d
       0.17398319 -0.10483527 -0.09173425 0.10098
000090 32 c2 22 be 18 70 c5 bc e8 34 54 3c 06 85 95 bd
       -0.15894392 -0.024101302 0.012952067 -0.07300763
0000a0 a2 25 6b 3d df 9b 8b bd b2 52 4e 3d 45 da cc bb
       0.057408936 -0.068168394 0.050371833 -0.0062516057
0000b0 e9 7e 62 3c 51 44 91 3d 48 24 7c bd d6 80 46 bd
       0.013824203 0.070931084 -0.061558038 -0.04846271
0000c0 f0 23 0d 3b b2 d2 9b 3c a9 4b 39 be c6 83 22 3d
       0.0021536313 0.019021366 -0.18095268 0.03967645
0000d0 95 e9 d5 be fb c8 cb bc 51 eb 12 3e a6 19 03 be
       -0.4177977 -0.024876108 0.14347579 -0.12802753
0000e0 83 89 01 3d f1 38 ca 3d d0 30 cf bd 2a ef 57 3b
       0.031625282 0.09874142 -0.10116732 0.003294895
0000f0 00 4c 28 bd aa d0 b0 3d 96 f5 81 3d 2a c4 6b 3c
       -0.041088104 0.086335495 0.0634567 0.014390031
000100 f5 5f bc bc 70 1f 42 3c 0e a7 6f bc c7 a1 2d be
       -0.022994975 0.011848316 -0.014627231 -0.16956244
000110 7b 3b 3e bd c6 6c 38 bd 79 db 7e 3d 1c af eb 3c
       -0.046443444 -0.04502561 0.062221024 0.028770022
000120 a2 c9 58 3c 1d 49 b9 3c 0f 5d 15 bd aa 22 ef bd
       0.013231667 0.022617871 -0.0364657 -0.116765335
000130 16 37 43 bd 87 21 eb 3c e9 f6 73 3d 3a 58 42 3e
       -0.047659956 0.02870251 0.059561644 0.18978968
000140 19 c8 0d 3d 11 c3 84 3d 97 48 6a 3d 2f 49 aa 3a
       0.034614656 0.064825185 0.057198133 0.0012991781
000150 7d 8a 9d bd 20 85 09 be c2 a0 2a 3e eb 32 c8 bd
       -0.0769243 -0.1342969 0.16662887 -0.09775337
000160 e0 0f 03 bd ed 8a 71 3d b8 4f 05 3b 73 d2 0e 3d
       -0.03199756 0.05897038 0.0020341706 0.03486867
000170 e4 ff eb 3d f1 b9 1b 3d 9a 45 0e bd 03 d9 91 3d
       0.11523417 0.038019124 -0.034734346 0.0712147
000180 b2 a8 e9 3c a7 56 40 3d 86 52 b7 3c 4b c5 26 bd
       0.028522823 0.046957638 0.022378217 -0.040715497
000190 c4 1d f2 bc c0 9f 15 3d 72 e1 35 bc a5 fc 66 3d
       -0.029555209 0.036529303 -0.011101114 0.056393284
0001a0 d9 33 47 be 5b 76 82 bd ec 47 26 3d 80 6c b2 3d
       -0.19453372 -0.06370231 0.040595934 0.08712101
0001b0 f3 2a 60 3b 40 5d 31 bc 06 c5 e5 3c c7 1a c5 bd
       0.0034205287 -0.010825455 0.02804805 -0.09624248
0001c0 be 1f 6a bc a5 4b 1c 3d d3 72 8c bd d5 a9 00 bc
       -0.0142897945 0.038158078 -0.068578385 -0.007852991
0001d0 33 bd 3a 3e bb 7d 56 bd 44 9d e4 bb f1 73 8f 3d
       0.18236236 -0.052366 -0.0069767553 0.07004536
0001e0 b3 19 50 3d ab 17 70 bd 25 89 5c bc 60 fa 4d 3d
       0.05080576 -0.05861632 -0.013460432 0.050287604
0001f0 fe cf fb bc b7 44 8a 3d 38 35 38 3d 88 de 07 be
       -0.030738827 0.067513876 0.04497263 -0.13268483
000200 99 73 e3 bd 38 71 96 bd 6e ac 2a bd 1d bc 09 bd
       -0.11106033 -0.073458135 -0.041668348 -0.033626664
000210 91 d8 90 3d 26 a4 01 3d 81 28 90 bc 65 c0 43 be
       0.07072557 0.031650685 -0.017597439 -0.19116361
000220 d4 e1 26 bd ee fe f6 3c da b4 52 bd 3f c9 c3 3d
       -0.04074271 0.030150857 -0.051442005 0.09559869
000230 16 a0 fe 3d c3 8b 13 3e 23 24 a2 3d 3e fd 5b 3d
       0.12432878 0.14408784 0.07917049 0.053708307
000240 83 8e 17 3d 52 ac e8 3d 87 83 ba 3d 53 72 c3 3c
       0.037001144 0.113609925 0.09107118 0.023858225
000250 a3 a9 c4 be 9e 5a be 3d b3 49 f7 38 78 11 15 3e
       -0.38410673 0.092946276 0.00011791605 0.14557445
000260 2a b8 cf 3d 14 f5 47 3c 52 5b 20 3e 9b c4 64 be
       0.101425484 0.012204427 0.15659836 -0.22340624
000270 61 0e 1a be 9c c1 69 3b 2a a3 25 bd d1 5a ec 3b
       -0.15044548 0.0035668379 -0.04043881 0.0072129746
000280 a1 47 6f 3d ae 87 81 3d f7 1e 00 be 21 90 0c be
       0.05841792 0.06324707 -0.12511812 -0.13726856
000290 33 3d 1d 3d 24 db d6 bc df d7 4a bd ee da 14 3a
       0.038388442 -0.026227541 -0.049522277 0.0005678375
0002a0 84 15 ec 3d 5e 90 6f 3d 7e 98 ae 3d 1e 92 53 be
       0.11527541 0.05848729 0.08525179 -0.20661208
0002b0 2b a9 9e bd 97 69 6f 3e aa 09 80 3d 21 3b 80 3d
       -0.0774711 0.23380123 0.06251843 0.06261278
0002c0 fd 75 08 bd 2c 4f 05 3d 3a 61 e2 bd 68 66 ab 3e
       -0.033315647 0.032546207 -0.11053701 0.33476567
0002d0 0b fc 4c 3e 34 9b 93 bc 1e e5 ff bc 89 62 02 3e
       0.20018022 -0.018018343 -0.031237181 0.127329
0002e0 a3 f7 93 3d 2e a7 ab 3d 6e ef 2e 3d dc 08 26 3d
       0.07224967 0.08381496 0.042708807 0.040535793
0002f0 a5 19 ed 3d 22 8f 63 bd 6c 74 4d 3d 69 8c 7b bc
       0.11577157 -0.055556424 0.050159857 -0.015353301
000300 eb ad 8a bc 55 52 eb 3c ce ef 37 3c 1c e0 90 be
       -0.016928634 0.028725782 0.0112266075 -0.28295982
000310 f0 c4 01 3e 1a 0f 52 3d 9d d7 93 bd e6 e8 0c 3d
       0.12672782 0.051283933 -0.07218859 0.034401797
000320 b5 8a 50 be 39 db cd bd 7b d8 1a bb 20 b0 3e bc
       -0.20365413 -0.10051579 -0.0023627568 -0.011638671
000330 69 cd e3 3c cc d2 11 bd fc 11 a5 3c 09 8b 00 3c
       0.027807908 -0.035601422 0.020150177 0.007845649
000340 3c 3f 5b bd ac 07 41 bd c6 dc a6 3d 67 87 63 bd
       -0.053527102 -0.047126457 0.08147578 -0.05554905
000350 7e c4 73 bd 4a 7a d3 3d f9 fb ac be e1 9c 8c 3c
       -0.05951356 0.10326059 -0.3378599 0.01716465
000360 81 d5 e7 3d c0 5a 91 3d 22 9e 4c 3d b5 ef 6e 3d
       0.113200195 0.07097387 0.049955495 0.05833407
000370 2d fb 82 bd da 8c 99 bd c3 a8 9d 3d 29 32 de be
       -0.06395564 -0.074975684 0.07698204 -0.43397644
000380 85 88 5d bd 5c df 1a 3e 51 8d e1 bd 9d 4a f6 bb
       -0.054085273 0.15124267 -0.11013282 -0.007516219
000390 3b 5a c5 3d a5 d0 e2 bc 2d dc 1b 3d 96 e1 bb 3d
       0.09636351 -0.02768738 0.038051773 0.091738865
0003a0 01 e9 f5 3d a6 75 9d bd 37 06 8f bd 86 8f cf bd
       0.120073326 -0.07688455 -0.06983607 -0.10134797
0003b0 c3 2f 13 3d 82 f1 a5 3d 89 7c d5 3b 4d c3 00 b8
       0.03593422 0.081027046 0.00651509 -3.0699466e-05
0003c0 c2 82 f5 bb 22 37 c2 bc 8f 08 1d bd 49 7a 3f bd
       -0.007492394 -0.02370793 -0.03833824 -0.04674748
0003d0 22 f9 fa bd b2 39 88 bd 86 c0 bf 3d 8e 25 13 3e
       -0.122545496 -0.066516295 0.09362893 0.14369795
0003e0 6d 00 b7 3d da 0f 33 bd 71 28 2c 3e 41 f3 0a bd
       0.08935628 -0.04371629 0.16812302 -0.03392339
0003f0 8d 8d e1 bc f9 1d e2 bd 49 3f ad bd ca cf 18 3d
       -0.027533317 -0.11040873 -0.08459336 0.037307538

layer4.bias f4 [22]
000000 c6 79 01 3d ab 2a 23 3c 6a 40 ae 3d 72 09 d2 3c
       0.031610273 0.009958903 0.0850838 0.02563927
000010 03 b5 dc 3c 26 2e 0e 3d 5f 40 45 3d 9f b0 c8 3d
       0.026941782 0.03471198 0.048157092 0.09799313
000020 f2 69 78 3c ec 9b 78 3d de ca 1c 3d 40 ef 15 3d
       0.015161978 0.060695574 0.038279407 0.03660512
000030 4b c0 2f 3e 50 60 42 3d 84 be 3d 3d 5b b5 88 3d
       0.17163198 0.047455132 0.046324268 0.06675216
000040 70 b7 c3 3d be 72 3e 3e e3 1c a1 3c c6 c2 ef 3d
       0.09556472 0.18598458 0.019667095 0.11707072
000050 53 45 8e 3d a4 7f 8e 3d
       0.06946816 0.06957939

exp_avg f4 [32, 22]
000000 f4 57 4f 14 b0 2e 1f 95 3a 0b 3e 11 5f bf dd 13
       1.0468175e-26 -3.2146624e-26 1.4991817e-28 5.597695e-27
000010 0e da e0 12 18 3f ff 13 11 a1 30 14 9e 1f 62 14
       1.4190142e-27 6.4433265e-27 8.917494e-27 1.14163195e-26
000020 8a 07 46 14 1f 2a 2a 14 88 a4 2d 14 15 89 4d 12
       9.997932e-27 8.5911136e-27 8.766716e-27 6.485556e-28
000030 3a 0b be 11 5f bf 5d 14 0e da 60 13 18 3f 7f 14
       2.9983633e-28 1.119539e-26 2.8380284e-27 1.2886653e-26
000040 11 a1 b0 14 9e 1f e2 14 8a 07 c6 14 1f 2a aa 14
       1.7834988e-26 2.2832639e-26 1.9995864e-26 1.7182227e-26
000050 88 a4 ad 14 15 89 cd 12 3c ae 24 0d 70 83 97 8c
       1.7533432e-26 1.2971112e-27 5.074613e-31 -2.334434e-31
000060 29 91 25 0c fb 56 46 0c ac 93 91 8c d2 39 78 8b
       1.275482e-31 1.527954e-31 -2.2429664e-31 -4.7806562e-32
000070 8b 6f 01 0c 66 73 36 0b f2 6d 15 0c b4 42 83 8b
       9.971365e-32 3.513874e-32 1.1511628e-31 -5.055973e-32
000080 60 8b 4a 8c 06 0a 03 8d 29 91 a5 0c fb 56 c6 0c
       -1.5603456e-31 -4.0379557e-31 2.550964e-31 3.055908e-31
000090 ac 93 11 8d d2 39 f8 8b 8b 6f 81 0c 66 73 b6 0b
       -4.485933e-31 -9.5613124e-32 1.994273e-31 7.027748e-32
0000a0 f2 6d 95 0c b4 42 03 8c 60 8b ca 8c 06 0a 83 8d
       2.3023256e-31 -1.0111946e-31 -3.1206911e-31 -8.075911e-31
0000b0 89 68 8c b6 d9 8d 6a 36 0f 7c ba 34 d1 6b 8e b5
       -4.1844946e-06 3.4951283e-06 3.4735464e-07 -1.0611203e-06
0000c0 e1 cd 04 b7 a0 b3 87 b5 f8 e4 e5 b6 55 e3 37 b7
       -7.915748e-06 -1.0110562e-06 -6.8513873e-06 -1.096058e-05
0000d0 94 62 74 36 e1 69 cb b5 fe 94 7b b6 0f 0e 99 b6
       3.6416213e-06 -1.5155493e-06 -3.748864e-06 -4.561392e-06
0000e0 0f 7c 3a 35 d1 6b 0e b6 e1 cd 84 b7 a0 b3 07 b6
       6.947093e-07 -2.1222406e-06 -1.5831496e-05 -2.0221123e-06
0000f0 f8 e4 65 b7 55 e3 b7 b7 94 62 f4 36 e1 69 4b b6
       -1.3702775e-05 -2.192116e-05 7.2832427e-06 -3.0310987e-06
000100 fe 94 fb b6 0f 0e 19 b7 8e d3 41 b8 c4 74 35 38
       -7.497728e-06 -9.122784e-06 -4.621181e-05 4.326251e-05
000110 35 b4 87 b8 5b 3d 56 b8 1c 6e 5a b8 7e f9 cc b8
       -6.470868e-05 -5.1078718e-05 -5.2077798e-05 -9.7739496e-05
000120 b1 e9 9b b8 fa 8b b4 b8 33 3a 74 b8 73 75 2e b8
       -7.4345044e-05 -8.6091415e-05 -5.8228336e-05 -4.1594216e-05
000130 7e c3 a2 b8 66 ea 42 b8 35 b4 07 b9 5b 3d d6 b8
       -7.761175e-05 -4.6471505e-05 -0.00012941736 -0.000102157435
000140 1c 6e da b8 7e f9 4c b9 b1 e9 1b b9 fa 8b 34 b9
       -0.000104155595 -0.00019547899 -0.00014869009 -0.00017218283
000150 33 3a f4 b8 73 75 ae b8 7e c3 22 b9 66 ea c2 b8
       -0.00011645667 -8.318843e-05 -0.0001552235 -9.294301e-05
000160 ff 9e 44 b4 93 72 3e b4 57 bb 48 b4 2f c7 4a b4
       -1.8311765e-07 -1.7736811e-07 -1.8694605e-07 -1.8885179e-07
000170 37 43 b0 b2 84 da 6f b4 8b cd d1 b3 b4 37 7c b4
       -2.0519662e-08 -2.2338105e-07 -9.769709e-08 -2.3489594e-07
000180 ab 98 6f b4 ca 73 68 b4 f8 92 76 b4 91 68 56 b4
       -2.231415e-07 -2.1648808e-07 -2.2964002e-07 -1.9968344e-07
000190 57 bb c8 b4 2f c7 ca b4 37 43 30 b3 84 da ef b4
       -3.738921e-07 -3.7770357e-07 -4.1039325e-08 -4.467621e-07
0001a0 8b cd 51 b4 b4 37 fc b4 ab 98 ef b4 ca 73 e8 b4
       -1.9539418e-07 -4.6979187e-07 -4.46283e-07 -4.3297615e-07
0001b0 f8 92 f6 b4 91 68 d6 b4 f8 b7 7e 38 c5 21 61 38
       -4.5928005e-07 -3.9936688e-07 6.0729653e-05 5.367563e-05
0001c0 8b b6 e2 37 f8 1a 9f 38 d5 d1 33 38 a5 8d 4b 38
       2.7026303e-05 7.586734e-05 4.2872347e-05 4.853089e-05
0001d0 e1 b7 82 38 b6 ff 21 38 6c 97 47 38 be 94 68 38
       6.233133e-05 3.862354e-05 4.758632e-05 5.5451637e-05
0001e0 66 48 82 38 fd d5 0a 38 8b b6 62 38 f8 1a 1f 39
       6.212368e-05 3.3101056e-05 5.4052605e-05 0.00015173468
0001f0 d5 d1 b3 38 a5 8d cb 38 e1 b7 02 39 b6 ff a1 38
       8.5744694e-05 9.706178e-05 0.00012466266 7.724708e-05
000200 6c 97 c7 38 be 94 e8 38 66 48 02 39 fd d5 8a 38
       9.517264e-05 0.000110903275 0.00012424737 6.620211e-05
000210 b7 f6 13 82 56 65 1c 82 a7 d7 12 82 f5 6f 1d 82
       -1.0870658e-37 -1.1490152e-37 -1.0788275e-37 -1.1566668e-37
000220 f5 35 19 02 cb e8 11 82 d0 0e 15 02 fc d2 15 02
       1.125615e-37 -1.0719726e-37 1.0951042e-37 1.1007341e-37
000230 e2 01 13 02 12 7c 13 82 e4 2e 19 02 fb 98 10 02
       1.0800395e-37 -1.0835461e-37 1.1254122e-37 1.0623352e-37
000240 7e 13 1c 82 85 9a 16 82 7a 8f 12 02 9d 15 1b 82
       -1.1466664e-37 -1.1064604e-37 1.0767562e-37 -1.1393804e-37
000250 50 6e 1e 02 d2 3e 1f 02 61 40 1c 02 3f c2 1c 82
       1.1639665e-37 1.1699504e-37 1.1479546e-37 -1.1516816e-37
000260 b9 88 12 02 af b0 19 02 7e 9a 5f b6 ee 92 19 36
       1.0765623e-37 1.129137e-37 -3.3319516e-06 2.28843e-06
000270 d3 f7 22 35 58 1c 11 b3 0a bb 2f 35 ac e4 96 35
       6.0710335e-07 -3.3786222e-08 6.546476e-07 1.1242423e-06
000280 0c 87 30 31 bf 78 7a b5 15 19 fe b5 72 10 84 b5
       2.5688136e-09 -9.3307966e-07 -1.8931775e-06 -9.839553e-07
000290 80 c3 55 b5 b4 14 dc 34 d3 f7 a2 35 58 1c 91 b3
       -7.9633173e-07 4.0993257e-07 1.2142067e-06 -6.7572444e-08
0002a0 0a bb af 35 ac e4 16 36 0c 87 b0 31 bf 78 fa b5
       1.3092952e-06 2.2484846e-06 5.137627e-09 -1.8661593e-06
0002b0 15 19 7e b6 72 10 04 b6 80 c3 d5 b5 b4 14 5c 35
       -3.786355e-06 -1.9679105e-06 -1.5926635e-06 8.1986514e-07
0002c0 2d 58 15 82 41 c2 12 02 0d 0b 18 02 da e0 18 02
       -1.0972096e-37 1.0782134e-37 1.1170368e-37 1.1231726e-37
0002d0 c4 bd 11 82 0e b2 1a 82 94 06 13 82 12 e7 1a 82
       -1.0707378e-37 -1.1365232e-37 -1.0801742e-37 -1.1380447e-37
0002e0 96 5c 18 82 88 42 1b 02 69 b0 12 82 0f 4a 15 82
       -1.1193767e-37 1.1406695e-37 -1.0777013e-37 -1.0968045e-37
0002f0 8c 71 11 02 12 3e 12 02 e1 e7 1a 82 14 fb 13 82
       1.0685504e-37 1.0744199e-37 -1.1380679e-37 -1.087191e-37
000300 5e 45 1c 82 cb 2d 14 82 8c bf 11 82 4a 85 14 02
       -1.1480977e-37 -1.0886465e-37 -1.0707889e-37 1.0911575e-37
000310 c8 e9 1b 82 4b ad 1e 82 81 c1 02 0b d0 1b 54 8b
       -1.1454693e-37 -1.1657739e-37 2.5182665e-32 -4.085064e-32
000320 af 8b 45 0b 0f e9 dd 07 f8 62 a0 0b 4a 90 dd 89
       3.8045906e-32 3.3389364e-34 6.177867e-32 -5.3339503e-33
000330 02 f2 00 0b 6c c3 b9 0a 07 a4 02 0c 0f 83 c3 8a
       2.483397e-32 1.7888362e-32 1.0064196e-31 -1.8827116e-32
000340 ae c1 18 0b 95 07 16 8a af 8b c5 0b 0f e9 5d 08
       2.9419844e-32 -7.223663e-33 7.609181e-32 6.6778727e-34
000350 f8 62 20 0c 4a 90 5d 8a 02 f2 80 0b 6c c3 39 0b
       1.2355734e-31 -1.0667901e-32 4.966794e-32 3.5776723e-32
000360 07 a4 82 0c 0f 83 43 8b ae c1 98 0b 95 07 96 8a
       2.0128392e-31 -3.765423e-32 5.883969e-32 -1.4447327e-32
000370 d6 07 90 b6 66 dd 20 37 20 ac 0e 31 cb 6f d3 35
       -4.2924466e-06 9.5882915e-06 2.0761561e-09 1.5753261e-06
000380 0d 5f 59 b4 a8 e4 a8 b3 e9 6f 41 b4 90 63 9d b5
       -2.0244279e-07 -7.864702e-08 -1.8015238e-07 -1.1726388e-06
000390 03 b5 b6 b4 21 4a 94 35 b8 2e 88 b4 20 cb 68 b3
       -3.4031845e-07 1.1048434e-06 -2.5365966e-07 -5.420145e-08
0003a0 20 ac 8e 31 cb 6f 53 36 0d 5f d9 b4 a8 e4 28 b4
       4.1523123e-09 3.1506522e-06 -4.0488558e-07 -1.5729404e-07
0003b0 e9 6f c1 b4 90 63 1d b6 03 b5 36 b5 21 4a 14 36
       -3.6030477e-07 -2.3452776e-06 -6.806369e-07 2.2096867e-06
0003c0 b8 2e 08 b5 20 cb e8 b3 81 ab ab b7 e5 b2 33 b8
       -5.073193e-07 -1.084029e-07 -2.0464651e-05 -4.2843534e-05
0003d0 6d f0 23 b7 9d be e9 36 ea 37 1a b6 88 1a a7 b7
       -9.771536e-06 6.9661314e-06 -2.2980335e-06 -1.9920306e-05
0003e0 18 d4 af b6 ec 98 38 b7 f7 99 dd b6 18 db aa 36
       -5.2400974e-06 -1.10028595e-05 -6.604237e-06 5.0919007e-06
0003f0 6d 6d 96 b6 98 1f 4c b6 6d f0 a3 b7 9d be 69 37
       -4.483087e-06 -3.0416759e-06 -1.9543071e-05 1.3932263e-05

exp_avg_sq f4 [32, 22]
000000 50 01 40 2e c1 93 8d 2f 64 fa 23 2e cb 5d 5b 2d
       4.365691e-11 2.5752736e-10 3.72843e-11 1.2469535e-11
000010 54 20 31 2d 03 35 70 2e 25 2b 57 2e e8 1a 68 2e
       1.0068463e-11 5.4616766e-11 4.892366e-11 5.277459e-11
000020 42 a0 55 2d 5e 59 62 2e c1 bf 30 2e f4 11 bf 2d
       1.2143233e-11 5.1465825e-11 4.018808e-11 2.1722159e-11
000030 64 fa 23 2f cb 5d 5b 2e 54 20 31 2e 03 35 70 2f
       1.491372e-10 4.987814e-11 4.0273854e-11 2.1846706e-10
000040 25 2b 57 2f e8 1a 68 2f 42 a0 55 2e 5e 59 62 2f
       1.9569464e-10 2.1109836e-10 4.857293e-11 2.058633e-10
000050 c1 bf 30 2f f4 11 bf 2e 0f 2e 2e 30 ef df b7 2d
       1.6075231e-10 8.6888635e-11 6.3366284e-10 2.0904138e-11
000060 40 3a d9 2f 29 c7 ff 2f a4 ec fe 2e da f1 15 30
       3.951346e-10 4.6525742e-10 1.15926185e-10 5.4549576e-10
000070 90 3a e9 2d fa fc ee 2f af 50 13 30 1d 01 36 2e
       2.651504e-11 4.3471698e-10 5.3592947e-10 4.1382998e-11
000080 43 4d 24 30 6c 23 34 30 40 3a d9 30 29 c7 ff 30
       5.977265e-10 6.5533956e-10 1.5805384e-09 1.8610297e-09
000090 a4 ec fe 2f da f1 15 31 90 3a e9 2e fa fc ee 30
       4.6370474e-10 2.181983e-09 1.0606016e-10 1.7388679e-09
0000a0 af 50 13 31 1d 01 36 2f 43 4d 24 31 6c 23 34 31
       2.1437179e-09 1.6553199e-10 2.390906e-09 2.6213582e-09
0000b0 2a be 98 31 42 a2 44 32 37 00 5d 31 ab da 97 31
       4.4454014e-09 1.1445595e-08 3.2159855e-09 4.419538e-09
0000c0 79 5d 1c 31 db 63 1f 31 3b 9e 20 31 b4 fc 07 31
       2.275412e-09 2.3194306e-09 2.3373008e-09 1.978873e-09
0000d0 30 49 4d 31 5a 03 22 31 b7 9b 6d 31 ae 21 4a 31
       2.9873028e-09 2.3576008e-09 3.4576553e-09 2.9414013e-09
0000e0 37 00 5d 32 ab da 97 32 79 5d 1c 32 db 63 1f 32
       1.2863942e-08 1.7678152e-08 9.101648e-09 9.277723e-09
0000f0 3b 9e 20 32 b4 fc 07 32 30 49 4d 32 5a 03 22 32
       9.349203e-09 7.915492e-09 1.1949211e-08 9.430403e-09
000100 b7 9b 6d 32 ae 21 4a 32 43 1b c6 32 5e 50 98 33
       1.3830621e-08 1.1765605e-08 2.3062631e-08 7.09267e-08
000110 6c bd 6b 32 a5 69 5f 32 51 37 5f 32 36 d8 72 32
       1.372187e-08 1.3004329e-08 1.2992886e-08 1.4135415e-08
000120 75 dd 7b 32 e6 2e 76 32 8b f9 69 32 1e d1 5b 32
       1.4660476e-08 1.4329748e-08 1.36191245e-08 1.27950255e-08
000130 93 f5 6a 32 6f 84 68 32 6c bd 6b 33 a5 69 5f 33
       1.367643e-08 1.3534289e-08 5.488748e-08 5.2017317e-08
000140 51 37 5f 33 36 d8 72 33 75 dd 7b 33 e6 2e 76 33
       5.1971544e-08 5.654166e-08 5.8641906e-08 5.7318992e-08
000150 8b f9 69 33 1e d1 5b 33 93 f5 6a 33 6f 84 68 33
       5.4476498e-08 5.1180102e-08 5.470572e-08 5.4137157e-08
000160 9d ec a7 2f 64 eb 18 30 50 f5 2b 2f ca 35 dc 2e
       3.0545247e-10 5.563179e-10 1.5639512e-10 1.00139966e-10
000170 91 f6 af 2e ac 34 d1 2e c5 94 0a 2f 58 6b 0b 2f
       8.0018776e-11 9.513576e-11 1.260388e-10 1.2680113e-10
000180 af 9d 62 2f ca e1 a5 2e 7a 6b cd 2e fb b6 0f 2f
       2.0610601e-10 7.5434395e-11 9.3414124e-11 1.3070782e-10
000190 50 f5 2b 30 ca 35 dc 2f 91 f6 af 2f ac 34 d1 2f
       6.255805e-10 4.0055986e-10 3.200751e-10 3.8054304e-10
0001a0 c5 94 0a 30 58 6b 0b 30 af 9d 62 30 ca e1 a5 2f
       5.041552e-10 5.072045e-10 8.2442403e-10 3.0173758e-10
0001b0 7a 6b cd 2f fb b6 0f 30 fe 86 d2 32 5b 6b 8e 33
       3.736565e-10 5.228313e-10 2.4508605e-08 6.631918e-08
0001c0 0e b7 6a 32 2f 20 81 32 85 04 56 32 ed 80 81 32
       1.36622145e-08 1.5032212e-08 1.2457467e-08 1.5076205e-08
0001d0 8a ec 7b 32 1f c8 81 32 d0 6e 8a 32 20 76 72 32
       1.4663906e-08 1.5108581e-08 1.6115706e-08 1.41131125e-08
0001e0 9a 7f 78 32 e1 59 7c 32 0e b7 6a 33 2f 20 81 33
       1.4464513e-08 1.4688767e-08 5.4648858e-08 6.012885e-08
0001f0 85 04 56 33 ed 80 81 33 8a ec 7b 33 1f c8 81 33
       4.982987e-08 6.030482e-08 5.8655623e-08 6.0434324e-08
000200 d0 6e 8a 33 20 76 72 33 9a 7f 78 33 e1 59 7c 33
       6.4462824e-08 5.645245e-08 5.7858053e-08 5.8755067e-08
000210 30 ee 57 29 86 f1 2a 29 94 e2 cc 2a dc 84 7c 2a
       4.7946185e-14 3.795707e-14 3.63949e-13 2.2428191e-13
000220 52 49 9b 29 fe 39 25 2a 8a 97 2e 29 d9 46 65 2a
       6.896102e-14 1.4675064e-13 3.87672e-14 2.0363866e-13
000230 e8 eb 9e 2a bf 6f 4b 2a f5 2f 55 29 ff 0c e5 2a
       2.823013e-13 1.8068792e-13 4.7337097e-14 4.068759e-13
000240 94 e2 cc 2b dc 84 7c 2b 52 49 9b 2a fe 39 25 2b
       1.455796e-12 8.9712764e-13 2.7584407e-13 5.8700256e-13
000250 8a 97 2e 2a d9 46 65 2b e8 eb 9e 2b bf 6f 4b 2b
       1.550688e-13 8.1455464e-13 1.1292052e-12 7.2275167e-13
000260 f5 2f 55 2a ff 0c e5 2b 5c 8a 0d 30 65 75 0c 31
       1.8934839e-13 1.6275036e-12 5.149212e-10 2.0439412e-09
000270 db fe e5 2f bd 9b 76 30 7b f0 d3 2f 2c 28 e0 2f
       4.1835943e-10 8.9715596e-10 3.8551548e-10 4.0773906e-10
000280 52 51 d9 2f 1e 3d 33 30 f0 0a 09 30 e6 a7 ef 2f
       3.9529852e-10 6.5206673e-10 4.9855853e-10 4.3593146e-10
000290 c3 21 d3 2f 29 f9 82 30 db fe e5 30 bd 9b 76 31
       3.8404666e-10 9.52956e-10 1.6734377e-09 3.5886238e-09
0002a0 7b f0 d3 30 2c 28 e0 30 52 51 d9 30 1e 3d 33 31
       1.5420619e-09 1.6309563e-09 1.5811941e-09 2.608267e-09
0002b0 f0 0a 09 31 e6 a7 ef 30 c3 21 d3 30 29 f9 82 31
       1.9942341e-09 1.7437258e-09 1.5361866e-09 3.811824e-09
0002c0 fb d7 e4 2e 59 36 6a 2d 77 c5 53 2c 84 f6 dc 2c
       1.04066054e-10 1.3313428e-11 3.0094518e-12 6.280145e-12
0002d0 1b ae db 2c 7b e8 a1 2c cc 76 3c 2c a0 02 a5 2c
       6.243684e-12 4.6017057e-12 2.6782352e-12 4.6898735e-12
0002e0 9b 5b 93 2c 4d 5d ae 2c 7b 7c 63 2c 30 28 80 2c
       4.1881615e-12 4.955736e-12 3.232774e-12 3.6424405e-12
0002f0 77 c5 53 2d 84 f6 dc 2d 1b ae db 2d 7b e8 a1 2d
       1.2037807e-11 2.512058e-11 2.4974736e-11 1.8406823e-11
000300 cc 76 3c 2d a0 02 a5 2d 9b 5b 93 2d 4d 5d ae 2d
       1.0712941e-11 1.8759494e-11 1.6752646e-11 1.9822944e-11
000310 7b 7c 63 2d 30 28 80 2d 56 22 86 2c fc 2d e0 2d
       1.2931096e-11 1.4569762e-11 3.812321e-12 2.5486273e-11
000320 53 b2 36 2c e1 73 70 2c 57 9d 2f 2c 00 f0 1f 2c
       2.5962745e-12 3.4170377e-12 2.4956337e-12 2.2728486e-12
000330 56 b2 d8 2b 5d 69 86 2c 65 ed be 2c 9b 89 c3 2c
       1.5397221e-12 3.8202067e-12 5.426481e-12 5.5575106e-12
000340 4b eb 1d 2c 05 1b 9b 2c 53 b2 36 2d e1 73 70 2d
       2.2441656e-12 4.4083647e-12 1.0385098e-11 1.3668151e-11
000350 57 9d 2f 2d 00 f0 1f 2d 56 b2 d8 2c 5d 69 86 2d
       9.982535e-12 9.091394e-12 6.1588885e-12 1.5280827e-11
000360 65 ed be 2d 9b 89 c3 2d 4b eb 1d 2d 05 1b 9b 2d
       2.1705924e-11 2.2230042e-11 8.976662e-12 1.7633459e-11
000370 44 27 b6 2e 0c b0 b1 2f 6f a4 0e 2e 11 84 25 2f
       8.283377e-11 3.23212e-10 3.243311e-11 1.5053582e-10
000380 f6 f6 03 2f fa 38 e0 2e b0 6c 25 2d 94 c0 e5 2e
       1.2002119e-10 1.0196462e-10 9.403298e-12 1.0447923e-10
000390 e5 7e d3 2e 0f 47 15 2f e6 d7 c8 2d 82 cf ed 2e
       9.61771e-11 1.3576716e-10 2.2833246e-11 1.0814373e-10
0003a0 6f a4 0e 2f 11 84 25 30 f6 f6 03 30 fa 38 e0 2f
       1.2973243e-10 6.021433e-10 4.8008475e-10 4.0785847e-10
0003b0 b0 6c 25 2e 94 c0 e5 2f e5 7e d3 2f 0f 47 15 30
       3.761319e-11 4.1791692e-10 3.847084e-10 5.4306865e-10
0003c0 e6 d7 c8 2e 82 cf ed 2f ae c8 a0 32 49 ef 4b 33
       9.133298e-11 4.3257492e-10 1.871771e-08 4.748225e-08
0003d0 4e 5a 56 32 20 f7 39 32 c8 45 49 32 1c 46 77 32
       1.2476972e-08 1.0824607e-08 1.1715606e-08 1.4393233e-08
0003e0 55 cc 60 32 51 37 62 32 23 60 2b 32 05 81 29 32
       1.3084976e-08 1.3167509e-08 9.975369e-09 9.86643e-09
0003f0 0b 30 34 32 70 c2 38 32 4e 5a 56 33 20 f7 39 33
       1.0488303e-08 1.075442e-08 4.990789e-08 4.3298428e-08
