checkpoints/MLP_bs32_lr0.001_win50-30-20_vTrue_scTrue_ep8.pth (torch, 178894 bytes, 24 tensors)

layer1.weight f4 [32, 22]
000000 f5 42 2f bb a6 89 ad 3e 4f c2 f7 3e 3a 1b e1 3e
       -0.002674279 0.3389408 0.48390433 0.43966085
000010 0a a1 57 3e c5 a3 4b be d3 2a ec bc 27 a2 c6 bf
       0.21057525 -0.19886692 -0.028829014 -1.5518235
000020 bb 3b 8b 3d f3 f5 29 bf 81 3e a5 bc 9d 29 41 3f
       0.06798502 -0.66390914 -0.020171406 0.7545412
000030 11 3e 27 3f 1f 7c db 3e e8 a7 34 3e c4 1f 33 bd
       0.6532908 0.42868134 0.17642176 -0.043731466
000040 d7 ed 63 3e ab 63 bc bf b5 32 be 3d 8e 14 4f bf
       0.22258697 -1.4717916 0.09287015 -0.8089074
000050 78 dd ad be 3d 23 17 3f 6b 2f ca be 90 1f 1c 3e
       -0.3395803 0.59038144 -0.39489302 0.15246415
000060 dd cb c2 be f0 f0 16 bf 52 9f ee be 58 29 79 3f
       -0.3804616 -0.5896139 -0.46605927 0.9732871
000070 2a c8 3f 3d 4c f0 23 3e 33 7c 1e be 1d de 23 bf
       0.04682175 0.16009635 -0.15477066 -0.6401079
000080 26 97 1a 3f 7f 2a a8 3f aa fe cf be cd 92 7a bf
       0.60386884 1.3137969 -0.4062398 -0.9788025
000090 f6 06 12 bf 97 35 5e 3f 0a 45 a1 bd dd 96 d3 bd
       -0.5704187 0.8680052 -0.07874496 -0.10331509
0000a0 2a ef d7 be 26 0c f6 be e3 f2 43 3f 08 f9 c0 3f
       -0.42174655 -0.48056144 0.7654249 1.5075998
0000b0 5b e0 fd 3d 04 22 25 bd 7b 15 2a bf 30 5a d3 3e
       0.12396308 -0.040315643 -0.66439027 0.41279745
0000c0 a8 02 bd 3d 59 e1 36 3e 39 67 04 bf 6e 35 03 be
       0.09229022 0.17859401 -0.51720005 -0.1281335
0000d0 0a 1a 86 bf 10 25 88 3e 4f c3 41 3f 49 c2 39 3f
       -1.0476696 0.26590776 0.7568864 0.7256208
0000e0 73 b2 24 bf f2 b7 bf 3e 7a 36 ec 3d 0a 08 6f be
       -0.6433479 0.37445027 0.11533828 -0.2334291
0000f0 c4 0c 80 be 68 34 64 be 59 56 50 bf 37 5b 8b 3d
       -0.2500974 -0.22285616 -0.81381756 0.06804507
000100 97 9b 6d 3f 21 f7 6f 3f 77 38 1b be e3 af f5 3c
       0.92815536 0.93736464 -0.15158258 0.029991096
000110 9a 96 86 3e 1c 4f 0b bf 93 d0 d2 bd 6e a8 f4 3d
       0.26286775 -0.54417586 -0.102936886 0.11946188
000120 5d 7b f3 3d d1 c2 c8 3e 43 aa 75 bf a2 ad 2d be
       0.11888764 0.39211133 -0.95962924 -0.16960767
000130 5e 37 c9 3c f2 13 9d be 3c b6 f6 3e bd 4a 1b bf
       0.024562534 -0.3067928 0.4818591 -0.60660917
000140 ea cb c2 3d 66 4f 4f 3e 8f 0f f8 3e c1 14 8f 3e
       0.0951155 0.20245132 0.4844937 0.2794552
000150 31 29 3b bf d4 d9 41 be 74 b0 4d 3e 1c fd 8f be
       -0.7310973 -0.18930751 0.20086843 -0.28122795
000160 15 4b 22 bf 33 51 fe be c0 f1 d8 3e e1 82 76 3d
       -0.63395816 -0.49671325 0.4237194 0.06018341
000170 e9 a3 32 bd e7 03 4c bd c2 7d 35 3f 44 18 0e 3f
       -0.04361335 -0.04980841 0.70895016 0.55505776
000180 8a 52 55 3f 89 7d da 3e a2 48 b5 3e 97 f1 a0 3e
       0.8332907 0.426739 0.35406977 0.31434318
000190 10 ae a5 3e 03 8b 6b bd c1 ea a5 bd 23 8a 63 3d
       0.32359362 -0.05750562 -0.081014164 0.05555166
0001a0 33 e7 aa 3e ca 3f a2 3e f2 4b 55 3f ac 46 39 3f
       0.33379516 0.31689292 0.8331901 0.7237346
0001b0 c8 34 72 3e 7b fc b8 3e 1c ca 91 3d 9f 1f 0b bd
       0.23652947 0.36130127 0.071186274 -0.033965703
0001c0 fc 16 61 be 0a 0c 99 be ef ce 50 bf 1e 31 4c 3e
       -0.21981424 -0.29891998 -0.81565756 0.19940612
0001d0 ea 71 9e 3e d8 9d c6 bc 1a 9a a1 3e 63 10 95 be
       0.30946285 -0.024245188 0.31562883 -0.29114065
0001e0 8d 3a 31 bd 5a 33 2e 3f 41 6a 76 be b5 47 01 be
       -0.04326873 0.68047106 -0.2406397 -0.1262501
0001f0 36 c6 3a bf 21 ff 22 3e 87 dc e9 3e 46 8b 64 bc
       -0.72958696 0.15917636 0.45676062 -0.013949221
000200 18 ca 5f bc 9f a1 35 be ba f1 55 be 4b c6 0c 3f
       -0.013659023 -0.17737435 -0.20892993 0.5499007
000210 94 4e 66 3e 92 d8 b1 3d c9 1b c5 be 18 09 90 bc
       0.22490913 0.08683886 -0.3849776 -0.017582461
000220 c1 3d 09 3e fa 55 4d bd b6 51 0d 3f bc 69 96 3e
       0.13402463 -0.05013082 0.55202806 0.29377544
000230 46 54 35 3e f2 1e 27 3d f6 7c 75 3f 7b fb d3 be
       0.17707929 0.040800996 0.958938 -0.41402802
000240 66 cc 01 bf 94 7a a1 bd d4 4e 21 3d 97 5d 43 be
       -0.5070251 -0.07884708 0.039381817 -0.1907867
000250 0f 85 32 3f 91 60 8e 3e 81 11 0e be 7f 2e ed 3d
       0.6973428 0.2780805 -0.13873865 0.11581134
000260 2d 83 3f 3f bf c8 e4 be 05 f2 2b be c2 19 85 be
       0.74809533 -0.44684407 -0.16791542 -0.25996214
000270 3c c4 c5 3e 3b ff 3a 3f df 51 97 3e 60 a5 ef 3e
       0.38626277 0.730457 0.2955465 0.4680586
000280 cb 3e b8 be 48 10 b6 bf ab 9b 29 3f 27 65 ee 3d
       -0.35985407 -1.4223719 0.66253155 0.11640387
000290 8f 40 1f 3f 13 b8 45 bf 65 62 ce 3e 12 4c 2b 3f
       0.62207884 -0.77234 0.40309444 0.6691295
0002a0 73 7a 0d 3f 5d 87 d5 3e 28 6b ae bd a2 19 ac bf
       0.5526497 0.41704836 -0.08516532 -1.3445323
0002b0 ee 10 27 3f 37 4a fd 3c d1 61 a7 3e a7 7c 5b bf
       0.6526021 0.030919177 0.32691815 -0.8573708
0002c0 49 6a e7 be 6f cb 9f bd 0a f5 28 bd a9 f5 ec 3e
       -0.45198277 -0.07802474 -0.041249312 0.46281174
0002d0 9b 23 2b 3f 3d 75 d6 3d b7 f1 c8 3e 2b 96 04 be
       0.66851205 0.1047158 0.39246914 -0.1294791
0002e0 29 00 5e bd 18 7a 05 be f8 15 82 bd 42 6e 35 3d
       -0.05419937 -0.13034856 -0.063518465 0.044294603
0002f0 f6 b3 04 be 1b 6c 16 3f 76 96 0f 3f ac 40 71 3e
       -0.12959275 0.58758706 0.5608896 0.23559827
000300 31 f0 1e 3f 21 5b 05 be 49 c7 75 be 40 d1 46 be
       0.62085253 -0.13023044 -0.24001803 -0.1941576
000310 8a da b5 bd 03 31 0e be e0 ba 92 3d d5 fe 2f 3e
       -0.08879574 -0.13885884 0.0716455 0.17187054
000320 c7 d0 60 3e 4e 1d 31 be 81 cf 80 3e cd 6a 12 bd
       0.21954642 -0.17296335 0.25158313 -0.035746384
000330 54 db 77 be e7 8c 94 3e 0d be 68 3d 00 7c e0 bf
       -0.24204761 0.2901375 0.05682187 -1.7537842
000340 39 1b db 3e f1 87 15 be df 84 16 3e 6f 95 d6 3d
       0.42794207 -0.14602639 0.14699124 0.10477721
000350 10 d3 a7 3e 3c 38 4a 3e c1 3e 83 3d 61 f0 90 3c
       0.32778215 0.19748014 0.06408454 0.017692747
000360 32 18 d4 3d 1b 3a e6 bf 52 fe b8 3e cc 3b d9 bc
       0.103561774 -1.7986482 0.3613153 -0.026517771
000370 e3 d8 2f 3e b5 8b 92 bd 9f ef 62 3e 0d b2 6b bf
       0.1717258 -0.07155553 0.2216172 -0.9206856
000380 2d 2c 72 3e de 34 2e bf 16 e9 4f 3e bc df cb 3e
       0.23649664 -0.6804942 0.20303759 0.39819133
000390 eb fa 3e be 6b 2c 50 bf 83 15 db 3d 35 a1 2b be
       -0.18650405 -0.81317776 0.106974624 -0.16760714
0003a0 e2 94 a0 3e 47 43 4c bf 6e 52 f9 3e 11 c0 1f bf
       0.3136359 -0.7979016 0.486957 -0.62402445
0003b0 2a 38 13 3e df 0c da 3e b6 ae 28 be 5d c6 00 bf
       0.14376894 0.42587945 -0.16472897 -0.5030268
0003c0 64 08 61 3d 74 c8 34 be d1 09 74 bd 4f 53 0f bc
       0.054939643 -0.17654592 -0.059579674 -0.00874789
0003d0 0f 34 b5 be fb bd ce be f9 55 28 3f 08 dc ee 3e
       -0.3539128 -0.4037932 0.65756184 0.46652246
0003e0 ce 1a 56 be 1b fd 91 be 0c 26 ea bd 8d 2a 46 be
       -0.20908663 -0.28513417 -0.11433038 -0.1935217
0003f0 5c 5d 1f bf ae 4d d2 3e c2 b0 7c be 97 37 d1 be
       -0.6225183 0.4107489 -0.24676803 -0.40862724

layer1.bias f4 [32]
000000 2d 21 30 bf 5c f0 62 bf ac 7e 65 be d7 1a 0e 3e
       -0.6880062 -0.8864801 -0.22411603 0.13877426
000010 1a 0f 52 bf a1 d5 1e 3e 3f 66 e4 bf e4 00 7c bf
       -0.82054293 0.1551118 -1.7843703 -0.9843886
000020 31 ba 27 bf 0f b7 1b bf 9f 64 26 bf a6 49 d6 3d
       -0.6551848 -0.608262 -0.64997286 0.10463266
000030 fd dd 67 3e 90 a7 7a bf 75 38 15 bf aa d2 48 bf
       0.22643276 -0.9791193 -0.5828927 -0.7844645
000040 23 31 19 3e 70 fe 6b be 68 53 f3 3d fe 91 09 be
       0.1496015 -0.23046279 0.11881143 -0.13434598
000050 3b 0e 88 be b4 e4 80 bd 4c eb 68 3d 8b 13 c6 3d
       -0.26573357 -0.06293622 0.05686502 0.09671696
000060 46 af 38 be be a8 87 3e 37 1c 7e bf 6c ee d7 3d
       -0.18035612 0.26495928 -0.992618 0.10543522
000070 7e be 60 be 49 d6 3b be d1 c8 73 3e 52 21 74 bf
       -0.21947667 -0.18343462 0.23807074 -0.9536334

layer2.weight f4 [64, 32]
000000 17 dd a6 be 69 ac 90 be e6 69 87 3d 0b bf 7f be
       -0.32590553 -0.2825654 0.066119954 -0.24975221
000010 0e 7b bc 3c 65 2c 78 3e 94 2b ad 3d cb 01 8f be
       0.023007896 0.24235685 0.084555775 -0.27931055
000020 33 a1 cc be c5 a7 99 be 3c be 4c be 48 b6 44 3c
       -0.39966735 -0.3001081 -0.19994444 0.01200635
000030 75 f0 da be 9e a0 46 be ea ca 19 bf b1 f0 be be
       -0.4276158 -0.19397208 -0.6007525 -0.37293008
000040 3b 4e e6 bd 65 63 d4 be 64 b3 d6 be c7 49 7a be
       -0.1124539 -0.41482082 -0.4193374 -0.24442206
000050 d3 a5 24 be 35 bb fd bd fe a1 bc bd eb 1f 2e bf
       -0.16078882 -0.123892225 -0.09210585 -0.6801745
000060 9b ba 4b bd 1d 07 ef bd 4c 6c d1 bd 15 c0 c4 bd
       -0.049738508 -0.116712786 -0.10225734 -0.09606949
000070 4b 1f 13 3d c6 27 b3 3d 06 f1 d2 3d d3 cf 02 bf
       0.035918515 0.087478206 0.10299878 -0.51098365
000080 bb 81 14 be 3a 97 71 bd d2 2c 00 be 2b d3 7e 3d
       -0.14502613 -0.05898211 -0.12517098 0.062213104
000090 6c b8 31 be c9 d0 9d be 15 c4 23 3e 16 ff ce bd
       -0.17355508 -0.30823353 0.15992768 -0.101072475
0000a0 fc fd 21 3c f4 e3 d4 be d3 bd 0a be 93 b3 24 bf
       0.009887215 -0.41580164 -0.13548975 -0.6433651
0000b0 42 e8 ed be 51 5c 59 be f0 e1 aa be fd 46 d6 be
       -0.4646626 -0.21226622 -0.33375502 -0.41851035
0000c0 83 b3 0f bf 7c b9 61 be a2 70 1c bd b1 14 82 bc
       -0.5613329 -0.22043413 -0.038193353 -0.015879007
0000d0 69 11 c2 bd 45 af 35 bc 32 b8 99 be 9b 66 d8 bd
       -0.09475977 -0.011089151 -0.30023342 -0.105664454
0000e0 d2 43 bd 3c 8c d2 37 bb c2 74 1f bc 66 a7 81 be
       0.023103628 -0.002804908 -0.009732427 -0.25323027
0000f0 b3 01 34 3e 36 2a 1a 3d 2c 17 c4 bd 05 70 e9 bd
       0.17578773 0.03763791 -0.09574732 -0.11398319
000100 be 80 ff be 73 3f c9 3c ed 79 60 3c 62 1c 07 3e
       -0.4990291 0.024566388 0.013700944 0.13194421
000110 10 2a e8 be 05 f7 3e bc 62 03 19 3e e6 3a 83 be
       -0.4534459 -0.011655574 0.14942697 -0.25630873
000120 57 63 3b be fb ea 09 bf c2 fe 27 bf 2c 97 11 3f
       -0.18299614 -0.53874177 -0.65623105 0.56871295
000130 16 36 5c 3e 1f e8 bb be 21 b9 d1 be b5 66 0a bc
       0.21505007 -0.36700532 -0.40961555 -0.008447339
000140 81 c2 e3 bd 7a b5 29 be 52 b4 26 bd cc 90 f5 be
       -0.11121083 -0.16573134 -0.04069931 -0.47962034
000150 47 42 79 be 96 9e e6 3e e4 85 28 bf 01 14 bb be
       -0.24341689 0.45042866 -0.658293 -0.365387
000160 bd 82 b6 3d 1d f4 e5 be 92 69 c3 be f8 a6 23 3f
       0.08911655 -0.44912806 -0.3816648 0.6392665
000170 5f 31 a0 3e ec 9a c7 be 03 12 0d 3d 74 47 16 bf
       0.31287667 -0.38985384 0.034441005 -0.5870278
000180 35 05 20 bf 30 65 45 be 79 ad 3a 3c ad ef 72 be
       -0.62507945 -0.19276881 0.011393898 -0.23724242
000190 b8 ec 3f bc 06 6b 85 bd c4 6e fe 3c 7e 21 fd bd
       -0.011714153 -0.06514554 0.031058677 -0.12359904
0001a0 de 71 62 3e a9 9b 9e 3e 85 0f ba be 73 9c 20 3e
       0.2211375 0.30978134 -0.36339965 0.1568468
0001b0 48 23 18 3e 73 5a e2 be f0 d5 85 b9 ee a2 0c bf
       0.14857209 -0.44209632 -0.00025527133 -0.5493611
0001c0 dc 28 83 bc c8 7e 26 3e dd 4e 4d bc 97 93 eb bd
       -0.016010694 0.162593 -0.0125310095 -0.1150276
0001d0 20 4a 20 3e 41 d4 95 be 18 27 b6 3e 7b b2 86 be
       0.15653276 -0.292635 0.355767 -0.26308045
0001e0 c7 71 42 3d 22 9a 5f 3e 98 11 bd 3d d9 4d 53 3d
       0.047471788 0.21836141 0.09231871 0.051587913
0001f0 90 81 a1 3e 93 13 19 be 28 a8 5f 3f 9a 3d a5 be
       0.3154416 -0.14948873 0.8736596 -0.3227356
000200 db 6f 4f 3f 75 78 20 be a8 6e fe 3e a0 47 f8 bd
       0.8103005 -0.1567095 0.496938 -0.121230364
000210 cc b5 cb 3e 2b db c0 be 33 26 b6 3e 6b 18 f6 3e
       0.39787138 -0.37667212 0.3557602 0.48065504
000220 9b 6c d6 3d 52 43 d0 3e 70 34 57 3f f6 ee d4 3e
       0.104699336 0.4067636 0.8406439 0.41588563
000230 2c d1 e7 bd 4f 94 e4 3e 80 ba 99 be a3 12 53 3f
       -0.11319193 0.446444 -0.300251 0.8245031
000240 0e bb bc 3e ea 6a 0b bf d6 0a 52 3e 73 c7 fc 3d
       0.3686146 -0.5446001 0.20511946 0.123427294
000250 10 63 51 bf 1e 3d fc 3e cb 19 c4 be 7e 72 35 bd
       -0.8179178 0.4926538 -0.38300928 -0.04429864
000260 e4 e0 c4 3e 4b 5f 25 bf 40 73 07 3f ff 1f ab 3e
       0.38452828 -0.6459853 0.5291023 0.3342285
000270 0f cc 95 be af 12 38 3e 7e 92 ea be 20 2f 4a 3f
       -0.29257247 0.17975877 -0.4581489 0.7897816
000280 16 87 8e be af c3 81 3e 94 32 6d 3d 45 50 74 be
       -0.27837437 0.25344607 0.057909563 -0.23858745
000290 2e bc 18 3f 24 27 90 be 4d c8 df be 7f 66 ac 3c
       0.5966214 -0.28154862 -0.43707505 0.021044968
0002a0 c4 8d 9c be b8 4c 93 3e 87 a1 8e be da 22 dc be
       -0.3057691 0.2876947 -0.2785761 -0.4299534
0002b0 e8 62 03 c0 d8 75 cf 3e 25 60 1a be 43 1f 19 3f
       -2.0529118 0.40519595 -0.15075739 0.59813327
0002c0 82 95 83 3e 1c 64 eb bd 0d 56 2b bf 44 b4 2c 3e
       0.25700003 -0.11493704 -0.6692818 0.16865641
0002d0 b4 1d d1 be 6c 05 63 be af 4a 4d be 67 0c 85 be
       -0.40842974 -0.22170037 -0.20048021 -0.25986025
0002e0 79 0f 57 3e ff cb cb 3e 14 d6 a7 bd e2 48 9a be
       0.21001996 0.39804074 -0.08195129 -0.3013373
0002f0 ff 34 c4 3d 5b 34 8e 3e 6f e4 2f 3e bb ee 9d 3e
       0.09580421 0.2777432 0.17176984 0.308462
000300 fc 4e f9 be ed 16 49 be 49 4f 2b 3e 20 8b 0c 3e
       -0.48693073 -0.19637652 0.16729464 0.13724947
000310 ad 8a a7 be 5a e5 02 be f4 68 da 3d 05 f2 06 bd
       -0.3272299 -0.12782803 0.106645495 -0.03294565
000320 25 ae 03 bf ec ec 52 be 7c 9d e1 be a2 73 c5 bd
       -0.514376 -0.20598191 -0.44065464 -0.09641196
000330 89 79 db be f0 c2 cb 3e 3c 40 01 bf 82 e7 5b bd
       -0.4286616 0.39797163 -0.5048864 -0.05368758
000340 d1 1a 0b 3e ab 02 6b bd 2b 67 8c 3d 25 48 b1 be
       0.13584448 -0.05737559 0.06855615 -0.34625354
000350 ae 89 99 be 7c aa 5a be 6b a7 70 bf 11 4f b4 be
       -0.29987854 -0.21354097 -0.9400546 -0.35216573
000360 46 0c 8a be c3 70 95 be 57 91 82 be 3e 1b ca be
       -0.2696249 -0.29187593 -0.2550151 -0.3947391
000370 30 31 0a bc ed 53 0d 3e b8 34 75 be 9d 7f 7f 3d
       -0.008434579 0.13801546 -0.23945892 0.06237756
000380 9b cb 1c be 8d ef 8c 3e eb b5 e9 3d 59 70 75 be
       -0.15312044 0.27526513 0.11411651 -0.23968638
000390 2e 71 29 3e 80 ab 83 be 73 02 f5 bc 63 a3 97 be
       0.16547081 -0.25716782 -0.029908394 -0.29616842
0003a0 0a 3c b6 bc 87 9e d4 bd bd 1d 8a be d2 e1 1a be
       -0.022245426 -0.10381799 -0.26975814 -0.15125206
0003b0 07 2b 0e bf 3f 6a 9f bd 6a a2 0d bd 14 22 ad 3d
       -0.55534405 -0.07783937 -0.03457872 0.084537655
0003c0 ef d8 05 be d9 22 15 bf c3 46 ab bd f5 7d 1d 3e
       -0.13071035 -0.582563 -0.08363106 0.1538008
0003d0 72 ef d5 be 37 b0 df bc 26 dc e7 be 7a 91 10 bf
       -0.41784245 -0.027305705 -0.45285147 -0.5647198
0003e0 38 26 51 be 94 da 77 be 75 b7 b9 ba 6f ff 0d be
       -0.20424736 -0.24204475 -0.0014169054 -0.13866971
0003f0 aa 15 e0 bc 0d a8 07 be 9c 66 05 bf 2c 89 9a 3d
       -0.02735408 -0.132477 -0.52109694 0.07545695

layer2.bias f4 [64]
000000 93 2e 50 be 5b 11 a1 bd 19 36 63 bd 5f 8a e3 bd
       -0.20330267 -0.078646384 -0.055471513 -0.111103766
000010 4c 22 5d bf 58 30 04 be d8 43 95 be 23 88 f3 be
       -0.8638046 -0.12909067 -0.29153323 -0.47564802
000020 96 08 a1 be 8e 6d 64 3d e5 66 a7 bd 07 29 03 bf
       -0.31451863 0.055768542 -0.081739224 -0.5123448
000030 e8 21 5e be e0 0f 06 bf 7e 50 97 bd 8d 9e dd be
       -0.21692622 -0.52367973 -0.073883995 -0.43285027
000040 1d bc b8 ba 85 76 cf 3d 7d 59 b3 be 5c c8 47 3e
       -0.0014094148 0.10130028 -0.35029212 0.19510025
000050 ed 1d 87 bd 7e f8 97 bd 44 94 8c be 9d d9 45 bc
       -0.06597505 -0.07420443 -0.27456868 -0.012075809
000060 c8 fb 6e be 44 d2 8a be 80 f7 26 bf 4a 1c 93 3d
       -0.23338234 -0.27113545 -0.65221405 0.0718313
000070 40 35 2a 3d 8c e5 2b be 2c 89 d0 be 99 e7 f6 bd
       0.04155469 -0.16786784 -0.40729654 -0.120558925
000080 ae d9 c0 bd 18 d0 a0 be c7 7c d9 be 26 91 ae be
       -0.09416519 -0.31408763 -0.4247801 -0.34095114
000090 a5 65 3f bd f4 a3 33 bf f2 43 aa bd b8 98 53 3e
       -0.046727795 -0.7017205 -0.08313741 0.20663726
0000a0 67 21 9e be 4c 2d 26 3e c2 f0 1d be cc d3 f2 bd
       -0.3088486 0.16228217 -0.15423873 -0.11856803
0000b0 8d 68 ee bf 76 e1 1b bd f2 fa cb be 30 d8 8f 3e
       -1.8625656 -0.038056813 -0.39839894 0.28094625
0000c0 89 27 a5 bf a9 b3 56 be 22 7b fc be cf 8e 67 be
       -1.290269 -0.20966972 -0.49312693 -0.22613071
0000d0 de 06 83 bc 9c 6e 58 be bc d5 f4 be 81 aa 87 be
       -0.015994485 -0.21135944 -0.47819316 -0.26497272
0000e0 db 93 31 3e e6 af 05 3d 8e 28 98 3e 5a 16 cb be
       0.17341559 0.032638453 0.2971844 -0.3966549
0000f0 09 d7 f9 bd 70 01 7f be 96 2a 57 be 65 de 23 be
       -0.12199218 -0.24902892 -0.21012339 -0.16002806

layer3.weight f4 [128, 64]
000000 17 07 0d be a8 09 f6 3d 55 bd d5 be 91 52 ac bf
       -0.13772236 0.120135605 -0.4174601 -1.3462697
000010 47 a9 2e bf 87 47 32 be ff c2 69 be da 0d 25 bd
       -0.68227047 -0.17410098 -0.22828291 -0.040296413
000020 c8 c0 5f be 30 a5 e5 bd 9a 51 7a bf 70 d2 18 be
       -0.21850884 -0.11213148 -0.97780764 -0.14924026
000030 7e 00 a0 bd 54 a9 43 bf 52 1d 79 bc 56 fb a3 be
       -0.07812594 -0.7643025 -0.015204744 -0.32027692
000040 fd 12 85 3e 8a d3 d8 3e eb b7 f9 be ea fb a6 3c
       0.2599105 0.42348891 -0.4877313 0.020383794
000050 55 e4 d5 3c d0 94 0c be 8a 9d 28 be 71 29 57 bd
       0.026109854 -0.13728642 -0.16466346 -0.052529756
000060 4e e3 9d bd c2 72 bf be 75 6e 3b be 6f b5 93 3e
       -0.077093706 -0.3739224 -0.18303855 0.2884936
000070 53 c6 d4 3c 2d 78 58 bd e6 f3 75 be a5 2b 04 bd
       0.025973475 -0.052848984 -0.24018821 -0.032268185
000080 4d 54 97 bd c9 cf b4 be ca 3b d6 3c b8 57 be be
       -0.07389126 -0.35314777 0.026151557 -0.371763
000090 bb 69 52 bf ba 16 04 be 05 70 6f 3e 59 8a cb 3d
       -0.8219258 -0.12899294 0.23382576 0.09938497
0000a0 f9 0c 25 3e d8 27 3a 3d 10 76 75 bd 38 c2 c7 3c
       0.1611823 0.045448154 -0.059927046 0.024384603
0000b0 c4 6c 2b be 7e 87 0a be fd ce bc bd e4 f9 c1 be
       -0.1674071 -0.13528249 -0.092191674 -0.37885964
0000c0 05 e4 e6 be d2 b9 12 bb af 4e 0e bf cb ee 82 bb
       -0.4509584 -0.002238859 -0.5558881 -0.0039957515
0000d0 29 c1 9e 3d 42 ac 55 3e a5 9c bf 3e e1 20 27 be
       0.07751686 0.20866492 0.37424198 -0.16321136
0000e0 c2 49 a2 be de 7b f9 be 48 fd 21 be 35 01 1e 3d
       -0.31696898 -0.48727316 -0.15819275 0.03857537
0000f0 b5 e1 cc bb 4d 3e 66 3d 62 1c 29 be 57 70 02 3e
       -0.0062524923 0.05621176 -0.16514733 0.12738167
000100 49 02 52 3d b3 2c a5 bd b2 63 9d be cb 88 d1 bd
       0.05127171 -0.08065166 -0.30740124 -0.10231169
000110 fa b3 7d be 0b 5c 45 be 96 ce 16 3c f7 57 9b bb
       -0.24775687 -0.19273393 0.009204527 -0.004740711
000120 90 e5 fc bd 86 04 ef 3c 3b 38 bb be 11 da 41 bd
       -0.12348473 0.029176962 -0.36566338 -0.047327105
000130 80 9c 32 3b e6 b7 99 3c f8 c2 b2 3c a8 90 41 3b
       0.0027253926 0.018764447 0.021821484 0.0029535685
000140 4c 86 f7 bd f1 39 c3 be ed d0 b1 bd 63 10 d0 bd
       -0.12086162 -0.38130143 -0.086824276 -0.101593755
000150 18 b6 63 3c 84 13 0b bd a2 8a 96 be 92 08 4e bd
       0.013898395 -0.03395416 -0.29402643 -0.050301142
000160 f9 08 21 bd 46 30 ec bd 2c 96 06 3d 1d a2 d6 bd
       -0.039315198 -0.11532645 0.03285806 -0.104801394
000170 be f0 94 bd be 85 bc bd 88 85 14 3e 99 a8 43 bd
       -0.072724804 -0.09205197 0.14504063 -0.04776821
000180 d3 fb 4b be 15 02 44 be 40 fa 94 bd f5 33 85 bd
       -0.19920282 -0.19141419 -0.07274294 -0.06504051
000190 8c 33 6f be 58 3e 80 bd 48 43 77 3d e6 ba 08 be
       -0.23359507 -0.06261891 0.0603669 -0.13352546
0001a0 99 b9 17 3d d1 78 7a bd a6 9d 64 3d 48 0a 31 bc
       0.037042234 -0.061150376 0.055814408 -0.010805674
0001b0 58 4f d5 bd 9d 59 c8 bd fe a6 ad 3d 03 fd 64 3b
       -0.10415524 -0.097827174 0.08479117 0.0034940846
0001c0 99 72 df ba a1 53 8e 3d 4d 39 b3 bc 1a cc 78 3d
       -0.0017047703 0.06949545 -0.02187791 0.06074152
0001d0 3f 7f c2 be d4 1c fb bd 94 5c 5e bd a7 9b e7 bd
       -0.37987706 -0.12261358 -0.054287508 -0.11308985
0001e0 55 07 bb be 6f bb 35 be 2b 0d 16 3d c6 89 4a 3c
       -0.3652903 -0.17747281 0.03663365 0.012361949
0001f0 39 b4 d9 bd 16 dd 97 bd 7a c2 79 bd 4a e4 60 be
       -0.10630078 -0.07415216 -0.060976483 -0.21962085
000200 d3 fa 93 bd 8f f0 86 3c 46 6d 0b 3c b4 f3 61 bd
       -0.07225575 0.01647213 0.00850994 -0.055164054
000210 2c a9 3e be c6 81 92 bd 3d 14 f4 bd 5e 2e 04 ba
       -0.18619221 -0.071536586 -0.11917923 -0.00050423096
000220 3c 8e f6 bd 7a a9 98 3d 38 25 88 bd 6e f9 81 be
       -0.12038848 0.074542 -0.06647724 -0.25385612
000230 f4 4d da bd 9a 30 0d 3d 25 6b f7 3d 40 84 56 be
       -0.106594 0.03447018 0.12080983 -0.20948887
000240 44 70 c1 bc 70 52 a4 bd 9a 3a a2 3d 5a 62 50 3d
       -0.023613103 -0.08023536 0.079213336 0.050875045
000250 2c 95 0b bd b9 fd 0e 3e fd bb 04 be 4c 47 27 be
       -0.03407781 0.13963975 -0.12962337 -0.16335791
000260 ef 48 8c 3d 38 b7 3a bd ab 8a 2d be f1 06 72 bd
       0.068498485 -0.045584887 -0.16947429 -0.05908865
000270 24 47 27 bb 44 f8 86 bc 6f c6 b9 bd e8 65 2d 3d
       -0.002552458 -0.016475804 -0.09071051 0.042333513
000280 40 33 65 3d 25 70 e4 bd a3 19 9c bd 81 e0 0c be
       0.05595708 -0.11154202 -0.07622077 -0.13757516
000290 27 17 0a be d4 55 b5 bb 0b f5 17 3d 2a f7 29 be
       -0.13485394 -0.005533913 0.037098926 -0.16598192
0002a0 bf e3 52 bd e5 d3 b4 bd 86 62 dd 3d a4 bd 3c 3d
       -0.051486727 -0.08829478 0.108098075 0.046079293
0002b0 f0 58 cf bc 46 63 ab bd 0d d3 50 be 20 fd 03 be
       -0.025310963 -0.08368544 -0.2039301 -0.12889528
0002c0 9b 14 02 be fb d7 01 be 5b 5a ef bc 3e 19 bc 3d
       -0.12703173 -0.12680046 -0.02921789 0.09184502
0002d0 14 86 4d 3d 13 d1 de 3c c0 35 91 bb 32 af 05 be
       0.050176695 0.027199304 -0.0044314563 -0.13055113
0002e0 d0 22 3d bd 56 e8 8f bd 01 38 f4 bd 34 f9 f8 bd
       -0.046175778 -0.070267364 -0.119247444 -0.12156907
0002f0 7c 40 36 be f0 d7 cb bc 21 17 b4 bc 8b f1 6a bd
       -0.17798036 -0.02488324 -0.021983685 -0.05735926
000300 06 7c 73 bd 78 f5 1d bd c3 3a 02 be 5f f2 82 bc
       -0.05944445 -0.038564175 -0.12717728 -0.015984712
000310 c9 00 c9 bd 1e 32 8a 3b 60 21 3e bc 4b 0c 96 3d
       -0.09814603 0.0042174 -0.011604637 0.073265634
000320 30 61 e4 3c 67 0c 9b bd 76 7f ad bd ff aa 0b be
       0.027878374 -0.07570725 -0.08471577 -0.13639449
000330 7a 3c 32 bd 8d a8 16 3d 44 fe db bc a7 c0 9f 3c
       -0.043514706 0.036781836 -0.026854642 0.019501043
000340 ce af 01 be 3e 20 0c be b2 c4 65 bd 02 e9 27 be
       -0.1266472 -0.13684174 -0.056095786 -0.16397479
000350 61 06 6a 3c 5e 8c dd bd fe 04 d8 bd e7 76 63 bd
       0.014283747 -0.108177885 -0.10547827 -0.055533316
000360 e4 ea a7 3c 08 ab 15 bd 71 bd 2d bd a9 fb a3 bd
       0.020497747 -0.03654006 -0.042416994 -0.08006985
000370 3c 40 18 be 2d 75 47 3d b6 1b 1a be ce 86 15 be
       -0.14868253 0.048695732 -0.15049633 -0.14602205
000380 5b 5d 8e bd c8 cf 1c be eb 4a be bd b9 10 0f be
       -0.069514 -0.15313637 -0.09291633 -0.13971223
000390 68 57 69 bd 1c fb ac bd e8 90 da bc e7 f1 82 bb
       -0.056968123 -0.08446333 -0.026680425 -0.003996122
0003a0 05 42 be 3d 57 26 06 bd 18 a4 2f bd 6f be a2 bc
       0.09289936 -0.032751407 -0.0428811 -0.019866196
0003b0 6e 7f 3f bd 22 89 eb 3c 57 96 83 bd 52 31 9d bd
       -0.046752386 0.028751913 -0.064251594 -0.07675423
0003c0 5b 0a 98 bd b6 e8 cd 3d 5a 46 b7 bc 22 cc c4 bd
       -0.0742385 0.10054152 -0.022372413 -0.09609248
0003d0 d2 31 eb bd eb 98 34 bd e3 28 74 bd c9 12 8a 3c
       -0.11484112 -0.044091146 -0.059609305 0.01685466
0003e0 bf 77 08 be e3 b4 1f be 3e b0 54 bd dd 58 d8 3c
       -0.1332693 -0.15596347 -0.05192589 0.02640956
0003f0 91 bf 8d 3c e5 e2 0c 3e fb a7 a6 3c 46 22 26 bd
       0.01730326 0.13758428 0.020343771 -0.04056003

layer3.bias f4 [128]
000000 d9 b5 33 be 87 61 81 bd da 4f 1f be fe 3e 60 bd
       -0.17549838 -0.0631743 -0.15557805 -0.054747574
000010 de 6d 88 bd 3f bd c1 bd 6b a4 af bd bb 29 26 be
       -0.066615805 -0.09459924 -0.08576282 -0.16226856
000020 e4 20 a7 bd a9 02 83 bc 44 66 04 be e8 94 92 be
       -0.0816057 -0.01599248 -0.12929636 -0.2862923
000030 e1 37 a8 bd 4f 1e 38 be 12 b6 cc bd 90 84 f9 bd
       -0.08213783 -0.17980312 -0.09995665 -0.121834874
000040 fa fd 5d 3d ce 85 02 be c9 27 59 be 46 a5 2d 3d
       0.05419729 -0.12746355 -0.21206583 0.042393945
000050 93 5c 85 be e9 3d 32 be b5 45 81 be 17 17 0e be
       -0.2604719 -0.1740643 -0.25248495 -0.13875996
000060 d6 cf 72 bd 4c 31 30 be a9 b4 c9 be f7 cb 0d 3e
       -0.05928024 -0.17206305 -0.39395645 0.13847338
000070 12 ad 18 be ce a5 57 be b2 c4 2a be 1d 68 5d 3e
       -0.14909771 -0.21059343 -0.16676596 0.21621747
000080 b6 26 c0 bd 0b 2e b1 bd 1d 68 65 be 2b b7 68 be
       -0.093823835 -0.0865136 -0.22402997 -0.22726123
000090 b1 70 49 be 5d 30 0d 3e a1 a2 6c be 9a 3b 32 be
       -0.19671895 0.1378798 -0.23108913 -0.17405549
0000a0 6f ce 1d be 46 07 7e be d4 ea 3d be e7 14 06 be
       -0.1541078 -0.24807462 -0.18546611 -0.13093911
0000b0 20 a8 e6 3d f2 43 18 be 34 33 7d be 5d c0 7e be
       0.11262536 -0.14869669 -0.24726564 -0.24878068
0000c0 dc d5 87 3d 9b 51 39 be 36 2d 28 be 90 ef 3d be
       0.06632587 -0.18097536 -0.16423497 -0.18548417
0000d0 5c c4 31 be 0a 0e 15 be ca 0f 42 be 67 39 69 be
       -0.17360061 -0.14556137 -0.18951336 -0.22775804
0000e0 1a 6f 15 be 46 3a ff bd db 1a 32 be dd 99 18 be
       -0.14593163 -0.12462287 -0.17393057 -0.14902444
0000f0 5f dc 35 be 65 4a 9d bd be d5 99 bd 83 0b 46 be
       -0.17759846 -0.07680205 -0.07511471 -0.19340329
000100 f9 85 df 3b 9c ea 64 be 87 01 ff bd 18 97 cb bd
       0.0068213907 -0.22355121 -0.12451463 -0.09940928
000110 a5 29 ed bd e4 60 d7 bd a0 98 3a be 8f 94 5d be
       -0.11580209 -0.10516527 -0.18222284 -0.21638702
000120 33 4f 27 be 76 39 10 be 92 3f 1d be 63 00 ce bd
       -0.16338806 -0.1408442 -0.15356281 -0.100586675
000130 36 ae 20 be ef 92 80 be 49 b1 1b be ff ca 96 be
       -0.15691456 -0.251121 -0.15204348 -0.2945175
000140 6e f4 53 3e 19 be 1d be b6 8d 76 be 69 f8 33 3e
       0.20698711 -0.15404548 -0.24077496 0.1757523
000150 b8 d0 66 bd 3c 2d 24 be c4 fa 13 be 8e 25 31 be
       -0.056351393 -0.1603288 -0.14451128 -0.17299482
000160 b5 69 56 bd 7b 59 46 3d 34 56 f6 bd 46 96 b2 bd
       -0.052346904 0.04842518 -0.12028161 -0.08720069
000170 6b 07 c3 bd 1b 12 eb bc 53 02 59 be 28 63 29 be
       -0.09522899 -0.028695157 -0.21192293 -0.16541731
000180 99 b7 82 be 74 85 88 be 2e 67 54 be da ec 3a be
       -0.255307 -0.26664317 -0.20742485 -0.18254414
000190 e6 71 10 be 13 3a 81 be 23 ea 07 be 6b 47 3d be
       -0.14105949 -0.2523962 -0.1327291 -0.18484275
0001a0 8a fc c2 bd 75 17 26 be 7d 21 48 be 7f b4 a1 bd
       -0.09520824 -0.16219886 -0.19544025 -0.07895755
0001b0 6b ba b0 bd 17 3a 78 bd 85 c3 2f bd 26 c7 2c be
       -0.086293064 -0.060602274 -0.04291107 -0.16872844
0001c0 df b0 ed bd 79 03 a1 bd 2e cd 20 be 4e 7e c7 bd
       -0.11606001 -0.078619905 -0.1570327 -0.097408876
0001d0 e7 a6 d0 bd 4a f8 7f be da 46 05 be 55 22 67 be
       -0.10188084 -0.24997059 -0.13015309 -0.2257169
0001e0 55 27 82 be 34 e4 41 be cb 53 f3 bd e8 75 2a be
       -0.25420633 -0.18934709 -0.118812166 -0.1664654
0001f0 f2 50 2d be 21 45 65 be 5a df 36 bd 18 2c 4e be
       -0.1692541 -0.22389652 -0.0446466 -0.20134008

layer4.weight f4 [22, 128]
000000 ca 4c 1b bd 61 f6 a6 3c 85 c2 c1 bd ef 64 c3 3d
       -0.03791503 0.020381154 -0.0946093 0.09540736
000010 03 e3 8c 3d 2b 75 f5 3c d0 20 b9 3c 3f 01 27 ba
       0.068792365 0.029963097 0.022598654 -0.000637073
000020 e9 8b 8a bd 3e 7d d8 3d ca 8f 6e 3c 41 1d b5 3e
       -0.06764967 0.10570763 0.014560649 0.3537388
000030 f5 87 d1 bd 02 95 4a bd 19 bc 9f bc 06 70 8d bd
       -0.1023101 -0.04945851 -0.019498872 -0.069061324
000040 6e 85 9e bc e4 b2 85 bd 8f ad 9d 3d cb ff 8e 3c
       -0.019350734 -0.06528261 0.07699119 0.017455956
000050 a9 08 ee bd 4b 7f 01 3e 03 32 16 3e e2 01 97 bd
       -0.116227455 0.12646215 0.14667515 -0.07373406
000060 b7 86 e6 3c ad 91 bb 3c 2b 04 f8 be a2 ff ac 3d
       0.028140409 0.022896612 -0.4844068 0.084471956
000070 0e 70 81 3d c6 fe f2 3b 32 fa e2 bd 77 2e 12 be
       0.06320201 0.0074156253 -0.11082877 -0.14275537
000080 a6 28 32 3e e0 b3 d6 bd 2b df bb bd 9a ce ce 3d
       0.17398319 -0.10483527 -0.09173425 0.10098
000090 32 c2 22 be ad 39 fb bc e8 34 54 3c 06 85 95 bd
       -0.15894392 -0.03066715 0.012952067 -0.07300763
0000a0 a2 25 6b 3d cf 41 d6 3b c2 7a f2 3c 45 da cc bb
       0.057408936 0.0065386067 0.029599551 -0.0062516057
0000b0 40 3d ea bc 51 44 91 3d b5 97 8b 3d da a3 11 be
       -0.02859366 0.070931084 0.06816045 -0.1422266
0000c0 00 19 d7 bb b2 d2 9b 3c 20 df 09 bd 98 e7 87 be
       -0.0065642595 0.019021366 -0.033660054 -0.2654388
0000d0 6c 96 e3 be fb c8 cb bc b9 d2 d8 3d 17 eb be bd
       -0.444507 -0.024876108 0.10587067 -0.093221836
0000e0 83 89 01 3d f3 48 00 3e d0 30 cf bd 2a ef 57 3b
       0.031625282 0.12527828 -0.10116732 0.003294895
0000f0 6b a3 64 bb 41 4d d0 3d 96 f5 81 3d 2a c4 6b 3c
       -0.0034887444 0.10170985 0.0634567 0.014390031
000100 89 63 22 bd 80 50 59 3d f7 6f d9 bc c7 a1 2d be
       -0.039645705 0.053055286 -0.026542647 -0.16956244
000110 fb b4 2d bd e3 f5 c5 bc a9 5f 65 bd 67 59 8a 3d
       -0.042408925 -0.0241651 -0.05599943 0.067553334
000120 13 84 cb bc 1d 49 b9 3c 0f 5d 15 bd aa 22 ef bd
       -0.024843251 0.022617871 -0.0364657 -0.116765335
000130 16 37 43 bd 05 ca 22 bd 0a 01 52 3d ae af 5a 3e
       -0.047659956 -0.039743442 0.051270522 0.21356079
000140 fd 48 05 3d 5c 07 d7 3d a8 82 aa bd e6 13 03 bb
       0.03254031 0.104994506 -0.08325702 -0.0020000874
000150 7d 8a 9d bd 20 85 09 be df 11 e2 3d eb 32 c8 bd
       -0.0769243 -0.1342969 0.11038565 -0.09775337
000160 4d 0d 07 bc 2a 91 7d 3d b2 80 87 bc 73 d2 0e 3d
       -0.008242917 0.061906017 -0.016540859 0.03486867
000170 e4 ff eb 3d 8d b1 42 bb 9a 45 0e bd 03 d9 91 3d
       0.11523417 -0.002970788 -0.034734346 0.0712147
000180 04 21 25 3b b7 f5 d3 3d 9c 6c 5d bd 2c f1 dc bd
       0.002519668 0.10349601 -0.054058656 -0.107881874
000190 c4 1d f2 bc a4 8d f0 3d a1 12 02 3d a5 fc 66 3d
       -0.029555209 0.11745766 0.031756047 0.056393284
0001a0 d9 33 47 be c9 5e f1 b7 a8 82 dd 3b 1b ae 68 3d
       -0.19453372 -2.8773577e-05 0.00675996 0.056806665
0001b0 33 c7 6f bb 8f 44 38 3c 62 f9 02 be 50 a1 a6 bd
       -0.0036587238 0.011246814 -0.12790444 -0.08136237
0001c0 be 1f 6a bc a5 4b 1c 3d d3 72 8c bd d5 a9 00 bc
       -0.0142897945 0.038158078 -0.068578385 -0.007852991
0001d0 33 bd 3a 3e bb 7d 56 bd 44 9d e4 bb 88 33 1f 3e
       0.18236236 -0.052366 -0.0069767553 0.15547001
0001e0 b3 19 50 3d a9 0d 23 bd 25 89 5c bc 60 fa 4d 3d
       0.05080576 -0.03980795 -0.013460432 0.050287604
0001f0 fe cf fb bc b7 44 8a 3d d1 fe 4c 3c f0 8f 01 be
       -0.030738827 0.067513876 0.012511925 -0.12652564
000200 c9 e3 a3 3d ad 87 0a 3d 6e ac 2a bd 1d bc 09 bd
       0.08002431 0.033820797 -0.041668348 -0.033626664
000210 91 d8 90 3d 26 a4 01 3d f2 8d d4 bc 65 c0 43 be
       0.07072557 0.031650685 -0.025946591 -0.19116361
000220 d4 e1 26 bd 08 ba 90 3c 8b f3 98 bd 3f c9 c3 3d
       -0.04074271 0.017666832 -0.07468327 0.09559869
000230 2f 2f 8e 3d c3 8b 13 3e 23 24 a2 3d 3e fd 5b 3d
       0.06942593 0.14408784 0.07917049 0.053708307
000240 81 29 71 bd 52 ac e8 3d a9 af be 3d a2 f8 f9 3c
       -0.05887747 0.113609925 0.09310848 0.030514065
000250 f0 c4 9e be 33 f8 07 3e b3 49 f7 38 78 11 15 3e
       -0.31009626 0.13278274 0.00011791605 0.14557445
000260 21 48 51 3e 00 a1 c2 bc be 87 74 3e ac ab 3c be
       0.20437671 -0.023758411 0.23879907 -0.18424863
000270 61 0e 1a be 9c c1 69 3b e3 b1 f9 bb cd 34 0d 3b
       -0.15044548 0.0035668379 -0.0076200827 0.0021546364
000280 a1 47 6f 3d ae 87 81 3d f7 1e 00 be 21 90 0c be
       0.05841792 0.06324707 -0.12511812 -0.13726856
000290 33 3d 1d 3d 88 f2 ea 3c df d7 4a bd ee da 14 3a
       0.038388442 0.028680101 -0.049522277 0.0005678375
0002a0 84 15 ec 3d 4d 9d c5 bc 41 15 82 3d 1e 92 53 be
       0.11527541 -0.024122858 0.0635171 -0.20661208
0002b0 20 d9 40 bd 97 69 6f 3e c8 83 83 3e 6b 1a 9a bc
       -0.047082067 0.23380123 0.2568648 -0.018811425
0002c0 c0 c0 36 bd 2c 4f 05 3d 6a ec 19 bc 3d 54 de 3e
       -0.044617414 0.032546207 -0.009394744 0.43423644
0002d0 f0 59 2c 3e 34 9b 93 bc ff cb ca 3c 6a 05 c2 3d
       0.16831183 -0.018018343 0.024755476 0.09473689
0002e0 a3 f7 93 3d 7d 41 49 3e 6e ef 2e 3d dc 08 26 3d
       0.07224967 0.19653888 0.042708807 0.040535793
0002f0 71 42 9d 3d 63 e3 1c bd 6c 74 4d 3d 69 8c 7b bc
       0.07678688 -0.03830279 0.050159857 -0.015353301
000300 f5 68 63 bc 94 47 e2 3d ee c3 e2 bb 1c e0 90 be
       -0.013880004 0.11048809 -0.0069203293 -0.28295982
000310 09 e6 bc 3d d0 71 6e 3c 0b 7f 34 be ca 74 99 3d
       0.09223563 0.014553502 -0.17626588 0.07492979
000320 c9 09 26 be 39 db cd bd 7b d8 1a bb 20 b0 3e bc
       -0.1621467 -0.10051579 -0.0023627568 -0.011638671
000330 69 cd e3 3c 91 7e 65 3d 00 be a0 3b 05 7e 11 3d
       0.027807908 0.056028906 0.0049054623 0.035520572
000340 a3 c1 01 bd d2 2f 5f bd b8 df ec 3d 35 3e 3a bd
       -0.031678807 -0.054488964 0.115661085 -0.04546948
000350 7e c4 73 bd 4a 7a d3 3d b2 d1 cd be e1 9c 8c 3c
       -0.05951356 0.10326059 -0.40199047 0.01716465
000360 b3 9e 5a 3e 88 0b 79 3d 8e c3 8a 3d b5 ef 6e 3d
       0.21349601 0.060802013 0.0677558 0.05833407
000370 2d fb 82 bd 8c 1f b5 bd c3 a8 9d 3d 29 32 de be
       -0.06395564 -0.08843908 0.07698204 -0.43397644
000380 28 0d 6f bd 2e b2 89 3e 49 11 08 be 46 f6 17 bd
       -0.058362156 0.26893753 -0.13287844 -0.0371001
000390 3b 5a c5 3d 02 ad e7 bd ac 60 b5 3d 96 e1 bb 3d
       0.09636351 -0.113122955 0.08856329 0.091738865
0003a0 01 e9 f5 3d 4a 9d 0b bb e1 f0 aa bd 89 0c 83 bd
       0.120073326 -0.0021303468 -0.08346725 -0.06398875
0003b0 ad 0d ae 3d 5b 4b bf 3d f0 d1 11 3e 45 c6 ce 3c
       0.08498702 0.09340545 0.14240241 0.025241027
0003c0 c2 82 f5 bb 22 37 c2 bc 8f 08 1d bd 49 7a 3f bd
       -0.007492394 -0.02370793 -0.03833824 -0.04674748
0003d0 22 f9 fa bd b2 39 88 bd 86 c0 bf 3d cb 02 c4 3d
       -0.122545496 -0.066516295 0.09362893 0.09570845
0003e0 6d 00 b7 3d cf 47 5b bb 71 28 2c 3e 41 f3 0a bd
       0.08935628 -0.003345955 0.16812302 -0.03392339
0003f0 8d 8d e1 bc f9 1d e2 bd 43 8a bd bd 5e b7 5b 3d
       -0.027533317 -0.11040873 -0.09254887 0.05364167

layer4.bias f4 [22]
000000 55 7a 0e 3d 90 43 69 3b 81 47 b1 3d 7a 93 e1 3c
       0.034784634 0.003559325 0.086562164 0.027536143
000010 4c a6 1a 3d c2 06 fa 3c 7c ac f1 3c 20 b6 bf 3d
       0.03775625 0.0305208 0.029501192 0.093609095
000020 c5 7e 96 3c fd e0 a0 3d 50 9a 1f 3d 9f 3d 11 3d
       0.018370995 0.07855413 0.038965523 0.035459157
000030 d5 25 32 3e 10 49 4e 3d c2 d4 8e 3d b4 5a 76 3d
       0.17397244 0.050362647 0.06974174 0.060145095
000040 3e 38 6b 3d 82 45 37 3e e7 84 f3 3c 04 1d 1b 3e
       0.057426684 0.17897609 0.029726459 0.15147787
000050 5b af 8e 3d b4 46 82 3d
       0.0696704 0.06361142

exp_avg f4 [32, 22]
000000 e8 98 b9 2e 21 9a d0 af 68 e2 8c ae a8 c2 88 2c
       8.4399876e-11 -3.7944495e-10 -6.406681e-11 3.8869637e-12
000010 1b 89 e6 2d 95 1d 1f ac d4 0f 85 2d a7 36 d0 2e
       2.620886e-11 -2.261168e-12 1.5127379e-11 9.468453e-11
000020 d3 0e df 2c 97 b9 58 ad 8b c6 c5 2e ef 04 1a ad
       6.339687e-12 -1.2319388e-11 8.993791e-11 -8.754982e-12
000030 68 e2 0c af a8 c2 08 2d 1b 89 66 2e 95 1d 9f ac
       -1.2813361e-10 7.773927e-12 5.241772e-11 -4.522336e-12
000040 d4 0f 05 2e a7 36 50 2f d3 0e 5f 2d 97 b9 d8 ad
       3.0254757e-11 1.8936906e-10 1.2679374e-11 -2.4638775e-11
000050 8b c6 45 2f ef 04 9a ad 56 19 5b 1d ff 25 9f 99
       1.7987582e-10 -1.7509964e-11 2.8997507e-21 -1.6455561e-23
000060 1e a0 e5 99 46 cb 0c 18 c3 6d 8e 17 d6 97 5f 98
       -2.3742716e-23 1.8197203e-24 9.204243e-25 -2.8898732e-24
000070 30 5a 28 19 2e c5 1f 17 fd 07 f3 98 ef 51 32 98
       8.70361e-24 5.1624547e-25 -6.2822094e-24 -2.3047327e-24
000080 ae 67 21 18 f2 d3 87 19 1e a0 65 9a 46 cb 8c 18
       2.0861107e-24 1.4044277e-23 -4.7485432e-23 3.6394406e-24
000090 c3 6d 0e 18 d6 97 df 98 30 5a a8 19 2e c5 9f 17
       1.8408485e-24 -5.7797464e-24 1.740722e-23 1.0324909e-24
0000a0 fd 07 73 99 ef 51 b2 98 ae 67 a1 18 f2 d3 07 1a
       -1.2564419e-23 -4.6094653e-24 4.1722214e-24 2.8088554e-23
0000b0 41 7c 96 37 06 93 e8 36 51 fd f7 36 0c e4 75 37
       1.7939254e-05 6.9312546e-06 7.3906635e-06 1.4656234e-05
0000c0 00 8b 45 37 83 10 e0 36 df 3b 81 37 26 7b 0a 36
       1.17744785e-05 6.6776424e-06 1.5405878e-05 2.0635284e-06
0000d0 fa 33 39 37 1d 75 8e 37 94 e7 8d 37 2c 66 6c 37
       1.1038961e-05 1.6982254e-05 1.6916347e-05 1.4090485e-05
0000e0 51 fd 77 37 0c e4 f5 37 00 8b c5 37 83 10 60 37
       1.4781327e-05 2.9312469e-05 2.3548957e-05 1.3355285e-05
0000f0 df 3b 01 38 26 7b 8a 36 fa 33 b9 37 1d 75 0e 38
       3.0811756e-05 4.127057e-06 2.2077922e-05 3.396451e-05
000100 94 e7 0d 38 2c 66 ec 37 04 54 db b7 2a f3 12 38
       3.3832694e-05 2.818097e-05 -2.6145957e-05 3.5035577e-05
000110 94 fe 37 b8 7b 30 14 b8 cb 69 1a b8 de 9a 88 b8
       -4.3867694e-05 -3.53311e-05 -3.681499e-05 -6.5138316e-05
000120 3a ec 81 b8 c1 23 87 b8 37 73 2e b8 82 85 05 b8
       -6.1952e-05 -6.443961e-05 -4.1592135e-05 -3.183401e-05
000130 5c d2 7c b8 18 f1 2a b8 94 fe b7 b8 7b 30 94 b8
       -6.0277394e-05 -4.0755694e-05 -8.773539e-05 -7.06622e-05
000140 cb 69 9a b8 de 9a 08 b9 3a ec 01 b9 c1 23 07 b9
       -7.362998e-05 -0.00013027663 -0.000123904 -0.00012887923
000150 37 73 ae b8 82 85 85 b8 5c d2 fc b8 18 f1 aa b8
       -8.318427e-05 -6.366802e-05 -0.00012055479 -8.151139e-05
000160 41 af 1e 36 f5 eb 43 b7 6b 04 41 36 58 f7 c6 36
       2.3645846e-06 -1.1677844e-05 2.8761813e-06 5.9296544e-06
000170 85 bc 89 36 f3 6c 1c 36 ed 54 c5 36 61 64 72 35
       4.1048647e-06 2.3309228e-06 5.880944e-06 9.0298096e-07
000180 d4 74 99 36 51 df ce 36 58 3d d2 36 8a 28 9d 36
       4.573356e-06 6.165276e-06 6.265629e-06 4.683684e-06
000190 6b 04 c1 36 58 f7 46 37 85 bc 09 37 f3 6c 9c 36
       5.7523625e-06 1.1859309e-05 8.2097295e-06 4.6618457e-06
0001a0 ed 54 45 37 61 64 f2 35 d4 74 19 37 51 df 4e 37
       1.1761888e-05 1.8059619e-06 9.146712e-06 1.2330552e-05
0001b0 58 3d 52 37 8a 28 1d 37 ac ee 4e 38 32 ac dd 36
       1.2531258e-05 9.367368e-06 4.9336508e-05 6.6063594e-06
0001c0 d1 b4 3b 37 28 f1 12 38 56 c2 d9 37 57 af c3 36
       1.1188168e-05 3.5033707e-05 2.595891e-05 5.831865e-06
0001d0 c3 b4 10 38 ec a6 1c b6 f6 ba bc 37 75 4a 29 38
       3.4500623e-05 -2.3342973e-06 2.2498407e-05 4.0362083e-05
0001e0 a5 bf 10 38 2d 76 1c 38 d1 b4 bb 37 28 f1 92 38
       3.451076e-05 3.7303358e-05 2.2376336e-05 7.006741e-05
0001f0 56 c2 59 38 57 af 43 37 c3 b4 90 38 ec a6 9c b6
       5.191782e-05 1.166373e-05 6.9001246e-05 -4.6685946e-06
000200 f6 ba 3c 38 75 4a a9 38 a5 bf 90 38 2d 76 9c 38
       4.4996814e-05 8.072417e-05 6.902152e-05 7.4606716e-05
000210 5e 36 1d 02 a2 0b 12 02 ed 4e 19 02 27 51 1b 02
       1.1550141e-37 1.0729724e-37 1.1263315e-37 1.1410891e-37
000220 7d 3b 1a 82 b9 47 13 02 b1 22 14 82 cb 5c 17 82
       -1.1331205e-37 1.0820438e-37 -1.0883279e-37 -1.1120358e-37
000230 d5 5c 1a 82 57 b0 17 82 ce be 1f 02 74 5c 19 82
       -1.1340775e-37 -1.1144335e-37 1.1736233e-37 -1.1267197e-37
000240 5e a7 12 02 46 93 14 02 aa 89 13 82 9c 8a 1c 02
       1.0774418e-37 1.0915588e-37 -1.0839362e-37 1.1500849e-37
000250 58 73 1d 82 db ca 10 82 8e a9 13 82 c7 1a 11 82
       -1.156764e-37 -1.0637666e-37 -1.0848514e-37 -1.0660602e-37
000260 b8 cf 18 02 4d b4 12 82 97 29 8c 1b 24 9f cb 97
       1.1226809e-37 -1.077813e-37 2.3187934e-22 -1.315874e-24
000270 7d e5 12 98 5a 23 34 16 c4 3a b6 15 99 09 8f 96
       -1.898592e-24 1.4551439e-25 7.360193e-26 -2.3108953e-25
000280 b7 65 57 17 d1 6a 4c 15 f8 78 1b 97 7e 26 64 96
       6.959863e-25 4.1281735e-26 -5.0235885e-25 -1.8429839e-25
000290 29 82 4e 16 c6 c8 ad 17 7d e5 92 98 5a 23 b4 16
       1.6681619e-25 1.1230545e-24 -3.797184e-24 2.9102878e-25
0002a0 c4 3a 36 16 99 09 0f 97 b7 65 d7 17 d1 6a cc 15
       1.4720386e-25 -4.6217906e-25 1.3919726e-24 8.256347e-26
0002b0 f8 78 9b 97 7e 26 e4 96 29 82 ce 16 c6 c8 2d 18
       -1.0047177e-24 -3.6859679e-25 3.3363238e-25 2.246109e-24
0002c0 e8 3b 46 9d 22 fe 8f 19 0e c2 cf 19 b8 c5 fe 97
       -2.6236053e-21 1.4888497e-23 2.1481676e-23 -1.6464277e-24
0002d0 82 dd 80 97 de 4c 4a 18 e4 51 18 99 2e 8e 10 97
       -8.327723e-25 2.6146696e-24 -7.8747535e-24 -4.6708365e-25
0002e0 26 e3 db 18 ac 56 21 18 cc 08 12 98 23 c9 75 99
       5.6839534e-24 2.085252e-24 -1.8874499e-24 -1.2706822e-23
0002f0 0e c2 4f 1a b8 c5 7e 98 82 dd 00 98 de 4c ca 18
       4.2963353e-23 -3.2928553e-24 -1.6655445e-24 5.2293392e-24
000300 e4 51 98 99 2e 8e 90 97 26 e3 5b 19 ac 56 a1 18
       -1.5749507e-23 -9.341673e-25 1.1367907e-23 4.170504e-24
000310 cc 08 92 98 23 c9 f5 99 71 65 9e 34 30 27 3c b5
       -3.7748998e-24 -2.5413645e-23 2.9503602e-07 -7.0092483e-07
000320 fc 97 48 34 64 5d 34 33 46 33 05 34 3c c0 85 b3
       1.8681743e-07 4.1994454e-08 1.2405243e-07 -6.228262e-08
000330 8d 04 02 b2 32 3b 10 35 1c fb 15 35 5c 80 3d 35
       -7.568031e-09 5.373032e-07 5.587224e-07 7.0594774e-07
000340 72 8e ac 34 d0 d6 f2 34 fc 97 c8 34 64 5d b4 33
       3.214114e-07 4.523231e-07 3.7363486e-07 8.398891e-08
000350 46 33 85 34 3c c0 05 b4 8d 04 82 b2 32 3b 90 35
       2.4810487e-07 -1.2456525e-07 -1.5136061e-08 1.0746064e-06
000360 1c fb 95 35 5c 80 bd 35 72 8e 2c 35 d0 d6 72 35
       1.1174448e-06 1.4118955e-06 6.428228e-07 9.046462e-07
000370 45 3f bf 1f 7f d1 fa 1f f1 84 57 20 1f ff 5f 20
       8.099632e-20 1.062257e-19 1.8255195e-19 1.8973247e-19
000380 3f cd 4e 1f 08 7b 33 20 e7 88 42 20 b9 82 c7 9d
       4.3791972e-20 1.5202597e-19 1.6477736e-19 -5.2810025e-21
000390 80 5d 3b 20 35 cd db 1f ae 8c 14 20 fe ce 81 1f
       1.5870453e-19 9.3089594e-20 1.2582635e-19 5.4976065e-20
0003a0 f1 84 d7 20 1f ff df 20 3f cd ce 1f 08 7b b3 20
       3.651039e-19 3.7946494e-19 8.7583945e-20 3.0405195e-19
0003b0 e7 88 c2 20 b9 82 47 9e 80 5d bb 20 35 cd 5b 20
       3.2955473e-19 -1.0562005e-20 3.1740905e-19 1.8617919e-19
0003c0 ae 8c 94 20 fe ce 01 20 40 f0 d7 b7 9f 17 61 37
       2.516527e-19 1.0995213e-19 -2.5741872e-05 1.3416545e-05
0003d0 cd 1c b0 36 03 d2 d6 37 38 d7 97 34 c2 2b 22 b6
       5.2485616e-06 2.5608582e-05 2.8282534e-07 -2.4165352e-06
0003e0 1d 98 19 36 7e 3a d7 b7 69 09 be 36 8d 85 6a 37
       2.2887318e-06 -2.5657235e-05 5.6635367e-06 1.3978582e-05
0003f0 04 f7 54 35 57 3d 19 b7 cd 1c 30 37 03 d2 56 38
       7.933561e-07 -9.133792e-06 1.0497123e-05 5.1217165e-05

exp_avg_sq f4 [32, 22]
000000 78 55 af 2f 9b 3a f6 30 a5 84 c0 2f 1b 02 1a 30
       3.1893044e-10 1.7915512e-09 3.5018846e-10 5.6027866e-10
000010 87 41 34 30 4e 1d 17 30 b8 99 09 30 1b 5b fc 30
       6.557674e-10 5.4975124e-10 5.0058757e-10 1.8361307e-09
000020 c4 9a 81 30 9c de 46 30 9b 25 67 30 be 32 eb 2f
       9.429972e-10 7.234833e-10 8.409075e-10 4.2782305e-10
000030 a5 84 c0 30 1b 02 1a 31 87 41 34 31 4e 1d 17 31
       1.4007538e-09 2.2411146e-09 2.6230695e-09 2.199005e-09
000040 b8 99 09 31 1b 5b fc 31 c4 9a 81 31 9c de 46 31
       2.0023503e-09 7.3445228e-09 3.771989e-09 2.893933e-09
000050 9b 25 67 31 be 32 eb 30 9d f7 7c 2f 88 c2 b4 2e
       3.36363e-09 1.7112922e-09 2.3007236e-10 8.220008e-11
000060 2e ba a4 2e 3f 43 e8 2e 02 7c a4 2e 02 81 f4 2e
       7.490929e-11 1.0562084e-10 7.479885e-11 1.1118752e-10
000070 ed a0 00 2d 47 4e fd 2f 0d 2c 55 2f e3 d8 23 2d
       7.31169e-12 4.607605e-10 1.9387887e-10 9.313636e-12
000080 2f 1b 04 2f 9a 97 0e 2f 2e ba a4 2f 3f 43 e8 2f
       1.2014988e-10 1.2968684e-10 2.9963715e-10 4.2248335e-10
000090 02 7c a4 2f 02 81 f4 2f ed a0 00 2e 47 4e fd 30
       2.991954e-10 4.4475007e-10 2.924676e-11 1.843042e-09
0000a0 0d 2c 55 30 e3 d8 23 2e 2f 1b 04 30 9a 97 0e 30
       7.755155e-10 3.7254543e-11 4.805995e-10 5.187474e-10
0000b0 5d 90 79 31 bd 21 0a 32 14 59 3f 31 e0 4c 24 31
       3.631633e-09 8.040328e-09 2.7844793e-09 2.390884e-09
0000c0 ca 9f 5e 31 8c 51 2d 31 13 70 6d 31 bf a2 72 31
       3.2396081e-09 2.5221167e-09 3.4551746e-09 3.5308145e-09
0000d0 0c 9a 44 31 00 b4 5e 31 85 68 98 31 c7 58 6a 31
       2.860932e-09 3.240757e-09 4.4356647e-09 3.4101946e-09
0000e0 14 59 3f 32 e0 4c 24 32 ca 9f 5e 32 8c 51 2d 32
       1.1137917e-08 9.563536e-09 1.29584325e-08 1.0088467e-08
0000f0 13 70 6d 32 bf a2 72 32 0c 9a 44 32 00 b4 5e 32
       1.3820698e-08 1.4123258e-08 1.1443728e-08 1.2963028e-08
000100 85 68 98 32 c7 58 6a 32 94 ac cb 32 6a c6 6e 33
       1.7742659e-08 1.3640778e-08 2.371079e-08 5.559415e-08
000110 73 66 78 32 31 99 76 32 7a ff 83 32 09 cc 82 32
       1.4458794e-08 1.4353916e-08 1.5366584e-08 1.5226776e-08
000120 be 91 83 32 74 fa 8c 32 7d fc 5b 32 30 98 7e 32
       1.5316683e-08 1.6412038e-08 1.2804887e-08 1.4819349e-08
000130 d4 2e 6b 32 6a 71 79 32 73 66 78 33 31 99 76 33
       1.3689448e-08 1.4519495e-08 5.7835177e-08 5.7415665e-08
000140 7a ff 83 33 09 cc 82 33 be 91 83 33 74 fa 8c 33
       6.146634e-08 6.0907105e-08 6.126673e-08 6.564815e-08
000150 7d fc 5b 33 30 98 7e 33 d4 2e 6b 33 6a 71 79 33
       5.1219548e-08 5.9277397e-08 5.475779e-08 5.807798e-08
000160 ae cc 11 32 f3 c7 1b 32 b1 8b ab 31 eb 80 ac 31
       8.48665e-09 9.067651e-09 4.992636e-09 5.020515e-09
000170 66 6f d8 31 a2 e9 c0 31 7b ad b9 31 e2 6c d3 31
       6.299092e-09 5.6144964e-09 5.403931e-09 6.1532868e-09
000180 cf 45 8f 31 62 19 d1 31 aa 32 8e 31 0a 29 d3 31
       4.169784e-09 6.0855863e-09 4.1385038e-09 6.145574e-09
000190 b1 8b ab 32 eb 80 ac 32 66 6f d8 32 a2 e9 c0 32
       1.9970544e-08 2.008206e-08 2.5196368e-08 2.2457986e-08
0001a0 7b ad b9 32 e2 6c d3 32 cf 45 8f 32 62 19 d1 32
       2.1615724e-08 2.4613147e-08 1.6679136e-08 2.4342345e-08
0001b0 aa 32 8e 32 0a 29 d3 32 27 d5 d6 32 b6 5d 88 33
       1.6554015e-08 2.4582295e-08 2.500981e-08 6.3500394e-08
0001c0 13 af 83 32 51 d9 69 32 b5 1e 4b 32 bc 69 80 32
       1.5330022e-08 1.3611797e-08 1.1823137e-08 1.4949244e-08
0001d0 e8 19 70 32 6d 06 92 32 78 55 87 32 9a 47 83 32
       1.3975729e-08 1.6999559e-08 1.5754935e-08 1.5282968e-08
0001e0 06 a9 89 32 06 8e 93 32 13 af 83 33 51 d9 69 33
       1.6025762e-08 1.7177637e-08 6.132009e-08 5.4447188e-08
0001f0 b5 1e 4b 33 bc 69 80 33 e8 19 70 33 6d 06 92 33
       4.729255e-08 5.9796974e-08 5.5902916e-08 6.7998236e-08
000200 78 55 87 33 9a 47 83 33 06 a9 89 33 06 8e 93 33
       6.301974e-08 6.113187e-08 6.410305e-08 6.871055e-08
000210 3c b1 1b 2a 5f ab 39 29 a6 f7 a2 25 28 70 4a 2d
       1.3828256e-13 4.1226893e-14 2.8270333e-16 1.1507274e-11
000220 b7 df 4a 2d 5d b0 9c 26 0e bf 3d 2b 0a 17 44 2f
       1.1532045e-11 1.0872478e-15 6.741143e-13 1.7834281e-10
000230 bd e8 1e 2e d4 c9 63 28 4f 0b 89 2b 23 a6 ac 29
       3.6131754e-11 1.2644796e-14 9.737574e-13 7.6671545e-14
000240 a6 f7 a2 26 28 70 4a 2e b7 df 4a 2e 5d b0 9c 27
       1.1308133e-15 4.6029097e-11 4.612818e-11 4.348991e-15
000250 0e bf 3d 2c 0a 17 44 30 bd e8 1e 2f d4 c9 63 29
       2.6964572e-12 7.1337125e-10 1.4452702e-10 5.0579183e-14
000260 4f 0b 89 2c 23 a6 ac 2a c6 e6 96 30 94 4f 2c 31
       3.8950297e-12 3.0668618e-13 1.0979526e-09 2.507453e-09
000270 bb f1 db 2e 15 d1 2a 30 3d c2 0c 2f 0b dd 87 2e
       1.0001907e-10 6.2142763e-10 1.2801933e-10 6.1783544e-11
000280 43 9e d6 2e e7 1e 40 2e 5d 16 8c 2e 78 3f d2 2e
       9.759706e-11 4.3683192e-11 6.3704354e-11 9.560969e-11
000290 38 2e eb 2e 8d fd 04 2f bb f1 db 2f 15 d1 2a 31
       1.0694773e-10 1.209541e-10 4.0007628e-10 2.4857105e-09
0002a0 3d c2 0c 30 0b dd 87 2f 43 9e d6 2f e7 1e 40 2f
       5.120773e-10 2.4713417e-10 3.9038825e-10 1.7473277e-10
0002b0 5d 16 8c 2f 78 3f d2 2f 38 2e eb 2f 8d fd 04 30
       2.5481742e-10 3.8243875e-10 4.277909e-10 4.838164e-10
0002c0 c4 79 36 30 ab b2 46 30 e4 41 6d 2e 53 32 af 2f
       6.6384254e-10 7.2285883e-10 5.3946084e-11 3.1868072e-10
0002d0 00 61 9c 2e c5 f0 31 2e ef a3 86 2e 43 d2 dd 2d
       7.111289e-11 4.0458987e-11 6.122735e-11 2.5218166e-11
0002e0 86 e4 15 2e 9d e0 5f 2e b5 11 7f 2e 73 b9 87 2e
       3.4081647e-11 5.0903826e-11 5.7996014e-11 6.1720316e-11
0002f0 e4 41 6d 2f 53 32 af 30 00 61 9c 2f c5 f0 31 2f
       2.1578433e-10 1.2747229e-09 2.8445157e-10 1.6183595e-10
000300 ef a3 86 2f 43 d2 dd 2e 86 e4 15 2f 9d e0 5f 2f
       2.449094e-10 1.00872664e-10 1.3632659e-10 2.036153e-10
000310 b5 11 7f 2f 73 b9 87 2f 89 66 cb 2e 86 3a d1 31
       2.3198406e-10 2.4688127e-10 9.249585e-11 6.089354e-09
000320 b5 ed 22 2e 54 a5 54 2e e5 73 a9 2e 8a e4 62 2e
       3.704566e-11 4.835006e-11 7.705817e-11 5.1589434e-11
000330 25 8d df 2d 3f 56 85 2e 16 85 d2 2d 8e 3f d2 2f
       2.5414846e-11 6.06346e-11 2.3933338e-11 3.8243936e-10
000340 dc 46 34 2e 56 b2 26 2e b5 ed 22 2f 54 a5 54 2f
       4.0990197e-11 3.7902424e-11 1.4818265e-10 1.9340024e-10
000350 e5 73 a9 2f 8a e4 62 2f 25 8d df 2e 3f 56 85 2f
       3.082327e-10 2.0635774e-10 1.0165938e-10 2.425384e-10
000360 16 85 d2 2e 8e 3f d2 30 dc 46 34 2f 56 b2 26 2f
       9.573335e-11 1.5297574e-09 1.6396079e-10 1.516097e-10
000370 9c d7 46 2f 3e f2 2b 2f 55 a4 a9 2e 33 18 88 2f
       1.8084595e-10 1.5638421e-10 7.7144215e-11 2.475545e-10
000380 17 04 6e 2f e2 34 69 2f 20 9c 4d 2e 75 cc 6a 30
       2.1647427e-10 2.1210014e-10 4.675027e-11 8.5419255e-10
000390 c9 d9 95 2f ca 66 4e 2f 29 07 68 2e 86 89 37 2f
       2.7257688e-10 1.8772109e-10 5.2757052e-11 1.6692611e-10
0003a0 55 a4 a9 2f 33 18 88 30 17 04 6e 30 e2 34 69 30
       3.0857686e-10 9.90218e-10 8.658971e-10 8.4840057e-10
0003b0 20 9c 4d 2f 75 cc 6a 31 c9 d9 95 30 ca 66 4e 30
       1.8700108e-10 3.4167702e-09 1.0903075e-09 7.5088435e-10
0003c0 29 07 68 2f 86 89 37 30 a7 06 a5 32 d1 ea 7e 33
       2.1102821e-10 6.6770445e-10 1.9211553e-08 5.9352548e-08
0003d0 6b a7 3a 32 ee 3f 32 32 b2 4c 45 32 bb 93 49 32
       1.0864691e-08 1.03755e-08 1.1484348e-08 1.173333e-08
0003e0 19 e7 4b 32 e2 42 60 32 ca be 25 32 91 d0 3b 32
       1.1868701e-08 1.3053723e-08 9.6476445e-09 1.0932255e-08
0003f0 ad 49 25 32 e8 4d 3f 32 6b a7 3a 33 ee 3f 32 33
       9.621016e-09 1.1135377e-08 4.3458765e-08 4.1502e-08
