checkpoints/MLP_bs32_lr0.001_win50-30-20_vTrue_scTrue_ep2.pth (torch, 178894 bytes, 24 tensors)

layer1.weight f4 [32, 22]
00000000: 18f5 6b3e 234a a7bc b4c2 e3bd 87cf 0b3e
00000010: 3a82 753f e3ac 11bf 9c8c 60bd c8f8 73be
00000020: 9e19 803d 164a a4be 1e8c 923e 2d5d a13e
00000030: 3b64 673d d039 ff3d 3969 6d3f 3bfe d2be
00000040: 2891 4a3e 70f4 1fbe a40d bc3d cb9c edbe
00000050: 0a0d 08bd c33d 1a3e 2ff2 82be d5a4 a23d
00000060: d219 d1bd 801b 57bd 5548 a1bd ebd8 b43e
00000070: f051 4a3e 3970 b5bc f6be 773d 80bb cbbe
00000080: 5e1a 6cbd d626 683f ea40 01be c203 e2be
00000090: be68 3abe c478 7d3e 1582 943d 63c7 91be
000000a0: cae9 51be a4f7 73be 9d4a d33d fcc0 8c3f
000000b0: 7423 193e 7911 57bd 802e e0be ba86 ab3e
000000c0: cd49 ae3e 5fd3 863e 9fc4 14bf 507f c13d
000000d0: 8f31 6ebf 0b87 713e 5c7f ef3e e16d c53e
000000e0: 0b71 d5be 9fd2 973e 0e12 ba3e 565b 18be
000000f0: 73d0 a0be 081d acb9 ab56 32bf a65c 1b3d
00000100: a28d 233f cde2 183f 1f1e 4a3b 6265 fcbb
00000110: e458 bdbc a837 19bf 61ed a0bd 4d83 1a3e
00000120: 39d1 bd3d 8457 3d3e b2c0 1cbf 1302 243d
00000130: c3cf f63d a663 21be da90 483e 3f33 29bf
00000140: 8aad f43d e67a 6f3e e4a5 ea3e 09ef 933d
00000150: b77a c4be 12ad a63c 3ff8 973e 1b33 07be
00000160: 8213 d8be cef2 88bd 7879 db3e 644b c43d
00000170: 2c98 adbe cc0d b9be 12bb 753e dfc6 083e
00000180: 4efc 093f 5d89 e93c 47d3 23be e095 74bd
00000190: 3c22 a83e c883 c8bc 8792 c1be 8f34 86be
000001a0: 83db 0dbe 40ad d9bd 3680 093f eb1f a63e
000001b0: 90c6 8dbe 55eb 85bc 42b3 0fbd 4f9a 3abd
000001c0: 465d 34bf f01e 24bd 651c 6bbe 3276 6d3d
000001d0: e203 743e c6c3 0abe 5e34 a73e 9381 3c3e
000001e0: e93b 9ebd f946 123f c1b3 39bf 84cc 073e
000001f0: 6cf3 12be fc45 913c 626c c53e 8f3a 00be
00000200: a2cb 31bb 5682 983e 3fbe 78be 41b3 e13e
00000210: bcbc 303d c16e 4f3d 405a e5be 8027 dd3d
00000220: d4d3 d63e bb05 c63e a6fd 6b3e 6caf b33e
00000230: 204d b63d 199e 41bd 548b 513e 7c2d b1be
00000240: 534b 11bf 2482 7a3d 1878 aa3e 3ceb 783e
00000250: 67df ba3e 4392 ac3e 9d4c 71be 6754 163d
00000260: 78ab 0fbd ca59 bbbe 0142 393d c86f 243e
00000270: 9373 8a3e 80e5 193f c7e3 a13e 799c 7a3e
00000280: f03d 1bbe 79e1 0cbf 2a0f 833d 0f33 d13e
00000290: ba3d 273e 3412 3ebf 4a0c 933e 57db 093f
000002a0: 3590 123f 0aa6 453e 04c2 fd3d 043c f1be
000002b0: 2d7c 583d ae8d a53e 7f35 07be 61a7 53bf
000002c0: dc40 26be ba53 1bbe ce39 9fbd f74c 98be
000002d0: 02ba 1c3e 3463 5c3e efe2 0abd 65db 313e
000002e0: ea31 e23d 4b34 d03d 0ce8 c13d 017a 14bd
000002f0: d200 32be e3da 36be db20 213d b6da af3e
00000300: 908c 433e 0e55 2f3e cb72 9abd a7e7 043d
00000310: 2d81 7a3d 6272 60be 5011 183d 1bbd 7e3d
00000320: 580f 32be bdff 3dbe f142 813d 20a7 a73e
00000330: 0657 c03e d9f0 aa3d e2fc a73e 2ed7 08bf
00000340: 74ec e8bd a141 3c3d 9395 7cbe 9675 bb3d
00000350: 3f1c 103e 6995 0f3f 973d 2e3f 9a4a 40be
00000360: 957d bf3e 26e2 13bf 6f5c 38be 25d1 293e
00000370: 47be 3b3d 6d23 6eba 348f d93c c4ef 51bf
00000380: 3313 a2bd 4404 443d 5012 b13e 4fc1 f43d
00000390: a3bd 46be 46c3 1ebf ac4d a6bd 461b 543e
000003a0: 62eb f33d 02bb 31bf b152 2f3e d356 db3d
000003b0: 9b9c 933e 2556 163e f096 2ebe 79e1 9dbe
000003c0: a687 07be 4c9a 4b3e a2b1 30bd d7f9 b4bc
000003d0: 838c 0dbe faab 8cbe 2a93 cd3e e0ee 003f
000003e0: acc7 323d 6fa8 a3be 9491 8a3c 61b6 b8bd
000003f0: df99 0abf 9c35 f13e 5d68 febc 3a26 8fbe
0.23042715 -0.020421093 -0.11121121 0.13653384 0.95901835 -0.5690443 -0.054821596 -0.23825371
0.06254886 -0.32087773 0.28622526 0.315164 0.05649207 0.12462199 0.9273868 -0.41209587
0.19781935 -0.1562059 0.09182289 -0.46408686 -0.03321556 0.15062623 -0.25575396 0.079415955
-0.10210003 -0.05251646 -0.07875124 0.35321745 0.19757819 -0.022148238 0.06048485 -0.3979149
-0.057642333 0.9068426 -0.12622419 -0.44143492 -0.18204018 0.247531 0.07251374 -0.28472432
-0.2049934 -0.23824936 0.10316966 1.0996394 0.1495493 -0.052506898 -0.43785477 0.33501226
0.3404068 0.26333138 -0.5811252 0.09448111 -0.9304437 0.23586671 0.46776855 0.38560393
-0.41687807 0.2965288 0.363419 -0.14878592 -0.31409034 -0.00032828026 -0.69663495 0.037930153
0.6388799 0.5972107 0.0030840707 -0.0077025155 -0.023113675 -0.5985055 -0.078577764 0.1508915
0.09268422 0.18490416 -0.6123153 0.04004104 0.12051346 -0.15760669 0.19586506 -0.6609382
0.119471624 0.23386726 0.4582969 0.07223327 -0.38374874 0.020346198 0.29681584 -0.13203089
-0.42202383 -0.06686936 0.4286611 0.09584692 -0.3390516 -0.3614334 0.23997143 0.13357113
0.5390061 0.028507883 -0.15998565 -0.059713244 0.3283862 -0.0244769 -0.37807104 -0.26211974
-0.13853268 -0.10628748 0.5371126 0.32446226 -0.27690554 -0.016347567 -0.035083063 -0.045557316
-0.70454824 -0.040068567 -0.2296005 0.057974048 0.23829606 -0.13551244 0.3265714 0.18408804
-0.07726271 0.57139546 -0.7253991 0.1326161 -0.1435067 0.017733566 0.38559252 -0.12522338
-0.0027129431 0.29786938 -0.24291323 0.44082072 0.04314874 0.050642733 -0.44795418 0.1079855
0.41958487 0.38676247 0.23045978 0.35094774 0.08901429 -0.047269914 0.20463306 -0.34605014
-0.5675556 0.061159268 0.3329475 0.24308485 0.36498567 0.3370534 -0.23564382 0.036701586
-0.035075635 -0.3659194 0.04522896 0.16058266 0.270413 0.60115814 0.31619093 0.24473752
-0.15160346 -0.55031544 0.06399377 0.40859267 0.1633214 -0.74246526 0.28720313 0.5385031
0.5725129 0.1930162 0.12390521 -0.471161 0.0528528 0.32334656 -0.13204001 -0.82677275
-0.1623568 -0.15168658 -0.07774697 -0.2974622 0.15305331 0.21522218 -0.033907827 0.17368849
0.110446766 0.10166224 0.094680876 -0.036249164 -0.17383125 -0.17856936 0.039337974 0.3434655
0.19096589 0.1712229 -0.07541426 0.032447483 0.061158348 -0.21918634 0.037125885 0.062192064
-0.17388666 -0.18554588 0.06311596 0.32744694 0.37566394 0.08346719 0.32810122 -0.5345334
-0.11373225 0.045961026 -0.24666433 0.09153287 0.14073275 0.56087357 0.6806273 -0.18778458
0.374005 -0.5776695 -0.1800401 0.16583689 0.04583576 -0.00090842583 0.026557542 -0.8200648
-0.07913818 0.04785563 0.34584284 0.11950933 -0.19408278 -0.62016714 -0.081202835 0.20713529
0.1191013 -0.69425976 0.17121388 0.1070992 0.28830418 0.14681299 -0.17049766 -0.30836084
-0.1323534 0.19883078 -0.043138154 -0.02209179 -0.13823132 -0.27474958 0.4015134 0.50364494
0.043647453 -0.31964442 0.01691512 -0.09019161 -0.5414104 0.47111213 -0.031055624 -0.27958852

layer1.bias f4 [32]
00000000: ccf6 efbe 1a6d d1be ca70 b3bd 6a05 393e
00000010: f61d fcbe 3003 4f3e fedb 4ebf c93b 0abf
00000020: de82 1dbd d80c 39bf 2d97 f5be 0c20 343c
00000030: b7f9 443e 4d59 2fbf f737 0ebf 89d6 1bbf
00000040: fc26 0f3e 8486 3d3e d554 723d 4749 40bd
00000050: 9bd3 00bf bb52 12be 3eb4 fb3d 5c3d 1f3e
00000060: 38ed 1ebe 4964 873e 5c4e e0be 6b3e e23d
00000070: a9b5 79be 40aa 23be 86b2 523e 8b50 09bf
-0.4686798 -0.4090355 -0.08761747 0.18068472 -0.49241608 0.2021606 -0.8080443 -0.53997475
-0.038454883 -0.72285223 -0.479669 0.010993969 0.19235884 -0.6849564 -0.55554146 -0.6087423
0.13979715 0.18508345 0.059162933 -0.046944883 -0.50322884 -0.14289372 0.12290238 0.1555075
-0.1552018 0.264437 -0.43809783 0.110470615 -0.24385704 -0.15982914 0.20575914 -0.53638524

layer2.weight f4 [64, 32]
00000000: 17dd a6be 69ac 90be e669 873d 0bbf 7fbe
00000010: 0e7b bc3c 652c 783e 942b ad3d cb01 8fbe
00000020: 33a1 ccbe c5a7 99be 3cbe 4cbe 48b6 443c
00000030: 75f0 dabe 9ea0 46be eaca 19bf b1f0 bebe
00000040: 3b4e e6bd 6563 d4be 64b3 d6be c749 7abe
00000050: d3a5 24be 35bb fdbd fea1 bcbd eb1f 2ebf
00000060: 9bba 4bbd 1d07 efbd 4c6c d1bd 15c0 c4bd
00000070: 4b1f 133d c627 b33d 06f1 d23d d3cf 02bf
00000080: bb81 14be 3a97 71bd d22c 00be 2bd3 7e3d
00000090: 6cb8 31be c9d0 9dbe 15c4 233e 16ff cebd
000000a0: fcfd 213c f4e3 d4be d3bd 0abe 93b3 24bf
000000b0: 42e8 edbe 515c 59be f0e1 aabe fd46 d6be
000000c0: 83b3 0fbf 7cb9 61be a270 1cbd b114 82bc
000000d0: 6911 c2bd 45af 35bc 32b8 99be 9b66 d8bd
000000e0: d243 bd3c 8cd2 37bb c274 1fbc 66a7 81be
000000f0: b301 343e 362a 1a3d 2c17 c4bd 0570 e9bd
00000100: a863 9ebe b29e eb3d 9c41 3e3d 1787 833e
00000110: 62d3 773d d520 16bf 86a6 5b3e e555 8cbe
00000120: c959 913e cbf3 e0be 594b 29bf 283e 153f
00000130: ad56 3e3d d98a 9fbe 54a7 e6be ae32 62bf
00000140: abbd 4abe 7fef aa3e 73d0 cbbd de13 0ebf
00000150: 573d 98bd 2181 7b3e 34d6 9abe c87b 4bbf
00000160: 4648 9b3e a526 86bd b3d1 9c3e 2a8f 333f
00000170: 715a dd3e b195 a1be 8b31 95be c30a 12bf
00000180: c76f 58be c10c 06be 7fe9 6a3b e6f1 d2be
00000190: 4d0f 993c 07a8 cf3c 6f88 50be 973c b8be
000001a0: e867 e0bd c3b3 81bd c13d 523d b188 2c3c
000001b0: f0b3 353d 6c11 e6be 8b9a aabe 6810 29be
000001c0: 8dd3 063c 8582 903d 711e 45bc 1767 b7bd
000001d0: 576f 193d daf1 c5be 43cf b93e 84a0 74be
000001e0: 3918 41bb d578 21bd 9bae d2bd ea65 0c3e
000001f0: 8e21 393e 4939 38be 9832 573f 112f dfbe
00000200: bb41 3f3f c55b 103f 42ea d53e 859e 43bd
00000210: e850 fc3e 9cbc c13a 591c 3d3f c84d d13e
00000220: 9596 ecbc e270 d33e 95b5 813f f707 233f
00000230: f4b2 28bf ddb7 a03e daf7 0c3f ca48 f23e
00000240: d31f e03e e6d8 1e3e d8ba f53d bafc bd3d
00000250: f3e1 b93e c640 f93e ba30 1e3d f968 783e
00000260: 01eb 023e 0d51 c53d a22b 2c3f a3db 36bd
00000270: 8646 473e 12e7 343f 292d abbd 16ae 103f
00000280: 2a04 92be aa1c 77bd cd5e 08be 5018 41bd
00000290: 6b40 f13d e861 dabd abf2 d4be a647 54be
000002a0: 9d8c 87be 87d4 063e 3b80 9abe ad37 7cbe
000002b0: 3c2c 2cbf 34bf 893e 0656 d7be 3a4e 063e
000002c0: 7731 68bd f8a8 26bf e435 f3be 58c2 833c
000002d0: 8aee 98be 7155 57bc 06f9 8bbe 694a dcbe
000002e0: 659d 6abe 68bf 8c3d 998e 733d 1a08 8fbc
000002f0: 6da1 df3d 171e efbd 42d4 77be d526 33be
00000300: fc4e f9be 7dad 74be 74ae 193e 51d8 fb3d
00000310: d296 bdbe 5ae5 02be f468 da3d 05f2 06bd
00000320: 25ae 03bf ecec 52be 7c9d e1be c914 89bd
00000330: f90e eabe f0c2 cb3e 3c40 01bf 82e7 5bbd
00000340: 98a7 f93d 5457 90bd 2b67 8c3d 2548 b1be
00000350: ae89 99be 0f67 83be 6ba7 70bf 114f b4be
00000360: 460c 8abe c370 95be 5791 82be 6f1a c3be
00000370: d040 a8bc 0071 d33d b834 75be 9d7f 7f3d
00000380: 9bcb 1cbe 6387 a73e 1910 0c3e 1776 43be
00000390: 01d1 3f3e 24a7 21be 82a1 e13b 63a3 97be
000003a0: 2a55 6e3c 879e d4bd 151b 6fbe f82d ebbd
000003b0: 072b 0ebf 16d8 b13c a3f8 0f3b 768d db3d
000003c0: b862 ddbd d377 17bf e155 5bbd bb11 2f3e
000003d0: 7de9 dfbe 6475 d23c 26dc e7be dd0b febe
000003e0: 3f8f 3bbe 0b9b 64be 75e5 883d c77c 07be
000003f0: ddac 2dbd daf2 c3bd e34d ffbe f296 db3d
-0.32590553 -0.2825654 0.066119954 -0.24975221 0.023007896 0.24235685 0.084555775 -0.27931055
-0.39966735 -0.3001081 -0.19994444 0.01200635 -0.4276158 -0.19397208 -0.6007525 -0.37293008
-0.1124539 -0.41482082 -0.4193374 -0.24442206 -0.16078882 -0.123892225 -0.09210585 -0.6801745
-0.049738508 -0.116712786 -0.10225734 -0.09606949 0.035918515 0.087478206 0.10299878 -0.51098365
-0.14502613 -0.05898211 -0.12517098 0.062213104 -0.17355508 -0.30823353 0.15992768 -0.101072475
0.009887215 -0.41580164 -0.13548975 -0.6433651 -0.4646626 -0.21226622 -0.33375502 -0.41851035
-0.5613329 -0.22043413 -0.038193353 -0.015879007 -0.09475977 -0.011089151 -0.30023342 -0.105664454
0.023103628 -0.002804908 -0.009732427 -0.25323027 0.17578773 0.03763791 -0.09574732 -0.11398319
-0.30935407 0.11504878 0.04644929 0.25689003 0.060504325 -0.5864385 0.21450242 -0.27409282
0.28388813 -0.43936 -0.66130596 0.5829797 0.04646938 -0.3116062 -0.45049536 -0.8835858
-0.19798915 0.33385846 -0.09951868 -0.55499065 -0.07433575 0.24560978 -0.3024155 -0.7948575
0.30328578 -0.065503396 0.30628738 0.70140326 0.43233064 -0.31559518 -0.2913936 -0.5704767
-0.2113639 -0.13090803 0.003584474 -0.4120018 0.018684054 0.025348676 -0.20364545 -0.35983726
-0.109573185 -0.06333115 0.051328424 0.010530637 0.044361055 -0.44935167 -0.33321032 -0.16510165
0.008229149 0.070561446 -0.012031184 -0.0895521 0.037459698 -0.3866108 0.3629094 -0.23889357
-0.00294639 -0.039421875 -0.102872096 0.13710752 0.18079206 -0.17990603 0.84061575 -0.43590596
0.7470967 0.5639003 0.41780287 -0.047758598 0.49280477 0.0014780941 0.7387138 0.40879655
-0.028880397 0.4129706 1.013354 0.6368403 -0.6589806 0.31390277 0.5506569 0.4732116
0.4377428 0.15512428 0.11998528 0.092767194 0.36305198 0.4868223 0.038620688 0.24258794
0.1278496 0.096346 0.6725408 -0.044643056 0.19460496 0.70665085 -0.08358223 0.56515634
-0.28518802 -0.06033007 -0.13317414 -0.047142327 0.11779865 -0.106632054 -0.4159139 -0.20730457
-0.26474467 0.1316701 -0.30175957 -0.24630614 -0.67254996 0.2690369 -0.42057818 0.13115779
-0.0566878 -0.65101576 -0.47502053 0.016083881 -0.2986949 -0.013142929 -0.27338427 -0.4302552
-0.22911604 0.06872445 0.059462164 -0.017459918 0.109194614 -0.11675661 -0.24202064 -0.17495282
-0.48693073 -0.23894306 0.15007955 0.122971185 -0.3702913 -0.12782803 0.106645495 -0.03294565
-0.514376 -0.20598191 -0.44065464 -0.066934176 -0.45714548 0.39797163 -0.5048864 -0.05368758
0.12190169 -0.070479065 0.06855615 -0.34625354 -0.29987854 -0.25664565 -0.9400546 -0.35216573
-0.2696249 -0.29187593 -0.2550151 -0.38106105 -0.020538718 0.103242874 -0.23945892 0.06237756
-0.15312044 0.3272048 0.13678016 -0.19088016 0.18732072 -0.15786415 0.0068857083 -0.29616842
0.014546672 -0.10381799 -0.23350175 -0.11483377 -0.55534405 0.021709483 0.0021968267 0.10720341
-0.10809845 -0.5916721 -0.053548697 0.17096607 -0.43732825 0.025690742 -0.45285147 -0.49618426
-0.18316363 -0.22324769 0.066843905 -0.13231193 -0.042401183 -0.09567805 -0.4986411 0.1072215

layer2.bias f4 [64]
00000000: 932e 50be 5b11 a1bd 6af4 15be fa14 853d
00000010: 0e80 54bf 8508 7dbd ad5f 9cbe 381d d9be
00000020: 9608 a1be 2abe 613d cb42 47bc 84c6 c6bd
00000030: 76ce 1abe b371 d0be dfe3 3ebe 4f9a 77be
00000040: 788e 41bd e2f2 a33d 5aec 06bf 7562 0b3c
00000050: ed1d 87bd 428c d43a 5fa8 58be a8cd b13c
00000060: 0f0e 8abe 05ef 48be e853 d6be de19 1ebe
00000070: e03e 113e 8ce5 2bbe 1464 56be ac34 b8bd
00000080: be00 87be 7f51 73ba 309c fdbd ba9d 8ebd
00000090: 1fa2 7dbd 2bb5 1ebe f243 aabd c5d6 913e
000000a0: 3ae2 58be ee68 d13d c2f0 1dbe ccd3 f2bd
000000b0: f856 a5bf 1567 f93b d8ba 0f3d 965a 083b
000000c0: 7733 4bbf deb9 33be aad9 24bf cf8e 67be
000000d0: 5bcb 983d 1af3 24be 028c 3fbe 8358 ccbd
000000e0: 027c 223e fad2 413d 7d9a af3d e198 acbe
000000f0: eec0 b0bd 4273 fcbd 59ed a6bd df2e 66bd
-0.20330267 -0.078646384 -0.14644018 0.064981416 -0.83007896 -0.061775703 -0.30541745 -0.42405105
-0.31451863 0.055112995 -0.012161921 -0.097058326 -0.15117821 -0.40711746 -0.18641613 -0.24179958
-0.04725501 0.080053106 -0.52704394 0.008507361 -0.06597505 0.0016216116 -0.21157978 0.02170451
-0.2696385 -0.19622429 -0.4186089 -0.15439555 0.14184141 -0.16786784 -0.20936614 -0.08994421
-0.26367754 -0.0009281858 -0.12383306 -0.06963678 -0.06192219 -0.15498798 -0.08313741 0.2848417
-0.21180049 0.10225092 -0.15423873 -0.11856803 -1.2917166 0.0076111653 0.035090297 0.0020805947
-0.79375404 -0.17551371 -0.6439463 -0.22613071 0.07460662 -0.16108361 -0.18705752 -0.0997782
0.15867618 0.047320344 0.08574388 -0.33710387 -0.086305484 -0.12326671 -0.08150739 -0.056197044

layer3.weight f4 [128, 64]
00000000: 1707 0dbe a809 f63d 4e18 aa3e ce65 5cbf
00000010: 1b01 9fbe 5ac0 803e ffc2 69be da0d 25bd
00000020: c8c0 5fbe b7fa 783e 3088 0fbf abe0 2f3d
00000030: 7e00 a0bd 6038 e7be af66 e03c f0c4 5fbe
00000040: c5eb 2c3e 0bbb ca3e 71fd abbe 0be6 1ebe
00000050: 55e4 d53c aabb 96be 8a9d 28be c63e 3bbe
00000060: 4ee3 9dbd c021 86be 756e 3bbe 6fb5 933e
00000070: 5d96 c5be 2d78 58bd 4be9 3fbe a52b 04bd
00000080: 23d7 ffbd ee7b 2fbf 4a45 1e3c d6cf 16bf
00000090: 4e3d 2fbf 14a3 4abe 0570 6f3e 2200 de3b
000000a0: 5772 f13d 17c3 1d3e 1076 75bd 38c2 c73c
000000b0: 88c1 7dbe 7e87 0abe 01de 1fbd b8fb 923e
000000c0: ebb5 debe 7e76 66bd e5a1 68bf cbee 82bb
000000d0: 9eb3 39be 42ac 553e 0782 043e 30a1 63be
000000e0: 9d4c fbbc 7e99 8cbe fad5 acbd 3501 1e3d
000000f0: 6584 dc3d 4d3e 663d 621c 29be dc22 a2be
00000100: 4902 523d b32c a5bd 3a88 6bbe 684c 07be
00000110: 5dd4 23be df8b 23be 96ce 163c f757 9bbb
00000120: 90e5 fcbd cc18 993d cb51 92be 0f52 b1bd
00000130: 809c 323b 7109 813d f8c2 b23c aa59 133d
00000140: 9c53 95bc 4fae bbbe 5170 89bd 9358 4a3d
00000150: 18b6 633c f850 85bd a28a 96be fe59 afbd
00000160: eb12 0cbc f95e 8dbd 2c96 063d 1da2 d6bd
00000170: aeb9 593d be85 bcbd 0f93 ff3d 99a8 43bd
00000180: b4d3 debd f90a 1cbe 40fa 94bd d0eb f3bc
00000190: 9f3c f7bd 583e 80bd 4843 773d 8d26 f4bd
000001a0: 7c96 9a3d d178 7abd a69d 643d 480a 31bc
000001b0: 60df 0dbd 9d59 c8bd fea6 ad3d 223b 62bb
000001c0: 402e 993d a153 8e3d 0933 703d 1acc 783d
000001d0: 52bc 99be d41c fbbd 5587 ffbc a79b e7bd
000001e0: 2ff7 57be 1d86 e4bd 2b0d 163d c689 4a3c
000001f0: 39b4 d9bd 16dd 97bd 7ac2 79bd 9e5f d5bd
00000200: d3fa 93bd 8ff0 863c 466d 0b3c b4f3 61bd
00000210: 2ca9 3ebe c681 92bd 3d14 f4bd 5e2e 04ba
00000220: 3c8e f6bd 7aa9 983d 3825 88bd 6ef9 81be
00000230: f44d dabd 9a30 0d3d 256b f73d 4084 56be
00000240: 4470 c1bc 7052 a4bd 9a3a a23d 5a62 503d
00000250: 2c95 0bbd b9fd 0e3e fdbb 04be 4c47 27be
00000260: ef48 8c3d 38b7 3abd ab8a 2dbe f106 72bd
00000270: 2447 27bb 44f8 86bc 6fc6 b9bd e865 2d3d
00000280: 4033 653d 2570 e4bd a319 9cbd 81e0 0cbe
00000290: 2717 0abe d455 b5bb 0bf5 173d 2af7 29be
000002a0: bfe3 52bd e5d3 b4bd 8662 dd3d a4bd 3c3d
000002b0: f058 cfbc 4663 abbd 0dd3 50be 20fd 03be
000002c0: 9b14 02be fbd7 01be 5b5a efbc 3e19 bc3d
000002d0: 1486 4d3d 13d1 de3c c035 91bb 32af 05be
000002e0: d022 3dbd 56e8 8fbd 0138 f4bd 34f9 f8bd
000002f0: 7c40 36be f0d7 cbbc 2117 b4bc 8bf1 6abd
00000300: 067c 73bd 78f5 1dbd c33a 02be 5ff2 82bc
00000310: 3d3a 55bd 1e32 8a3b 6021 3ebc 4b0c 963d
00000320: 3061 e43c 670c 9bbd 7420 1ebd ffaa 0bbe
00000330: 7a3c 32bd 5ba7 a93d 44fe dbbc a7c0 9f3c
00000340: ceaf 01be 3e20 0cbe b2c4 65bd 02e9 27be
00000350: 6106 6a3c 5e8c ddbd fe04 d8bd e776 63bd
00000360: e4ea a73c e0c1 1b3c 71bd 2dbd a9fb a3bd
00000370: 3c40 18be 2d75 473d b61b 1abe ce86 15be
00000380: 5b5d 8ebd c8cf 1cbe eb4a bebd b910 0fbe
00000390: 6857 69bd 1cfb acbd e890 dabc e7f1 82bb
000003a0: 0542 be3d 5726 06bd 18a4 2fbd 6fbe a2bc
000003b0: c1ae 32ba 2289 eb3c 5796 83bd 5231 9dbd
000003c0: 5b0a 98bd b6e8 cd3d 5a46 b7bc 22cc c4bd
000003d0: d231 ebbd eb98 34bd e328 74bd c912 8a3c
000003e0: d870 b2bd e3b4 1fbe 3eb0 54bd dd58 d83c
000003f0: 91bf 8d3c e5e2 0c3e fba7 a63c 4622 26bd
-0.13772236 0.120135605 0.33221668 -0.8609284 -0.3105553 0.25146753 -0.22828291 -0.040296413
-0.21850884 0.2431439 -0.5606718 0.04293887 -0.07812594 -0.45160198 0.027392713 -0.2185247
0.16886814 0.39595827 -0.33591798 -0.15517442 0.026109854 -0.2944005 -0.16466346 -0.18285665
-0.077093706 -0.26197624 -0.18303855 0.2884936 -0.3859128 -0.052848984 -0.18741338 -0.032268185
-0.12492206 -0.68548477 0.0096600745 -0.5891088 -0.6845292 -0.19788772 0.23382576 0.006774918
0.11789387 0.15406452 -0.059927046 0.024384603 -0.24780858 -0.13528249 -0.03903008 0.2870767
-0.43498167 -0.056265347 -0.9087203 -0.0039957515 -0.18134925 0.20866492 0.12940226 -0.22229457
-0.03067618 -0.27460855 -0.0843925 0.03857537 0.1076744 0.05621176 -0.16514733 -0.3166722
0.05127171 -0.08065166 -0.23001185 -0.1321274 -0.15998979 -0.15971325 0.009204527 -0.004740711
-0.12348473 0.07475433 -0.28578028 -0.086582296 0.0027253926 0.06300629 0.021821484 0.035974182
-0.018228345 -0.36656424 -0.06710876 0.049400877 0.013898395 -0.06509584 -0.29402643 -0.085620865
-0.008549432 -0.0690288 0.03285806 -0.104801394 0.053155594 -0.09205197 0.12479221 -0.04776821
-0.10880223 -0.1523856 -0.07274294 -0.02977553 -0.120721094 -0.06261891 0.0603669 -0.119214155
0.07548234 -0.061150376 0.055814408 -0.010805674 -0.034636855 -0.097827174 0.08479117 -0.003452011
0.074795246 0.06949545 0.05864242 0.06074152 -0.3002649 -0.12261358 -0.031192461 -0.11308985
-0.21090387 -0.111583926 0.03663365 0.012361949 -0.10630078 -0.07415216 -0.060976483 -0.10418628
-0.07225575 0.01647213 0.00850994 -0.055164054 -0.18619221 -0.071536586 -0.11917923 -0.00050423096
-0.12038848 0.074542 -0.06647724 -0.25385612 -0.106594 0.03447018 0.12080983 -0.20948887
-0.023613103 -0.08023536 0.079213336 0.050875045 -0.03407781 0.13963975 -0.12962337 -0.16335791
0.068498485 -0.045584887 -0.16947429 -0.05908865 -0.002552458 -0.016475804 -0.09071051 0.042333513
0.05595708 -0.11154202 -0.07622077 -0.13757516 -0.13485394 -0.005533913 0.037098926 -0.16598192
-0.051486727 -0.08829478 0.108098075 0.046079293 -0.025310963 -0.08368544 -0.2039301 -0.12889528
-0.12703173 -0.12680046 -0.02921789 0.09184502 0.050176695 0.027199304 -0.0044314563 -0.13055113
-0.046175778 -0.070267364 -0.119247444 -0.12156907 -0.17798036 -0.02488324 -0.021983685 -0.05735926
-0.05944445 -0.038564175 -0.12717728 -0.015984712 -0.052057493 0.0042174 -0.011604637 0.073265634
0.027878374 -0.07570725 -0.03860517 -0.13639449 -0.043514706 0.08283874 -0.026854642 0.019501043
-0.1266472 -0.13684174 -0.056095786 -0.16397479 0.014283747 -0.108177885 -0.10547827 -0.055533316
0.020497747 0.009506673 -0.042416994 -0.08006985 -0.14868253 0.048695732 -0.15049633 -0.14602205
-0.069514 -0.15313637 -0.09291633 -0.13971223 -0.056968123 -0.08446333 -0.026680425 -0.003996122
0.09289936 -0.032751407 -0.0428811 -0.019866196 -0.00068162015 0.028751913 -0.064251594 -0.07675423
-0.0742385 0.10054152 -0.022372413 -0.09609248 -0.11484112 -0.044091146 -0.059609305 0.01685466
-0.087129295 -0.15596347 -0.05192589 0.02640956 0.01730326 0.13758428 0.020343771 -0.04056003

layer3.bias f4 [128]
00000000: 972a 81bc 448a 81bd da4f 1fbe 6525 10bc
00000010: de6d 88bd 3fbd c1bd d513 e4bd 9bd4 a5bd
00000020: e420 a7bd 5c28 dc3c abdb c7bd 80db 40be
00000030: a8aa 8cbd 8f2f 09be 12b6 ccbd b8b1 b9bd
00000040: 48b9 1bbd ce85 02be fd73 3bbe eae9 a33d
00000050: 7b13 8fbc a59e cebd ac51 5bbe f22a dbbd
00000060: 2e7f 0ebd 34bc 03be 60de a0be 6553 303e
00000070: 12ad 18be cea5 57be 2d2b 4abe 3b2e fd3d
00000080: 1796 7fbd 6e7f 07bd 1d68 65be 2bb7 68be
00000090: b170 49be 4aed 1c3e a1a2 6cbe 9a3b 32be
000000a0: 563a 07be 1a0c 42be f588 c6bd bfcb cebd
000000b0: 46a0 e73d f243 18be 916d 34be 110c 1bbe
000000c0: 0065 143b 9b51 39be 9eb6 97bd dbf2 c9bd
000000d0: 61ba 03be 0a0e 15be d6d0 bfbd 3547 42be
000000e0: 1a6f 15be 9db4 a8bd db1a 32be dd99 18be
000000f0: ac4c 0cbe 64e5 a0bc bed5 99bd 830b 46be
00000100: ed27 e9bb 546a 32be e564 bebd 22cf bfbd
00000110: 87b1 90bd 5d02 b7bd 467a 0dbe ddc6 35be
00000120: 9dac f7bd 26d6 c2bd 923f 1dbe 6300 cebd
00000130: 36ae 20be cfe4 2ebe 6010 f7bd dd5f 41be
00000140: da80 6b3e 1787 dfbd 78f0 54be 326b 4c3e
00000150: b8d0 66bd b39a 03be 246f 0dbe 8e25 31be
00000160: fd44 26bd 34c2 183d c995 aebd 4696 b2bd
00000170: e9e7 dfbd a9d2 f03c 5302 59be 6308 fabd
00000180: a01c 6bbe d8b2 e6bd 713c 4ebe 91ba 91bd
00000190: e671 10be 647a 6cbe 6af7 e1bd 5b7c 18be
000001a0: e963 89bd b3d6 02be 3185 03be 3703 85bc
000001b0: 6c67 dbbd 7005 edbc 5689 33bd fc03 0ebe
000001c0: dfb0 edbd 5cf0 42bd 747b 12be 4e7e c7bd
000001d0: e7a6 d0bd b50c 09be d0b1 c9bd 5c2f 2fbe
000001e0: 3edb 5abe ae4d 9bbd cb53 f3bd e875 2abe
000001f0: f5c2 02be 5f75 d0bd 3596 c5bd 9f3d 0abe
-0.015767379 -0.063252 -0.15557805 -0.008797978 -0.066615805 -0.09459924 -0.11136595 -0.08097192
-0.0816057 0.026874714 -0.09758695 -0.18833733 -0.068684876 -0.13397048 -0.09995665 -0.090671
-0.038018495 -0.12746355 -0.18305965 0.080036 -0.017465344 -0.10088853 -0.21417874 -0.107015505
-0.034789257 -0.12864763 -0.3141966 0.17219312 -0.14909771 -0.21059343 -0.19743033 0.123623334
-0.062398996 -0.03308051 -0.22402997 -0.22726123 -0.19671895 0.15324894 -0.23108913 -0.17405549
-0.13205847 -0.18949929 -0.09694091 -0.10097455 0.113098666 -0.14869669 -0.17619921 -0.15141322
0.0022643209 -0.18097536 -0.07407878 -0.09860774 -0.12864067 -0.14556137 -0.09366004 -0.18972476
-0.14593163 -0.08237574 -0.17393057 -0.14902444 -0.13701123 -0.019640632 -0.07511471 -0.19340329
-0.007115355 -0.17423373 -0.09296588 -0.09365679 -0.07065111 -0.08935998 -0.13816175 -0.17751642
-0.1209347 -0.09513502 -0.15356281 -0.100586675 -0.15691456 -0.17079471 -0.1206367 -0.18884225
0.22998372 -0.10914438 -0.20794857 0.19962767 -0.056351393 -0.12851982 -0.13811928 -0.17299482
-0.040593136 0.03729458 -0.08524663 -0.08720069 -0.10932905 0.029397326 -0.21192293 -0.12208631
-0.22960138 -0.112645805 -0.20140244 -0.07115663 -0.14105949 -0.23093563 -0.110335186 -0.14891188
-0.067085095 -0.12777214 -0.12843777 -0.016236885 -0.107130855 -0.028933257 -0.043832146 -0.13868707
-0.11606001 -0.047592506 -0.14304906 -0.097408876 -0.10188084 -0.13383754 -0.09848368 -0.1710791
-0.21372697 -0.075831756 -0.118812166 -0.1664654 -0.12769683 -0.10178637 -0.0964779 -0.13500069

layer4.weight f4 [22, 128]
00000000: 9d4f b5bd 7506 4d3d 85c2 c1bd 3dd1 7f3d
00000010: 03e3 8c3d 2b75 f53c 9843 eb3b fbc3 a6bd
00000020: e98b 8abd 1283 e63d 301a 79bc 0d9f 6e3e
00000030: 697c c63d fe9c b5bd 19bc 9fbc 5fa5 a0bd
00000040: 6713 65bc e4b2 85bd 97ce 1bbd 8208 e3bc
00000050: 36c9 01be 46e6 a53d 5fdd f03d 3264 83bd
00000060: e12f da3b 1851 53bc 2b9a d2bc 42a9 5d3d
00000070: 0e70 813d c6fe f23b 873d 73bd b9af 1cbe
00000080: 1abb 253e b2fd 803d 2bdf bbbd 9ace ce3d
00000090: 32c2 22be e00c b13a e834 543c 0685 95bd
000000a0: ad9e 6a3d d77a 2bbd b2a2 c8bc f811 0f3b
000000b0: b709 1c3c 5144 913d b1c8 4ebd bff0 e93c
000000c0: ec08 1e3c b2d2 9b3c 8719 33be 9405 633d
000000d0: 95e9 d5be fbc8 cbbc 12b0 973b a619 03be
000000e0: 8389 013d f138 ca3d d030 cfbd 2aef 573b
000000f0: 004c 28bd 0237 823d 96f5 813d 2ac4 6b3c
00000100: 2b98 44bd ca5f ffbd 0ea7 6fbc c076 13be
00000110: 7b3b 3ebd c66c 38bd 79db 7e3d 1caf eb3c
00000120: a2c9 583c 1cf5 9dbc 0f5d 15bd aa22 efbd
00000130: 1637 43bd 8721 eb3c e9f6 733d 967c 60be
00000140: 95c2 d63c 11c3 843d 9748 6a3d 3280 913c
00000150: 7d8a 9dbd 0077 213d c2a0 2a3e eb32 c8bd
00000160: ba87 99bc 5fc1 5d3d 6852 273c 73d2 0e3d
00000170: 55bc cc3d d521 be3b 9a45 0ebd 3f17 febc
00000180: b2a8 e93c 2c5c 3dbc 8652 b73c 7b37 2dbc
00000190: c41d f2bc c09f 153d 72e1 35bc 50d3 b33d
000001a0: 4f62 40be 5b76 82bd 207e 563d 806c b23d
000001b0: 8a92 1b3a 405d 31bc 06c5 e53c c71a c5bd
000001c0: be1f 6abc 6a5e 143d 8e15 09bd d5a9 00bc
000001d0: 33bd 3a3e a0c2 c9bc 20d1 f9bc 2d33 71be
000001e0: 6102 233d 6e0c 143d 2589 5cbc 60fa 4d3d
000001f0: 1a1e 18ba a455 c13d 0ab4 143d 88de 07be
00000200: 7b54 cabd a592 06bd 6eac 2abd d7c9 4c3c
00000210: 91d8 903d 26a4 013d eb5a e8bc 3b26 033c
00000220: d4e1 26bd 842c b73c dab4 52bd 50ff e23d
00000230: b776 1e3e 2668 3c3e 2324 a23d bea2 c03c
00000240: 838e 173d 52ac e83d 8783 ba3d 045b 14bb
00000250: 84d4 383d 9e5a be3d f839 873c 09a4 2f3e
00000260: 136f 943d 14f5 473c f325 3d3e 9418 4abe
00000270: 610e 1abe 9cc1 693b 2aa3 25bd 19cf 8d3c
00000280: 9c6d 623d e3a9 3dbd f71e 00be 2190 0cbe
00000290: 333d 1d3d d778 e7bd dfd7 4abd eeda 143a
000002a0: 773f ec3d c9d6 9c3d 39e5 c4bd 94d4 11be
000002b0: 470f bbbc 9769 6f3e ed28 7a3d 322f cb3b
000002c0: ee82 89bc 2c4f 053d ea4e 06be 0930 e93c
000002d0: 0bfc 4c3e 349b 93bc 5685 493e 8962 023e
000002e0: a3f7 933d 2ea7 ab3d 6eef 2e3d dc08 263d
000002f0: a519 ed3d 5d61 08bd 6c74 4d3d 698c 7bbc
00000300: 1455 7abc a572 55bc ceef 373c 2df2 a0be
00000310: f0c4 013e 1a0f 523d 9dd7 93bd e6e8 0c3d
00000320: b58a 50be cbdc 6abd 7bd8 1abb 20b0 3ebc
00000330: 69cd e33c ccd2 11bd fc11 a53c 8162 72be
00000340: cef5 4dbd ac07 41bd c6dc a63d ecef 6fbd
00000350: 7ec4 73bd fe19 0ebd f9fb acbe e19c 8c3c
00000360: f0bb d43d dc1f cc3d 71ef bc3d b5ef 6e3d
00000370: f3da 08be e198 93bd c3a8 9d3d 33c8 eebe
00000380: 8588 5dbd f362 4fbb 518d e1bd 2f2a 87bc
00000390: 3b5a c53d a5d0 e2bc 2ddc 1b3d 79e0 fa3d
000003a0: 17f8 fa3d a675 9dbd 263a 4bbd 868f cfbd
000003b0: 4518 6f3c 82f1 a53d 897c d53b 4dc3 00b8
000003c0: c282 f5bb 25e8 92bc c5da 063c 497a 3fbd
000003d0: 22f9 fabd af8d 8fbd 4fa8 e93d a316 e53d
000003e0: af4c fe3d 9da7 6abd 7128 2c3e 41f3 0abd
000003f0: 6fa1 163d 3fa6 ae3d c310 83bd cacf 183d
-0.08853076 0.050054986 -0.0946093 0.062455405 0.068792365 0.029963097 0.0071796887 -0.08142849
-0.06764967 0.112554684 -0.0152039975 0.2330286 0.09691698 -0.088678345 -0.019498872 -0.07844042
-0.013981677 -0.06528261 -0.038038816 -0.027714018 -0.12674412 0.08100562 0.11760973 -0.06415595
0.0066585396 -0.012897752 -0.025708279 0.054116495 0.06320201 0.0074156253 -0.05938485 -0.15301408
0.16184655 0.062983885 -0.09173425 0.10098 -0.15894392 0.0013507865 0.012952067 -0.07300763
0.05728023 -0.041865196 -0.024491642 0.0021830779 0.009523801 0.070931084 -0.050484363 0.02855718
0.009645682 0.019021366 -0.17490207 0.05542524 -0.4177977 -0.024876108 0.0046291435 -0.12802753
0.031625282 0.09874142 -0.10116732 0.003294895 -0.041088104 0.06358148 0.0634567 0.014390031
-0.04799668 -0.12469442 -0.014627231 -0.14400768 -0.046443444 -0.04502561 0.062221024 0.028770022
0.013231667 -0.019281916 -0.0364657 -0.116765335 -0.047659956 0.02870251 0.059561644 -0.21922526
0.02621583 0.064825185 0.057198133 0.017761324 -0.0769243 0.039420128 0.16662887 -0.09775337
-0.018741477 0.05413949 0.010212518 0.03486867 0.09996859 0.005802373 -0.034734346 -0.031016944
0.028522823 -0.01155762 0.022378217 -0.01057231 -0.029555209 0.036529303 -0.011101114 0.08780539
-0.18787502 -0.06370231 0.052366376 0.08712101 0.0005934617 -0.010825455 0.02804805 -0.09624248
-0.0142897945 0.036222853 -0.03346782 -0.007852991 0.18236236 -0.024628937 -0.030495226 -0.23554678
0.03979719 0.036144666 -0.013460432 0.050287604 -0.00058028253 0.09440163 0.03630451 -0.13268483
-0.098793946 -0.032854695 -0.041668348 0.012499294 0.07072557 0.031650685 -0.028363666 0.00800472
-0.04074271 0.022360094 -0.051442005 0.11083853 0.15474974 0.18399104 0.07917049 0.023515102
0.037001144 0.113609925 0.09107118 -0.0022637257 0.045124546 0.092946276 0.016507134 0.17152418
0.07247748 0.012204427 0.18471508 -0.19735938 -0.15044548 0.0035668379 -0.04043881 0.017310666
0.055280313 -0.046304595 -0.12511812 -0.13726856 0.038388442 -0.11302345 -0.049522277 0.0005678375
0.115355425 0.076581545 -0.09614033 -0.14241248 -0.022834433 0.23380123 0.061074186 0.0062006945
-0.016786065 0.032546207 -0.13116041 0.028465288 0.20018022 -0.018018343 0.1967977 0.127329
0.07224967 0.08381496 0.042708807 0.040535793 0.11577157 -0.033295978 0.050159857 -0.015353301
-0.015279073 -0.013027822 0.0112266075 -0.31434765 0.12672782 0.051283933 -0.07218859 0.034401797
-0.20365413 -0.05733947 -0.0023627568 -0.011638671 0.027807908 -0.035601422 0.020150177 -0.23670389
-0.050283246 -0.047126457 0.08147578 -0.058578417 -0.05951356 -0.034692757 -0.3378599 0.01716465
0.10387409 0.09967014 0.09225357 0.05833407 -0.13364772 -0.07206894 0.07698204 -0.46637115
-0.054085273 -0.0031644672 -0.11013282 -0.016499607 0.09636351 -0.02768738 0.038051773 0.12249846
0.12254351 -0.07688455 -0.049616 -0.10134797 0.014593189 0.081027046 0.00651509 -3.0699466e-05
-0.007492394 -0.01793296 0.00823087 -0.04674748 -0.122545496 -0.07009446 0.114090554 0.11185958
0.1241697 -0.057288755 0.16812302 -0.03392339 0.03677505 0.08527803 -0.063996814 0.037307538

layer4.bias f4 [22]
00000000: 1a61 ca3c 29b3 d43b ba9a a13d 6134 0a3d
00000010: 6f51 c83b 759b 583d 5e1a 093d 153b ae3d
00000020: d717 593c 9c07 1e3d 225e f73c 761a 123d
00000030: 258e 1c3e 44e9 7b3d 815d 1d3c e030 d63d
00000040: 5abc 863d eab4 263e 31ca 563c f9f9 8b3d
00000050: 472a 4f3d 7ca6 873d
0.024704505 0.006491084 0.0789084 0.03374136 0.0061132233 0.05288263 0.03347241 0.08507363
0.013250313 0.038581476 0.030196253 0.035669766 0.15288599 0.061501756 0.009604813 0.10458541
0.06578894 0.1627995 0.01310973 0.06834788 0.05057743 0.06623551

exp_avg f4 [32, 22]
00000000: ec8c 26b0 ce68 952f e2f4 082f 34f3 3eae
00000010: 40c4 3cb0 fa68 54ae 8122 c0af 07af 2e2f
00000020: c496 d7af a1a4 40ae 5a8d 802e 6685 d0af
00000030: e2f4 882f 34f3 beae 40c4 bcb0 fa68 d4ae
00000040: 8122 40b0 07af ae2f c496 57b0 a1a4 c0ae
00000050: 5a8d 002f 6685 50b0 b71b d22f 36c5 982f
00000060: cc67 812e 2cb5 9d2e c173 29b0 bc23 8d2d
00000070: 6623 172f f583 2fad f269 00ae 6f7e 792f
00000080: b4fa 84af 212e 86b0 cc67 012f 2cb5 1d2f
00000090: c173 a9b0 bc23 0d2e 6623 972f f583 afad
000000a0: f269 80ae 6f7e f92f b4fa 04b0 212e 06b1
000000b0: 0fab 2e37 9659 8137 2829 d536 da04 3b37
000000c0: 8aab 8f35 683e b236 ef63 bd36 16fd 6db6
000000d0: b9b3 6537 c327 3b37 7589 2237 b2f7 d736
000000e0: 2829 5537 da04 bb37 8aab 0f36 683e 3237
000000f0: ef63 3d37 16fd edb6 b9b3 e537 c327 bb37
00000100: 7589 a237 b2f7 5737 a466 33b8 ab64 ac37
00000110: 481c 91b8 bc99 6db8 88ab 88b8 6f5b b5b8
00000120: 0d70 c4b8 2d0f a3b8 d0a2 93b8 f790 81b8
00000130: 46c1 c7b8 6126 94b8 481c 11b9 bc99 edb8
00000140: 88ab 08b9 6f5b 35b9 0d70 44b9 2d0f 23b9
00000150: d0a2 13b9 f790 01b9 46c1 47b9 6126 14b9
00000160: 6264 1982 bb0f 1d82 cb9a 1d82 6a7c 1b02
00000170: dda5 1a82 6009 1802 9358 1e02 51af 1e82
00000180: 37f5 1002 0fa9 1b82 afde 1502 81c3 1082
00000190: 7fc3 1682 a8bc 1402 6aef 1382 f36f 1102
000001a0: 0979 1702 04cc 1782 b712 1a02 5de7 1482
000001b0: 424b 1f02 e1dd 1982 fc28 5837 06d0 1038
000001c0: 7fed a837 9974 6838 28f2 1438 0231 1138
000001d0: 19bc 7938 b18b e437 21e5 3338 ec7e 2838
000001e0: 4fa7 7438 d403 0238 7fed 2838 9974 e838
000001f0: 28f2 9438 0231 9138 19bc f938 b18b 6438
00000200: 21e5 b338 ec7e a838 4fa7 f438 d403 8238
00000210: a9f3 1a02 5715 1102 49d3 1982 046f 1182
00000220: cd5f 1882 bc3b 1702 ec49 1302 788a 1282
00000230: c20f 1802 cb86 1202 f8b3 1b02 91b7 1002
00000240: fb25 1382 2d94 1a82 9fc2 1182 3bab 1002
00000250: f28c 1c02 75c1 1b82 0c76 1102 8cbd 1b02
00000260: cdf1 1402 30d1 1902 1f83 bdb4 2db7 e730
00000270: 8852 6fb4 d5d0 a6b4 bfe8 02b4 ecf4 9db4
00000280: 91fd 2fb4 2b16 93b4 b1cf 7fb4 8dd6 32b4
00000290: 30b3 6fb4 4779 0234 8852 efb4 d5d0 26b5
000002a0: bfe8 82b4 ecf4 1db5 91fd afb4 2b16 13b5
000002b0: b1cf ffb4 8dd6 b2b4 30b3 efb4 4779 8234
000002c0: e8ff cbb6 0e86 8037 0ba8 47b7 b7ae a5b7
000002d0: ba3f 74b7 d821 abb7 1b9b beb7 bcfa e2b7
000002e0: 6110 01b7 f640 9db7 5ead a5b7 5679 89b7
000002f0: 0ba8 c7b7 b7ae 25b8 ba3f f4b7 d821 2bb8
00000300: 1b9b 3eb8 bcfa 62b8 6110 81b7 f640 1db8
00000310: 5ead 25b8 5679 09b8 005a 220b 5bae 838b
00000320: d047 750b 35c4 0908 8524 c70b 1b8d 098a
00000330: 951a 200b b0a6 e60a 6c35 220c 6cc1 f28a
00000340: 39ab 3d0b 6448 3a8a d047 f50b 35c4 8908
00000350: 8524 470c 1b8d 898a 951a a00b b0a6 660b
00000360: 6c35 a20c 6cc1 728b 39ab bd0b 6448 ba8a
00000370: 9bac d38f 13ef 0f90 ac0d a78f 113e 5190
00000380: b859 4190 cd2c 3390 c535 998e 52ec 3290
00000390: 0671 2890 32eb 4d90 5cdc 0f8f 1bca 2690
000003a0: ac0d 2790 113e d190 b859 c190 cd2c b390
000003b0: c535 198f 52ec b290 0671 a890 32eb cd90
000003c0: 5cdc 8f8f 1bca a690 0c71 38b8 b36d 4ab8
000003d0: d928 54b7 9e70 4037 c816 b334 ac51 a0b7
000003e0: 9dab 8e36 6599 be36 5070 b2b7 d02a 56b6
000003f0: 429d dbb6 c0da 6cb6 d928 d4b7 9e70 c037
-6.059071e-10 2.717741e-10 1.2456128e-10 -4.3417006e-11 -6.867289e-10 -4.8296457e-11 -3.4949113e-10 1.588739e-10
-3.9215398e-10 -4.3801966e-11 5.845875e-11 -3.7929765e-10 2.4912256e-10 -8.683401e-11 -1.3734578e-09 -9.6592914e-11
-6.9898226e-10 3.177478e-10 -7.8430795e-10 -8.760393e-11 1.169175e-10 -7.585953e-10 3.821847e-10 2.7788766e-10
5.884679e-11 7.171716e-11 -6.164634e-10 1.6045713e-11 1.3745946e-10 -9.976899e-12 -2.919793e-11 2.2691336e-10
-2.4188795e-10 -9.762894e-10 1.1769358e-10 1.4343432e-10 -1.2329268e-09 3.2091427e-11 2.7491892e-10 -1.9953797e-11
-5.839586e-11 4.5382673e-10 -4.837759e-10 -1.9525788e-09 1.0411036e-05 1.5419715e-05 6.352686e-06 1.1147198e-05
1.0704255e-06 5.3120784e-06 5.6442727e-06 -3.5463067e-06 1.3691309e-05 1.1155326e-05 9.687957e-06 6.436335e-06
1.2705372e-05 2.2294396e-05 2.140851e-06 1.0624157e-05 1.12885455e-05 -7.0926135e-06 2.7382617e-05 2.2310653e-05
1.9375913e-05 1.287267e-05 -4.2772517e-05 2.0550875e-05 -6.9194066e-05 -5.664838e-05 -6.5169355e-05 -8.6477834e-05
-9.3668794e-05 -7.7752724e-05 -7.0398324e-05 -6.178201e-05 -9.5250594e-05 -7.0643386e-05 -0.00013838813 -0.00011329676
-0.00013033871 -0.00017295567 -0.00018733759 -0.00015550545 -0.00014079665 -0.00012356402 -0.00019050119 -0.00014128677
-1.1269473e-37 -1.1539053e-37 -1.1578962e-37 1.1423307e-37 -1.1361734e-37 1.1169887e-37 1.1633426e-37 -1.165832e-37
1.0649822e-37 -1.1436119e-37 1.1010698e-37 -1.0635556e-37 -1.1076364e-37 1.0927464e-37 -1.0868563e-37 1.0685045e-37
1.1128463e-37 -1.1152278e-37 1.1319504e-37 -1.0939721e-37 1.1703073e-37 -1.1304341e-37 1.2884146e-05 3.4526012e-05
2.0137753e-05 5.54217e-05 3.5511475e-05 3.4616336e-05 5.9541406e-05 2.7244767e-05 4.289032e-05 4.0172526e-05
5.832995e-05 3.099798e-05 4.0275507e-05 0.0001108434 7.102295e-05 6.923267e-05 0.00011908281 5.4489534e-05
8.578064e-05 8.034505e-05 0.0001166599 6.199596e-05 1.138406e-37 1.0659042e-37 -1.1301301e-37 -1.0684777e-37
-1.119469e-37 1.1110871e-37 1.0821069e-37 -1.0766125e-37 1.1171719e-37 1.076507e-37 1.143925e-37 1.063213e-37
-1.0810754e-37 -1.1356657e-37 -1.0708771e-37 1.062859e-37 1.1501519e-37 -1.1443121e-37 1.0686795e-37 1.1441999e-37
1.0942716e-37 1.1300699e-37 -3.5299396e-07 1.6859524e-09 -2.2288634e-07 -3.1071855e-07 -1.2191866e-07 -2.9421733e-07
-1.6390392e-07 -2.7397013e-07 -2.3824283e-07 -1.6655595e-07 -2.2323798e-07 1.2151314e-07 -4.4577268e-07 -6.214371e-07
-2.4383732e-07 -5.8843466e-07 -3.2780784e-07 -5.4794026e-07 -4.7648567e-07 -3.331119e-07 -4.4647595e-07 2.4302628e-07
-6.079663e-06 1.5321213e-05 -1.190045e-05 -1.975089e-05 -1.4558371e-05 -2.0400548e-05 -2.2721992e-05 -2.7058057e-05
-7.692813e-06 -1.8746108e-05 -1.9750263e-05 -1.6388174e-05 -2.38009e-05 -3.950178e-05 -2.9116742e-05 -4.0801096e-05
-4.5443983e-05 -5.4116113e-05 -1.5385625e-05 -3.7492217e-05 -3.9500526e-05 -3.277635e-05 3.1267774e-32 -5.0721705e-32
4.723931e-32 4.145758e-34 7.670696e-32 -6.622849e-33 3.0834877e-32 2.2210895e-32 1.2496102e-31 -2.337651e-32
3.652889e-32 -8.9691894e-33 9.447862e-32 8.291516e-34 1.5341392e-31 -1.3245698e-32 6.1669754e-32 4.442179e-32
2.4992204e-31 -4.675302e-32 7.305778e-32 -1.7938379e-32 -2.0872692e-29 -2.8385953e-29 -1.6472738e-29 -4.1265797e-29
-3.8131655e-29 -3.533604e-29 -3.776919e-30 -3.5286365e-29 -3.3219228e-29 -4.061031e-29 -7.092884e-30 -3.2893424e-29
-3.2945475e-29 -8.2531593e-29 -7.626331e-29 -7.067208e-29 -7.553838e-30 -7.057273e-29 -6.6438456e-29 -8.122062e-29
-1.4185768e-29 -6.578685e-29 -4.39743e-05 -4.826272e-05 -1.2645695e-05 1.14703125e-05 3.3357924e-07 -1.9111518e-05
4.251908e-06 5.6802987e-06 -2.1271553e-05 -3.1913405e-06 -6.545016e-06 -3.529407e-06 -2.529139e-05 2.2940625e-05

exp_avg_sq f4 [32, 22]
00000000: 683c e32e 53ae 162f 7cd8 cd2d 92fa 332d
00000010: 6adc 0f2f fc3a 902d d057 242e ad57 aa2d
00000020: b574 fb2d 4708 332e c31a 9b2e 617c 6c2e
00000030: 7cd8 cd2e 92fa 332e 6adc 0f30 fc3a 902e
00000040: d057 242f ad57 aa2e b574 fb2e 4708 332f
00000050: c31a 9b2f 617c 6c2f afb4 9031 146c 2c31
00000060: fd54 4431 d7fe 1931 ac7c 6a30 e4d9 6b31
00000070: bdfd fe30 0d7f 0f31 e016 8131 9c79 0231
00000080: fd30 6f31 b450 8b31 fd54 4432 d7fe 1932
00000090: ac7c 6a31 e4d9 6b32 bdfd fe31 0d7f 0f32
000000a0: e016 8132 9c79 0232 fd30 6f32 b450 8b32
000000b0: d956 0932 7779 c032 60f5 a131 7b94 8631
000000c0: 15c9 6931 5944 7631 11a4 8231 2536 9231
000000d0: 0c90 8931 a0be 9a31 ce19 b031 7737 9b31
000000e0: 60f5 a132 7b94 8632 15c9 6932 5944 7632
000000f0: 11a4 8232 2536 9232 0c90 8932 a0be 9a32
00000100: ce19 b032 7737 9b32 44af 0133 8247 cb33
00000110: 9bc2 a332 c1d3 9132 0662 8632 fa66 a032
00000120: e865 a932 0b25 9932 140a 9732 4ff3 9c32
00000130: c82a a232 c95f 9a32 9bc2 a333 c1d3 9133
00000140: 0662 8633 fa66 a033 e865 a933 0b25 9933
00000150: 140a 9733 4ff3 9c33 c82a a233 c95f 9a33
00000160: 9fb9 4730 bea2 d031 4233 a12b 8f1a 8c2b
00000170: 4ece c22b 331b 812b b00a 8f2b d709 432b
00000180: 5c4a 6a29 c8f3 832b 2865 162b 9751 1a2b
00000190: 4233 a12c 8f1a 8c2c 4ece c22c 331b 812c
000001a0: b00a 8f2c d709 432c 5c4a 6a2a c8f3 832c
000001b0: 2865 162c 9751 1a2c 6921 da32 fa26 9b33
000001c0: e707 8932 21bb 8432 92d2 6b32 52e7 a732
000001d0: 7f8b 9a32 e769 9732 6edc ac32 20be 9432
000001e0: c658 9b32 ca3e a032 e707 8933 21bb 8433
000001f0: 92d2 6b33 52e7 a733 7f8b 9a33 e769 9733
00000200: 6edc ac33 20be 9433 c658 9b33 ca3e a033
00000210: ec6e f12b bd02 dd2f f01c 9e2a 83ad d926
00000220: 163c a927 f64e 9926 319d de27 9aa5 6127
00000230: 887e 4b27 f045 9c2a 9729 8428 49e5 9e29
00000240: f01c 9e2b 83ad d927 163c a928 f64e 9927
00000250: 319d de28 9aa5 6128 887e 4b28 f045 9c2b
00000260: 9729 8429 49e5 9e2a 15d0 5f2f bad6 d22f
00000270: c514 ff2e 3082 0130 3609 ee2e e406 0d2f
00000280: 02e0 0a2f bf2b 102f c2d1 cc2e bdf1 c42e
00000290: 1e1d f92e 12f6 1e2f c514 ff2f 3082 0131
000002a0: 3609 ee2f e406 0d30 02e0 0a30 bf2b 1030
000002b0: c2d1 cc2f bdf1 c42f 1e1d f92f 12f6 1e30
000002c0: 6453 3432 9d63 7132 4d23 bf31 d7c4 2d32
000002d0: b98e 7231 f12d 4e32 c6c3 c031 753a 3032
000002e0: 9a02 0532 f2a6 ac31 d372 0232 0302 4031
000002f0: 4d23 bf32 d7c4 2d33 b98e 7232 f12d 4e33
00000300: c6c3 c032 753a 3033 9a02 0533 f2a6 ac32
00000310: d372 0233 0302 4032 41cc c72c 3cf8 7230
00000320: 5011 692b 49df 4b2a d7d2 0d2c fa62 a42b
00000330: b16b 4a2b 3d1a 1f2b 4162 a22c ff01 f52a
00000340: 282f 742b aab1 d92a 5011 692c 49df 4b2b
00000350: d7d2 0d2d fa62 a42c b16b 4a2c 3d1a 1f2c
00000360: 4162 a22d ff01 f52b 282f 742c aab1 d92b
00000370: 0944 4c2c 142c 4a2c b021 112c a2da 3b2d
00000380: 1fba 1d2c 8159 c62b c0db 2c2c 0a61 742c
00000390: 889a 942c 1368 952c c09e 432c 60e2 1a2c
000003a0: b021 112d a2da 3b2e 1fba 1d2d 8159 c62c
000003b0: c0db 2c2d 0a61 742d 889a 942d 1368 952d
000003c0: c09e 432d 60e2 1a2d c5bf bb32 5b2a b533
000003d0: 4663 9932 4629 8f32 0e58 9b32 43d2 b732
000003e0: d4ce 8c32 e2b7 b832 97d0 7e32 75b5 8032
000003f0: 506d 8732 de54 6432 4663 9933 4629 8f33
1.0333495e-10 1.3704353e-10 2.340194e-11 1.023061e-11 1.3084081e-10 1.6397099e-11 3.7367276e-11 1.9365698e-11
2.8587225e-11 4.070724e-11 7.053338e-11 5.3770658e-11 9.360776e-11 4.092244e-11 5.2336324e-10 6.5588396e-11
1.494691e-10 7.746279e-11 1.143489e-10 1.6282896e-10 2.821335e-10 2.1508263e-10 4.211493e-09 2.509073e-09
2.8570064e-09 2.240929e-09 8.5305873e-10 3.4320857e-09 1.8553049e-09 2.0881459e-09 3.7569947e-09 1.8986617e-09
3.4806924e-09 4.0546073e-09 1.1428026e-08 8.963716e-09 3.412235e-09 1.3728343e-08 7.4212196e-09 8.3525835e-09
1.5027979e-08 7.594647e-09 1.392277e-08 1.621843e-08 7.994196e-09 2.2406978e-08 4.7136126e-09 3.9167936e-09
3.4020264e-09 3.5836563e-09 3.80215e-09 4.2553148e-09 4.003601e-09 4.5036614e-09 5.125208e-09 4.5173993e-09
1.885445e-08 1.5667174e-08 1.3608106e-08 1.4334625e-08 1.52086e-08 1.7021259e-08 1.6014404e-08 1.8014646e-08
2.0500831e-08 1.8069597e-08 3.0194556e-08 9.465931e-08 1.9064194e-08 1.6976516e-08 1.5644229e-08 1.867328e-08
1.9720531e-08 1.782839e-08 1.7583297e-08 1.8271434e-08 1.8878737e-08 1.7971518e-08 7.6256775e-08 6.7906065e-08
6.2576916e-08 7.469312e-08 7.8882124e-08 7.131356e-08 7.0333186e-08 7.308574e-08 7.551495e-08 7.188607e-08
7.265956e-10 6.0720984e-09 1.1453965e-12 9.95497e-13 1.384179e-12 9.173551e-13 1.0163727e-12 6.929157e-13
5.2022934e-14 9.375773e-13 5.343109e-13 5.482502e-13 4.581586e-12 3.981988e-12 5.536716e-12 3.6694202e-12
4.065491e-12 2.7716629e-12 2.0809174e-13 3.750309e-12 2.1372435e-12 2.1930008e-12 2.5393733e-08 7.22484e-08
1.5952493e-08 1.5451919e-08 1.37266785e-08 1.9546551e-08 1.7991395e-08 1.7626872e-08 2.0123675e-08 1.7315926e-08
1.8084744e-08 1.8655005e-08 6.380997e-08 6.1807675e-08 5.4906714e-08 7.8186204e-08 7.196558e-08 7.050749e-08
8.04947e-08 6.9263706e-08 7.233898e-08 7.462002e-08 1.7154867e-12 4.0201611e-10 2.8086517e-13 1.510443e-15
4.697207e-15 1.063791e-15 6.1787805e-15 3.1314795e-15 2.8240502e-15 2.7759696e-13 1.467298e-14 7.056384e-14
1.1234607e-12 6.041772e-15 1.8788827e-14 4.255164e-15 2.4715122e-14 1.2525918e-14 1.1296201e-14 1.1103878e-12
5.869192e-14 2.8225537e-13 2.0355657e-10 3.835135e-10 1.1599747e-10 4.7114934e-10 1.0824623e-10 1.2826323e-10
1.263061e-10 1.3112265e-10 9.3141064e-11 8.9559894e-11 1.1328381e-10 1.4457438e-10 4.6398987e-10 1.8845974e-09
4.3298493e-10 5.1305293e-10 5.052244e-10 5.244906e-10 3.7256426e-10 3.5823958e-10 4.5313525e-10 5.782975e-10
1.049634e-08 1.4050696e-08 5.562845e-09 1.01146815e-08 3.5296763e-09 1.2001224e-08 5.6101923e-09 1.025784e-08
7.74221e-09 5.0248383e-09 7.593104e-09 2.794082e-09 2.225138e-08 4.0458726e-08 1.4118705e-08 4.8004896e-08
2.244077e-08 4.103136e-08 3.096884e-08 2.0099353e-08 3.0372416e-08 1.1176328e-08 5.678597e-12 8.839185e-10
8.2802255e-13 1.810749e-13 2.0154345e-12 1.1680372e-12 7.191427e-13 5.652456e-13 4.6152253e-12 4.3522128e-13
8.6751656e-13 3.8670223e-13 3.3120902e-12 7.242996e-13 8.061738e-12 4.672149e-12 2.8765707e-12 2.2609824e-12
1.8460901e-11 1.7408851e-12 3.4700662e-12 1.5468089e-12 2.902791e-12 2.8730395e-12 2.062444e-12 1.06782656e-11
2.241436e-12 1.4093588e-12 2.4564656e-12 3.4728353e-12 4.2235694e-12 4.2463893e-12 2.779929e-12 2.201038e-12
8.249776e-12 4.2713062e-11 8.965744e-12 5.6374354e-12 9.825862e-12 1.3891341e-11 1.6894278e-11 1.6985557e-11
1.1119716e-11 8.804152e-12 2.1856872e-08 8.436174e-08 1.7856689e-08 1.666616e-08 1.8084418e-08 2.139962e-08
1.63922e-08 2.150404e-08 1.4832174e-08 1.4983678e-08 1.5765778e-08 1.3290643e-08 7.1426754e-08 6.666464e-08

exp_avg f4 [32]
00000000: 3083 acb1 c21d 01b2 242e 4db8 7f04 97ba
00000010: 2c43 1e02 dae7 3b3a 92c9 1102 9e60 dab5
00000020: d377 7bb9 77ce c90c caf3 8811 f5f7 76b9
00000030: 886b 0638 9651 1702 02ea 0384 7783 0824
00000040: 78c1 7bb8 1213 5eb9 50c1 7836 1dc2 80b8
00000050: dabd 34b6 e360 6eb9 2b06 9c39 cc23 213a
00000060: 1261 dc39 546f f0b9 770b 4338 1196 9439
00000070: 16c1 0ab9 8250 0bb9 0c2a 953a a586 6d2f
-5.020773e-09 -7.515554e-09 -4.891878e-05 -0.0011521726 1.1627284e-37 0.00071680325 1.0710765e-37 -1.6270385e-06
-0.00023981863 3.1093215e-31 2.1607263e-28 -0.0002355276 3.2048236e-05 1.1117142e-37 -1.5506427e-36 2.9601654e-17
-6.0023245e-05 -0.00021178674 3.7067402e-06 -6.139672e-05 -2.6932598e-06 -0.00022733542 0.00029759234 0.0006146997
0.00042033993 -0.00045859313 4.65023e-05 0.00028340568 -0.00013232636 -0.00013286064 0.0011380329 2.160286e-10

exp_avg_sq f4 [32]
00000000: ae6e a431 b776 2734 221b 6435 ca4c 8636
00000010: 693c e32e 1660 6236 1daa 492c 9204 2832
00000020: be28 4435 7e0a 572e 58b0 c72e 6a3d 8036
00000030: 4a8e 8436 5396 342c 6b26 2332 42c6 da31
00000040: 3823 b537 3dc3 8c36 657f f635 cb35 e435
00000050: 8043 8231 58d4 a135 6763 1136 883b bb36
00000060: b571 7637 45f2 0e37 43ef 0e35 9322 5836
00000070: 45ae 4034 0212 9c34 881b 4e36 411a f032
4.785611e-09 1.5596275e-07 8.49761e-07 4.0024506e-06 1.0333496e-10 3.3732554e-06 2.865825e-12 9.779926e-09
7.307498e-07 4.889466e-11 9.080797e-11 3.821847e-06 3.950471e-06 2.5662985e-12 9.496584e-09 6.3671743e-09
2.1593281e-05 4.195054e-06 1.8365505e-06 1.700298e-06 3.791172e-09 1.2057235e-06 2.1664544e-06 5.5799646e-06
1.4689217e-05 8.520267e-06 5.3247294e-07 3.2206633e-06 1.7944792e-07 2.9070367e-07 3.0712417e-06 2.7951616e-08
