checkpoints/MLP_bs32_lr0.001_win50-30-20_vTrue_scTrue_ep7.pth (torch, 178894 bytes, 24 tensors)

layer1.weight f4 [32, 22]
00000000: 64e8 da3d cb2a 1b3e 361a a13e 3d7f 993e
00000010: 19ef de3e eda7 adbe 790a b33c 0275 babf
00000020: 7ed0 3a3d 53b3 f3be 7d28 903d 45be 0c3f
00000030: 68df f73e 1bbe 933e 769b cd3e a0db 3bbe
00000040: 682a 8c3e c12b b0bf 2a4f 923d 20e8 1ebf
00000050: c35b 7ebe ed78 c53e 73de 01bf 92c6 a23e
00000060: 9683 3cbd 06af cebe eb5e 92be 651d 773f
00000070: 80fb abbd d89d 9b3e de39 d5bd ac38 51bf
00000080: 5546 f43e 3cb6 b43f 908a 91bd 07e9 4abf
00000090: 298c c7be 2f29 5c3f fcc8 56be 76f6 273d
000000a0: e8d5 bdbe 5475 28bf 3a76 233f 477c cd3f
000000b0: df81 523d ebbd 7abd af09 1ebf d083 ac3e
000000c0: 40c3 cb3d 6864 1f3e 2287 24bf 51fd b1bc
000000d0: 5f5b 8dbf b953 ad3e c4c0 2e3f dc99 443f
000000e0: 05a8 18bf 6bdd 983e 83f2 fa3d eb46 83be
000000f0: 3551 c0be b982 eebd c6da 5ebf 5607 103e
00000100: 8096 5a3f f8cc 7a3f 3c1f 28be 3e50 d23c
00000110: 849f 563e 7426 05bf e43e e1bd c887 3b3e
00000120: 98be e93d f049 b03e ae54 66bf 5fb9 f9bd
00000130: 7d05 6c3d 7240 82be 316f db3e 4322 15bf
00000140: 1a5d b43d 4041 883e 5ea0 f53e cd36 6d3e
00000150: 57d3 2bbf cd08 11be 9f8a 6f3e ea52 6abe
00000160: d424 13bf 1f65 adbe d9bf be3e 7e33 1b3d
00000170: 011e adbd b76c eabd ee49 2f3f fb0a 1a3f
00000180: 57b5 613f 5a87 e43e f3d9 983e d70a f63e
00000190: 8a76 8b3e 9e88 a3bd 53d7 f9bd d8cc 15bc
000001a0: c079 9e3e 1c1f ba3e 04ad 613f d948 3e3f
000001b0: 0e4e 393e ee09 073f 64f8 a93d 86ab ffbc
000001c0: fb67 79be d51c 83be 4556 3fbf 1e5f 423e
000001d0: 3372 a83e 619a 20bd 68ec 8f3e e83c 82be
000001e0: 3007 8abc a422 2a3f c15d 87be b8d2 aabd
000001f0: b34d 29bf 542d 193e 47dd f33e cadc ecbc
00000200: 925c 45bd 39fa 0fbe 26e3 3abe 55b5 083f
00000210: b543 9d3e 56c7 5e3e d80d b3be 85b6 aebc
00000220: 15e5 f1bd 5d6b cc3c 8711 083f 23b9 a43e
00000230: 07f1 e73d 8e20 09be 7067 603f 2046 2dbe
00000240: 5ef3 f0be 7474 c4bd 4c28 66be e790 f2bd
00000250: 5fcf 2b3f 696f 9d3e 8aa0 56be 8909 81bd
00000260: 3468 253f 9404 3dbe 0ca2 9bbe 1059 94bd
00000270: 3004 973d bdce 173f 2a6e 513e 885a 8a3e
00000280: c842 ddbe 8aac 90bf 5ee0 fa3e 47dd 26be
00000290: 2be4 bf3e 0d7c 63bf 9c06 b93d eeef 073f
000002a0: 802a ec3e 10d9 5f3e 926f 21be 70ac 86bf
000002b0: 6fa2 f53e b795 7ebe f893 a23d 0c2b 79bf
000002c0: cbab f7be d238 0abe 163f 0b3e 1a6e ce3e
000002d0: ca1b 283f e5b8 1e3d e36d b93e 2126 99bd
000002e0: 23ca acbd f925 43be c5d0 253d b243 eabd
000002f0: 2c89 433d c513 073f 0d64 0c3f 784f 2d3e
00000300: c509 173f 2ed8 9bbd 5175 8abe 5c20 82be
00000310: 2579 783c 1d91 98be e240 093e 74ee 5e3d
00000320: 82ec 0f3e 6d4d 6abe 6554 0f3e 2e7a ac3d
00000330: 464e 5e3d d73c 2c3e 6bdf 693d 9608 d0bf
00000340: 8ce8 d73e 2c32 bfbd 8635 8b3d 1b7f 483d
00000350: 3d46 5d3e 3289 a23e 8f8d b83e b688 d5bd
00000360: 3a79 d43d b4c2 d5bf 3ca7 b53e c0b6 d43c
00000370: aa14 493d 091a d7bd d915 cb3e 7ec2 82bf
00000380: 9c44 d93e 4b41 ebbe d19e c03e de3c 023f
00000390: 86a5 a8be 182f 36bf 72ec 703e 9e19 1dbe
000003a0: db69 fa3e 7ff0 65bf b6d8 2c3f 2306 cebe
000003b0: a7a5 a23e c955 093f 4721 9dbe a454 cdbe
000003c0: 732d 3c3e 7fef 25be 9bba a3bd b27d d5b7
000003d0: 4912 afbe 9c54 b7be e1bd 1c3f 53fc ee3e
000003e0: 335e 48be ab19 c7be eddd 40bd dbf1 40be
000003f0: b77c 18bf 369d d83e 946d 70be bcce b9be
0.10688856 0.15153043 0.3146531 0.29979888 0.43541792 -0.3391718 0.02185558 -1.4566958
0.04560899 -0.4759775 0.070389725 0.5497783 0.48412633 0.28855976 0.4015767 -0.18345499
0.27376103 -1.3763353 0.071440056 -0.62072945 -0.24839692 0.38568822 -0.50730056 0.31792122
-0.046023928 -0.40367907 -0.28588042 0.9652923 -0.08397579 0.30393863 -0.10411428 -0.817271
0.4770991 1.4118114 -0.07106507 -0.7926182 -0.3897412 0.8600034 -0.20975107 0.041006528
-0.3707726 -0.6580403 0.63852274 1.6053551 0.051393386 -0.061216276 -0.61733526 0.33694315
0.0994935 0.15565646 -0.64268696 -0.021727236 -1.1043509 0.33852938 0.68262887 0.7679727
-0.5963138 0.29856429 0.12253287 -0.25640044 -0.37561956 -0.11646027 -0.8705257 0.14065298
0.85385895 0.9796901 -0.16418165 0.025673028 0.20959288 -0.520118 -0.109983236 0.18313515
0.11413306 0.3443141 -0.8997296 -0.1219356 0.05762242 -0.25439793 0.4285827 -0.58255404
0.0880682 0.26612282 0.47973913 0.23165436 -0.67119354 -0.14163513 0.23392724 -0.22883192
-0.5747807 -0.33866212 0.37255743 0.037890904 -0.084529884 -0.11446517 0.6847218 0.60173005
0.8816733 0.44634515 0.29853782 0.48055145 0.27238876 -0.07985042 -0.12199273 -0.009143077
0.30952263 0.3635186 0.88154626 0.74329907 0.18096182 0.52749527 0.0829933 -0.031209718
-0.24356072 -0.25607935 -0.7474101 0.18981597 0.32899627 -0.039209727 0.2811005 -0.25437093
-0.01684913 0.6645911 -0.26438716 -0.08340973 -0.66134185 0.14958698 0.4762976 -0.028913874
-0.048183985 -0.14060296 -0.18250713 0.5340169 0.3071572 0.21755728 -0.349715 -0.021327266
-0.11811272 0.024953539 0.53151745 0.32172498 0.11325269 -0.13391325 0.87657833 -0.16921282
-0.47060674 -0.09592524 -0.2247631 -0.11844044 0.671133 0.30749062 -0.20959678 -0.06300647
0.64612126 -0.18458778 -0.3039707 -0.0724355 0.073738456 0.5929983 0.2045218 0.27022195
-0.43215013 -1.1302655 0.48999304 -0.16295348 0.37478766 -0.8886116 0.09034464 0.5310048
0.46126175 0.21860147 -0.15765217 -1.0521374 0.4797549 -0.24861799 0.07938379 -0.9733131
-0.48373255 -0.13498238 0.13598284 0.40318376 0.656674 0.038750548 0.3621665 -0.07477976
-0.08436992 -0.19057454 0.0404823 -0.11438693 0.04773824 0.5276454 0.54840165 0.16924846
0.5899928 -0.076095924 -0.2704263 -0.25415313 0.015165602 -0.29798213 0.13403657 0.054426625
0.14055064 -0.22881098 0.13997038 0.084217414 0.054273866 0.16820084 0.057097834 -1.625262
0.42169607 -0.093357414 0.06797318 0.048949342 0.21608825 0.31745297 0.360455 -0.10426466
0.10374685 -1.6700044 0.35479152 0.025966048 0.049091972 -0.10503013 0.39665106 -1.0215604
0.42435157 -0.45948252 0.37621167 0.50874126 -0.32938784 -0.7116561 0.23527697 -0.15341803
0.48908886 -0.8982009 0.67518175 -0.40239057 0.31767008 0.5364652 -0.3068945 -0.40103638
0.18376713 -0.16204642 -0.079945765 -2.545011e-05 -0.34193638 -0.3580674 0.6122723 0.46676883
-0.19567184 -0.3888677 -0.047086645 -0.1884226 -0.595653 0.42307442 -0.234793 -0.36290538

layer1.bias f4 [32]
00000000: 2c10 24bf 67f0 51bf 2165 8bbe 6104 ff3d
00000010: 1840 4bbf 0aa7 193e aac6 bbbf cf6e 58bf
00000020: 2f41 2abf 0acb 13bf 370e 31bf 9aaf e43d
00000030: 1928 693e 95b7 74bf ff0e 60bf f51e 41bf
00000040: b391 1d3e c4dc 48be 8b6a 203e 4d5a 1cbe
00000050: f74f 9abe 63da 95bd 2eff 623d d6be c23d
00000060: 18a1 3bbe 9a44 783e 6a4a 80bf 3740 d83d
00000070: 4118 65be 4b67 26be 3320 6d3e c3a7 6cbf
-0.64087176 -0.8200745 -0.27225593 0.12452007 -0.79394674 0.15005127 -1.4670002 -0.8454408
-0.6650571 -0.5773169 -0.69162315 0.11166306 0.22769202 -0.95592624 -0.8752288 -0.7543786
0.15387611 -0.19615465 0.15665643 -0.15268822 -0.30139133 -0.073170446 0.05541914 0.09509055
-0.18323171 0.2424492 -1.0022709 0.10559123 -0.22372533 -0.1625034 0.23156814 -0.92443484

layer2.weight f4 [64, 32]
00000000: 17dd a6be 69ac 90be e669 873d 0bbf 7fbe
00000010: 0e7b bc3c 652c 783e 942b ad3d cb01 8fbe
00000020: 33a1 ccbe c5a7 99be 3cbe 4cbe 48b6 443c
00000030: 75f0 dabe 9ea0 46be eaca 19bf b1f0 bebe
00000040: 3b4e e6bd 6563 d4be 64b3 d6be c749 7abe
00000050: d3a5 24be 35bb fdbd fea1 bcbd eb1f 2ebf
00000060: 9bba 4bbd 1d07 efbd 4c6c d1bd 15c0 c4bd
00000070: 4b1f 133d c627 b33d 06f1 d23d d3cf 02bf
00000080: bb81 14be 3a97 71bd d22c 00be 2bd3 7e3d
00000090: 6cb8 31be c9d0 9dbe 15c4 233e 16ff cebd
000000a0: fcfd 213c f4e3 d4be d3bd 0abe 93b3 24bf
000000b0: 42e8 edbe 515c 59be f0e1 aabe fd46 d6be
000000c0: 83b3 0fbf 7cb9 61be a270 1cbd b114 82bc
000000d0: 6911 c2bd 45af 35bc 32b8 99be 9b66 d8bd
000000e0: d243 bd3c 8cd2 37bb c274 1fbc 66a7 81be
000000f0: b301 343e 362a 1a3d 2c17 c4bd 0570 e9bd
00000100: d435 f7be c67c 763e b9a1 833c 57d1 d43d
00000110: a95b ccbe cd91 2dbe fbb9 1f3e e8ff e1be
00000120: 0eb6 2bbd fb70 f2be 160c 43bf a622 1b3f
00000130: e8b9 4f3e 5c29 e6be de2f 0ebf b14c 79be
00000140: 1b1c e9bd 7b26 f93d c4aa 78bc 6f61 16bf
00000150: 7941 9abe f691 b83e 0871 11bf 12cf 06bf
00000160: cb6a cf3d 368a ddbe a1a4 32be 87d7 393f
00000170: 9806 a23e ca64 f6be a061 38bd 74a8 e4be
00000180: 3b78 50bf 4b63 46be 502c bd3a 205a 94be
00000190: 966c c53a d119 72bd 323f ab3c be62 af3c
000001a0: 2442 d63d 76a8 903e 17f0 21be befb f93d
000001b0: c3f6 213e d3b9 85be 9f5d 9b3d 7af5 f0be
000001c0: ae7c f0bb 3769 ad3d 6bae 51bc 6db4 fcbd
000001d0: fb59 5b3e 5010 94be a02c b23e ce84 82be
000001e0: 207e 4c3d 93d8 533e 8e3e 0b3e 7bf7 a13d
000001f0: ab8e a83e f646 4ebe 200d 513f d123 e2be
00000200: d04b 543f 797b 39be 543d 1f3f e5cc f13c
00000210: 8ded 0a3e 1064 f7be ea47 c93e 36b1 223f
00000220: 0159 f8bc 700a 6d3e c8cb 493f da17 b33e
00000230: 78f4 a8bd 1262 9e3e 1b51 21be 6e0a 2e3f
00000240: 1f10 db3e 19d4 22bf 8b2b f5bc fe3e 923d
00000250: 431f 1bbf 0400 133f 10ae fcbe 90e7 47bd
00000260: 5a88 2c3e 962a 8bbe d020 e83e 2a3c 70bd
00000270: 0753 22be b0a3 963e 1c4d a5be 3122 363f
00000280: 16b8 adbe e428 ba3d f95a 283e ec3a e6bc
00000290: 49ad a03e 48b7 a6be 0492 d7be cbb3 a5bd
000002a0: b54a f7be 29f7 7c3e 5f54 bfbe 4c02 a7bb
000002b0: aafc e4bf 8b72 b13e fe9f 9dbe 5cae f13e
000002c0: b88a 373e 516f 97be fe7c 83bf 597d 75bd
000002d0: 5ee5 19bf ef47 79be d865 82be 0eb6 aebe
000002e0: 0133 cebd f34d d43d 9fd9 9dbd 723e 0dbe
000002f0: 1d98 bb3d da94 433d 3455 87bd a5e8 4e3e
00000300: fc4e f9be 7dad 74be 74ae 193e 51d8 fb3d
00000310: d296 bdbe 5ae5 02be f468 da3d 05f2 06bd
00000320: 25ae 03bf ecec 52be 7c9d e1be c914 89bd
00000330: f90e eabe f0c2 cb3e 3c40 01bf 82e7 5bbd
00000340: 98a7 f93d 5457 90bd 2b67 8c3d 2548 b1be
00000350: ae89 99be 0f67 83be 6ba7 70bf 114f b4be
00000360: 460c 8abe c370 95be 5791 82be 6f1a c3be
00000370: d040 a8bc 0071 d33d b834 75be 9d7f 7f3d
00000380: 9bcb 1cbe 2132 9d3e ca61 153e 5970 75be
00000390: 2e71 293e ead0 66be 7302 f5bc 63a3 97be
000003a0: 0a3c b6bc 879e d4bd bd1d 8abe d2e1 1abe
000003b0: 072b 0ebf 81b9 3cbd 6aa2 0dbd 982f ee3d
000003c0: b1a6 cabd d922 15bf c346 abbd ee04 3e3e
000003d0: 72ef d5be 3ddb 913b 26dc e7be 5470 08bf
000003e0: 3826 51be 94da 77be 5199 f83c dcf0 dabd
000003f0: aa15 e0bc 0da8 07be 9c66 05bf f296 db3d
-0.32590553 -0.2825654 0.066119954 -0.24975221 0.023007896 0.24235685 0.084555775 -0.27931055
-0.39966735 -0.3001081 -0.19994444 0.01200635 -0.4276158 -0.19397208 -0.6007525 -0.37293008
-0.1124539 -0.41482082 -0.4193374 -0.24442206 -0.16078882 -0.123892225 -0.09210585 -0.6801745
-0.049738508 -0.116712786 -0.10225734 -0.09606949 0.035918515 0.087478206 0.10299878 -0.51098365
-0.14502613 -0.05898211 -0.12517098 0.062213104 -0.17355508 -0.30823353 0.15992768 -0.101072475
0.009887215 -0.41580164 -0.13548975 -0.6433651 -0.4646626 -0.21226622 -0.33375502 -0.41851035
-0.5613329 -0.22043413 -0.038193353 -0.015879007 -0.09475977 -0.011089151 -0.30023342 -0.105664454
0.023103628 -0.002804908 -0.009732427 -0.25323027 0.17578773 0.03763791 -0.09574732 -0.11398319
-0.48283255 0.24071035 0.016068326 0.10391491 -0.3991368 -0.1695015 0.1559829 -0.44140553
-0.041921668 -0.47351822 -0.76190317 0.60599744 0.20285761 -0.4495343 -0.5554179 -0.24345662
-0.11382314 0.12165543 -0.015177432 -0.5874242 -0.30128077 0.3604886 -0.56813097 -0.52659714
0.10127791 -0.4326951 -0.17445613 0.72594494 0.31645656 -0.4812377 -0.045014977 -0.4465977
-0.8143346 -0.19373815 0.0014432762 -0.2897501 0.0015062268 -0.05910665 0.020904157 0.021409389
0.10461834 0.28253525 -0.15814243 0.12206219 0.15816788 -0.26118335 0.07586216 -0.47062284
-0.0073390817 0.08467334 -0.012797932 -0.12339101 0.21421044 -0.28918695 0.3479967 -0.25491947
0.04992497 0.20688085 0.13598081 0.07908531 0.32921347 -0.20144257 0.8166065 -0.4416795
0.8292818 -0.18113507 0.62202954 0.029516647 0.13567181 -0.4831853 0.3931268 0.6355165
-0.030315878 0.23148513 0.7882657 0.34979135 -0.08249754 0.30934197 -0.15753596 0.67984664
0.42785737 -0.63604885 -0.02992799 0.07140921 -0.60594577 0.574219 -0.4935155 -0.04880482
0.16848889 -0.27180928 0.45337534 -0.058651127 -0.15851985 0.2942176 -0.32285392 0.7114592
-0.3392951 0.090898305 0.16440953 -0.028104268 0.31382206 -0.32561707 -0.4210359 -0.080909334
-0.48299184 0.24703659 -0.37369058 -0.0050967094 -1.7889607 0.34657702 -0.30786127 0.47203338
0.17924011 -0.29577115 -1.027252 -0.059933994 -0.6011561 -0.24343847 -0.25468326 -0.34123272
-0.10068322 0.1036643 -0.077075236 -0.13793352 0.09159873 0.047749378 -0.06608048 0.20205934
-0.48693073 -0.23894306 0.15007955 0.122971185 -0.3702913 -0.12782803 0.106645495 -0.03294565
-0.514376 -0.20598191 -0.44065464 -0.066934176 -0.45714548 0.39797163 -0.5048864 -0.05368758
0.12190169 -0.070479065 0.06855615 -0.34625354 -0.29987854 -0.25664565 -0.9400546 -0.35216573
-0.2696249 -0.29187593 -0.2550151 -0.38106105 -0.020538718 0.103242874 -0.23945892 0.06237756
-0.15312044 0.30702308 0.14588085 -0.23968638 0.16547081 -0.22540632 -0.029908394 -0.29616842
-0.022245426 -0.10381799 -0.26975814 -0.15125206 -0.55534405 -0.046075348 -0.03457872 0.116301715
-0.09895075 -0.582563 -0.08363106 0.18556568 -0.41784245 0.004451184 -0.45285147 -0.532964
-0.20424736 -0.24204475 0.030346544 -0.106904715 -0.02735408 -0.132477 -0.52109694 0.1072215

layer2.bias f4 [64]
00000000: 932e 50be 5b11 a1bd 5fb7 a6bd c48a acbd
00000010: d593 6cbf 1bc7 1bbe ad5f 9cbe 994c e3be
00000020: 9608 a1be 9c68 9f3d 2849 9fbd 9724 02bf
00000030: d6af 3dbe a8c9 06bf e67c d5bd 033c ccbe
00000040: 5fcb 0cbc 83f7 ea3d cca9 74be 3d99 f13d
00000050: ed1d 87bd b4ca 58bd 4494 8cbe 52b8 61bc
00000060: f379 6abe cb48 93be 14f8 24bf fd35 17be
00000070: e4d1 763d 8ce5 2bbe 47b0 a3be 99e7 f6bd
00000080: f0dd 62be 64f8 94be bbf9 dbbe 27e0 c4be
00000090: 5088 23bd 47cf 2ebf f243 aabd 3017 6c3e
000000a0: fa43 87be 243f 333e c2f0 1dbe ccd3 f2bd
000000b0: 36a5 05c0 1567 f93b f2fa cbbe 4337 903e
000000c0: 1d3f a3bf a9b3 56be 4bd7 02bf cf8e 67be
000000d0: 9474 c2bc 9c6e 58be cbea e0be 81aa 87be
000000e0: 32f9 2a3e 1f44 243d 5a59 983e fdfc c3be
000000f0: fbc0 ffbd c036 36be 5442 84bd 48a7 12be
-0.20330267 -0.078646384 -0.08140444 -0.08424905 -0.92413074 -0.15212671 -0.30541745 -0.44394377
-0.31451863 0.077836245 -0.07777625 -0.5083708 -0.18524107 -0.52651453 -0.10424213 -0.39889535
-0.008593409 0.1147299 -0.23892897 0.11796806 -0.06597505 -0.052927688 -0.27456868 -0.013776856
-0.22898082 -0.28766474 -0.6444104 -0.14766689 0.06025876 -0.16786784 -0.31970426 -0.120558925
-0.22154975 -0.29095757 -0.42963967 -0.38452265 -0.03992492 -0.6828503 -0.08313741 0.2305572
-0.2641905 0.17504555 -0.15423873 -0.11856803 -2.0882087 0.0076111653 -0.39839894 0.2816716
-1.2753636 -0.20966972 -0.5110976 -0.22613071 -0.02373723 -0.21135944 -0.43929133 -0.26497272
0.16696623 0.040104028 0.2975567 -0.38278952 -0.1248798 -0.17794323 -0.064579636 -0.14321625

layer3.weight f4 [128, 64]
00000000: 1707 0dbe a809 f63d a9f6 4ebe db6d a3bf
00000010: 4656 24bf f009 55be ffc2 69be da0d 25bd
00000020: c8c0 5fbe aeb5 88bc d715 7bbf 0bb1 d8bd
00000030: 7e00 a0bd 54a9 43bf af66 e03c f7dc c4be
00000040: 1a38 d93e 855a ab3e 81b3 10bf 06f6 743d
00000050: 55e4 d53c a1ec 713e 8a9d 28be 24d6 52be
00000060: 4ee3 9dbd 2b94 d9be 756e 3bbe 6fb5 933e
00000070: 0fb1 a9bd 2d78 58bd e6f3 75be a52b 04bd
00000080: 4d54 97bd 73f6 88be ca3b d63c b857 bebe
00000090: 6acc 81bf ba16 04be 0570 6f3e 0b08 d13d
000000a0: f90c 253e 6948 263e 1076 75bd 38c2 c73c
000000b0: 6ad9 5abe 7e87 0abe fdce bcbd 238a d0be
000000c0: c6e4 b6be d2b9 12bb 6dd3 17bf cbee 82bb
000000d0: 44f6 febd 42ac 553e d499 b53e e120 27be
000000e0: 433e 8ebe 3f58 2cbf 4b13 acbd 3501 1e3d
000000f0: b5e1 ccbb 4d3e 663d 621c 29be 757c be3d
00000100: 4902 523d b32c a5bd 4497 8cbe 62d9 f1bd
00000110: 0842 27be 2bab 66be 96ce 163c f757 9bbb
00000120: 90e5 fcbd a454 883d 3b38 bbbe b632 84bc
00000130: 809c 323b 7109 813d f8c2 b23c fe0a 3b3d
00000140: bac4 9ebd 6548 acbe 5170 89bd bed3 f7bc
00000150: 18b6 633c 8413 0bbd a28a 96be 518e b1bc
00000160: eb12 0cbc f95e 8dbd 2c96 063d 1da2 d6bd
00000170: 0fe6 0dbd be85 bcbd 2149 f33d 99a8 43bd
00000180: 004c 1cbe 2d26 1cbe 40fa 94bd f533 85bd
00000190: ac84 32be 583e 80bd 4843 773d 842e bcbd
000001a0: 7c96 9a3d d178 7abd a69d 643d 480a 31bc
000001b0: c1a2 1dbd 9d59 c8bd fea6 ad3d 451b 2dbd
000001c0: ea55 7b3d a153 8e3d 2cc2 3c3d 1acc 783d
000001d0: 929b b1be d41c fbbd 6fdf 40bc a79b e7bd
000001e0: ffe3 83be 3ac0 d1bd 2b0d 163d c689 4a3c
000001f0: 39b4 d9bd 16dd 97bd 7ac2 79bd 347a 50be
00000200: d3fa 93bd 8ff0 863c 466d 0b3c b4f3 61bd
00000210: 2ca9 3ebe c681 92bd 3d14 f4bd 5e2e 04ba
00000220: 3c8e f6bd 7aa9 983d 3825 88bd 6ef9 81be
00000230: f44d dabd 9a30 0d3d 256b f73d 4084 56be
00000240: 4470 c1bc 7052 a4bd 9a3a a23d 5a62 503d
00000250: 2c95 0bbd b9fd 0e3e fdbb 04be 4c47 27be
00000260: ef48 8c3d 38b7 3abd ab8a 2dbe f106 72bd
00000270: 2447 27bb 44f8 86bc 6fc6 b9bd e865 2d3d
00000280: 4033 653d 2570 e4bd a319 9cbd 81e0 0cbe
00000290: 2717 0abe d455 b5bb 0bf5 173d 2af7 29be
000002a0: bfe3 52bd e5d3 b4bd 8662 dd3d a4bd 3c3d
000002b0: f058 cfbc 4663 abbd 0dd3 50be 20fd 03be
000002c0: 9b14 02be fbd7 01be 5b5a efbc 3e19 bc3d
000002d0: 1486 4d3d 13d1 de3c c035 91bb 32af 05be
000002e0: d022 3dbd 56e8 8fbd 0138 f4bd 34f9 f8bd
000002f0: 7c40 36be f0d7 cbbc 2117 b4bc 8bf1 6abd
00000300: 067c 73bd 78f5 1dbd c33a 02be 5ff2 82bc
00000310: c900 c9bd 1e32 8a3b 6021 3ebc 4b0c 963d
00000320: 3061 e43c 670c 9bbd 767f adbd ffaa 0bbe
00000330: 7a3c 32bd 8da8 163d 44fe dbbc a7c0 9f3c
00000340: ceaf 01be 3e20 0cbe b2c4 65bd 02e9 27be
00000350: 6106 6a3c 5e8c ddbd fe04 d8bd e776 63bd
00000360: e4ea a73c 08ab 15bd 71bd 2dbd a9fb a3bd
00000370: 3c40 18be 2d75 473d b61b 1abe ce86 15be
00000380: 5b5d 8ebd c8cf 1cbe eb4a bebd b910 0fbe
00000390: 6857 69bd 1cfb acbd e890 dabc e7f1 82bb
000003a0: 0542 be3d 5726 06bd 18a4 2fbd 6fbe a2bc
000003b0: 6e7f 3fbd 2289 eb3c 5796 83bd 5231 9dbd
000003c0: 5b0a 98bd b6e8 cd3d 5a46 b7bc 22cc c4bd
000003d0: d231 ebbd eb98 34bd e328 74bd c912 8a3c
000003e0: bf77 08be e3b4 1fbe 3eb0 54bd dd58 d83c
000003f0: 91bf 8d3c e5e2 0c3e fba7 a63c 4622 26bd
-0.13772236 0.120135605 -0.20211281 -1.27679 -0.6419414 -0.20804572 -0.22828291 -0.040296413
-0.21850884 -0.016688194 -0.980802 -0.10580643 -0.07812594 -0.7643025 0.027392713 -0.38449833
0.42425615 0.33467498 -0.565239 0.05980494 0.026109854 0.23625423 -0.16466346 -0.205895
-0.077093706 -0.42495856 -0.18303855 0.2884936 -0.08285724 -0.052848984 -0.24018821 -0.032268185
-0.07389126 -0.26750526 0.026151557 -0.371763 -1.0140507 -0.12899294 0.23382576 0.10206612
0.1611823 0.1623856 -0.059927046 0.024384603 -0.21372 -0.13528249 -0.092191674 -0.4073039
-0.35721415 -0.002238859 -0.59306985 -0.0039957515 -0.12449315 0.20866492 0.35468924 -0.16321136
-0.27781877 -0.6732215 -0.08402117 0.03857537 -0.0062524923 0.05621176 -0.16514733 0.09301082
0.05127171 -0.08065166 -0.27459157 -0.118090406 -0.16333783 -0.22526233 0.009204527 -0.004740711
-0.12348473 0.06656769 -0.36566338 -0.016137462 0.0027253926 0.06300629 0.021821484 0.04566478
-0.07752366 -0.33648983 -0.06710876 -0.030252334 0.013898395 -0.03395416 -0.29402643 -0.021674307
-0.008549432 -0.0690288 0.03285806 -0.104801394 -0.03464323 -0.09205197 0.118791826 -0.04776821
-0.15263367 -0.15248938 -0.07274294 -0.06504051 -0.17433423 -0.06261891 0.0603669 -0.0918856
0.07548234 -0.061150376 0.055814408 -0.010805674 -0.038485292 -0.097827174 0.08479117 -0.042262334
0.06136123 0.06949545 0.046083614 0.06074152 -0.34689003 -0.12261358 -0.011772021 -0.11308985
-0.25759885 -0.102417424 0.03663365 0.012361949 -0.10630078 -0.07415216 -0.060976483 -0.20359117
-0.07225575 0.01647213 0.00850994 -0.055164054 -0.18619221 -0.071536586 -0.11917923 -0.00050423096
-0.12038848 0.074542 -0.06647724 -0.25385612 -0.106594 0.03447018 0.12080983 -0.20948887
-0.023613103 -0.08023536 0.079213336 0.050875045 -0.03407781 0.13963975 -0.12962337 -0.16335791
0.068498485 -0.045584887 -0.16947429 -0.05908865 -0.002552458 -0.016475804 -0.09071051 0.042333513
0.05595708 -0.11154202 -0.07622077 -0.13757516 -0.13485394 -0.005533913 0.037098926 -0.16598192
-0.051486727 -0.08829478 0.108098075 0.046079293 -0.025310963 -0.08368544 -0.2039301 -0.12889528
-0.12703173 -0.12680046 -0.02921789 0.09184502 0.050176695 0.027199304 -0.0044314563 -0.13055113
-0.046175778 -0.070267364 -0.119247444 -0.12156907 -0.17798036 -0.02488324 -0.021983685 -0.05735926
-0.05944445 -0.038564175 -0.12717728 -0.015984712 -0.09814603 0.0042174 -0.011604637 0.073265634
0.027878374 -0.07570725 -0.08471577 -0.13639449 -0.043514706 0.036781836 -0.026854642 0.019501043
-0.1266472 -0.13684174 -0.056095786 -0.16397479 0.014283747 -0.108177885 -0.10547827 -0.055533316
0.020497747 -0.03654006 -0.042416994 -0.08006985 -0.14868253 0.048695732 -0.15049633 -0.14602205
-0.069514 -0.15313637 -0.09291633 -0.13971223 -0.056968123 -0.08446333 -0.026680425 -0.003996122
0.09289936 -0.032751407 -0.0428811 -0.019866196 -0.046752386 0.028751913 -0.064251594 -0.07675423
-0.0742385 0.10054152 -0.022372413 -0.09609248 -0.11484112 -0.044091146 -0.059609305 0.01685466
-0.1332693 -0.15596347 -0.05192589 0.02640956 0.01730326 0.13758428 0.020343771 -0.04056003

layer3.bias f4 [128]
00000000: 6215 47be 0eb6 51bd da4f 1fbe fe3e 60bd
00000010: de6d 88bd 3fbd c1bd b327 c4bd bb29 26be
00000020: e420 a7bd 0adb b6bc 4466 04be e894 92be
00000030: 1724 b9bd 4f1e 38be 12b6 ccbd 9084 f9bd
00000040: 62c5 49bc ce85 02be fd73 3bbe 9aed b03d
00000050: 8133 6abe 196c 03be b545 81be 1717 0ebe
00000060: 564e 58bd 34bc 03be e9dc 9ebe 8069 243e
00000070: 12ad 18be cea5 57be 2d2b 4abe 4177 543e
00000080: b626 c0bd 0b2e b1bd 1d68 65be 2bb7 68be
00000090: b170 49be 6360 103e a1a2 6cbe 9a3b 32be
000000a0: 6fce 1dbe 91ce 80be d4ea 3dbe e714 06be
000000b0: cd97 f13d f243 18be 7f4a 50be f24b 51be
000000c0: edf0 823d 9b51 39be 362d 28be d2b4 2ebe
000000d0: 5cc4 31be 0a0e 15be ca0f 42be 6739 69be
000000e0: 1a6f 15be 463a ffbd db1a 32be dd99 18be
000000f0: ac4c 0cbe 654a 9dbd bed5 99bd 830b 46be
00000100: 6dc2 c83c 9cea 64be 8701 ffbd 1897 cbbd
00000110: a529 edbd de58 b3bd 467a 0dbe ddc6 35be
00000120: 9dac f7bd 7639 10be 923f 1dbe 6300 cebd
00000130: 36ae 20be ef92 80be 49b1 1bbe ffca 96be
00000140: dd77 513e 1787 dfbd 78f0 54be 4e32 3f3e
00000150: b8d0 66bd 3c2d 24be dda5 11be 8e25 31be
00000160: 75f2 aabc 36de 783c c804 d9bd 4696 b2bd
00000170: 6b07 c3bd 7585 4cbd 5302 59be 2863 29be
00000180: 99b7 82be c587 3bbe 2e67 54be daec 3abe
00000190: e671 10be d64f 62be 23ea 07be 6b47 3dbe
000001a0: 8afc c2bd b3d6 02be 7d21 48be fd4a 44bd
000001b0: 9045 5dbd 7005 edbc 5689 33bd fc03 0ebe
000001c0: dfb0 edbd 7903 a1bd 2ecd 20be 4e7e c7bd
000001d0: e7a6 d0bd 4af8 7fbe da46 05be 5522 67be
000001e0: 5527 82be 34e4 41be cb53 f3bd e875 2abe
000001f0: f250 2dbe 2145 65be 155c ddbd 9f3d 0abe
-0.1944175 -0.05119901 -0.15557805 -0.054747574 -0.066615805 -0.09459924 -0.095778845 -0.16226856
-0.0816057 -0.022321243 -0.12929636 -0.2862923 -0.09040087 -0.17980312 -0.09995665 -0.121834874
-0.012315126 -0.12746355 -0.18305965 0.08639069 -0.2287121 -0.12834205 -0.25248495 -0.13875996
-0.052809082 -0.12864763 -0.31027916 0.1605587 -0.14909771 -0.21059343 -0.19743033 0.20748617
-0.093823835 -0.0865136 -0.22402997 -0.22726123 -0.19671895 0.14099269 -0.23108913 -0.17405549
-0.1541078 -0.25157598 -0.18546611 -0.13093911 0.11796532 -0.14869669 -0.20340918 -0.20439127
0.06393609 -0.18097536 -0.16423497 -0.17061165 -0.17360061 -0.14556137 -0.18951336 -0.22775804
-0.14593163 -0.12462287 -0.17393057 -0.14902444 -0.13701123 -0.07680205 -0.07511471 -0.19340329
0.024506772 -0.22355121 -0.12451463 -0.09940928 -0.11580209 -0.087571844 -0.13816175 -0.17751642
-0.1209347 -0.1408442 -0.15356281 -0.100586675 -0.15691456 -0.251121 -0.15204348 -0.2945175
0.2045588 -0.10914438 -0.20794857 0.18671533 -0.056351393 -0.1603288 -0.14223428 -0.17299482
-0.020867566 0.015189698 -0.10596615 -0.08720069 -0.09522899 -0.049931962 -0.21192293 -0.16541731
-0.255307 -0.1831351 -0.20742485 -0.18254414 -0.14105949 -0.22100767 -0.1327291 -0.18484275
-0.09520824 -0.12777214 -0.19544025 -0.047923077 -0.054021418 -0.028933257 -0.043832146 -0.13868707
-0.11606001 -0.078619905 -0.1570327 -0.097408876 -0.10188084 -0.24997059 -0.13015309 -0.2257169
-0.25420633 -0.18934709 -0.118812166 -0.1664654 -0.1692541 -0.22389652 -0.10808579 -0.13500069

layer4.weight f4 [22, 128]
00000000: fe79 adbc 5f3a 3e3d 85c2 c1bd ef64 c33d
00000010: 03e3 8c3d 2b75 f53c 6004 c83c 3f01 27ba
00000020: e98b 8abd b627 e13d ca8f 6e3c 411d b53e
00000030: 6ece d53d 0295 4abd 19bc 9fbc 0670 8dbd
00000040: 1d8f d4bc e4b2 85bd 97ce 1bbd f3c8 693c
00000050: fa88 17be 56ca a63d 0332 163e e201 97bd
00000060: 79d2 1b3c 1851 53bc 39fd f7be be9a 833d
00000070: 0e70 813d c6fe f23b 873d 73bd 9ef7 16be
00000080: a628 323e e0b3 d6bd 2bdf bbbd 9ace ce3d
00000090: 32c2 22be 1b7a 20bd e834 543c 0685 95bd
000000a0: a225 6b3d 9d93 cbbc c27a f23c 45da ccbb
000000b0: 6479 3fbd 5144 913d e5f4 40be 6f85 cabd
000000c0: d93e 94bb b2d2 9b3c 20df 09bd bcd7 83be
000000d0: 6c96 e3be fbc8 cbbc b9d2 d83d 17eb bebd
000000e0: 8389 013d f348 003e d030 cfbd 2aef 573b
000000f0: 004c 28bd 414d d03d 96f5 813d 2ac4 6b3c
00000100: 8799 fabc 8050 593d f76f d9bc c7a1 2dbe
00000110: fbb4 2dbd 552d c9bc 79db 7e3d 1caf eb3c
00000120: a2c9 583c 1d49 b93c 0f5d 15bd aa22 efbd
00000130: 1637 43bd 05ca 22bd 0a01 523d aeaf 5a3e
00000140: ffb2 0a3d 11c3 843d 9748 6a3d 9096 353a
00000150: 7d8a 9dbd 2085 09be ecb4 1e3e eb32 c8bd
00000160: 6191 0ebd a78b 903d 0fd0 22bd 73d2 0e3d
00000170: e4ff eb3d b8ff 4f3a 9a45 0ebd 03d9 913d
00000180: 0421 253b 43ce 2a3e 9c6c 5dbd 2cf1 dcbd
00000190: c41d f2bc e648 9e3d a112 023d a5fc 663d
000001a0: d933 47be 5b76 82bd a882 dd3b 2567 883d
000001b0: 62ee 033b 405d 31bc 06c5 e53c c71a c5bd
000001c0: be1f 6abc a54b 1c3d d372 8cbd d5a9 00bc
000001d0: 33bd 3a3e bb7d 56bd 449d e4bb 8833 1f3e
000001e0: b319 503d a90d 23bd 2589 5cbc 60fa 4d3d
000001f0: fecf fbbc b744 8a3d 508d 343d 88de 07be
00000200: 4c35 a53d 3871 96bd 6eac 2abd 1dbc 09bd
00000210: 91d8 903d 26a4 013d 64d8 dbbc 65c0 43be
00000220: d4e1 26bd 09dc b23c 8bf3 98bd 3fc9 c33d
00000230: e148 f83d c38b 133e 2324 a23d 3efd 5b3d
00000240: 2f6d 23bd 52ac e83d 8783 ba3d e2f8 1c3d
00000250: 1808 afbe d7d5 b63d b349 f738 7811 153e
00000260: 871d 293e 14f5 473c 80b8 a83d eaf2 57be
00000270: 610e 1abe 9cc1 693b 2aa3 25bd dfd2 2d3b
00000280: a147 6f3d ae87 813d f71e 00be 2190 0cbe
00000290: 333d 1d3d c871 bd3c dfd7 4abd eeda 143a
000002a0: 8415 ec3d 78bf d43d 4115 823d 1e92 53be
000002b0: 9615 35bd 9769 6f3e cb7a 293e dbe1 c73c
000002c0: e3bf 27bd 2c4f 053d 6aec 19bc 8a42 ca3e
000002d0: f059 2c3e 349b 93bc ffcb ca3c 6a05 c23d
000002e0: a3f7 933d 7d41 493e 6eef 2e3d dc08 263d
000002f0: a519 ed3d 63e3 1cbd 6c74 4d3d 698c 7bbc
00000300: 38ec b0bc 9447 e23d eec3 e2bb 1ce0 90be
00000310: 09e6 bc3d c67e adba 9dd7 93bd e6e8 0c3d
00000320: b58a 50be 39db cdbd 7bd8 1abb 20b0 3ebc
00000330: 69cd e33c 917e 653d 00be a03b 057e 113d
00000340: 230f 34bd ac07 41bd c6dc a63d dff7 82bd
00000350: 7ec4 73bd 4a7a d33d 967b b6be e19c 8c3c
00000360: ca95 5a3e a840 933d 0965 8f3d b5ef 6e3d
00000370: 2dfb 82bd 4567 babd c3a8 9d3d 2932 debe
00000380: 280d 6fbd fccf 933e 4911 08be 46f6 17bd
00000390: 3b5a c53d 196f 95bd ac60 b53d 96e1 bb3d
000003a0: 01e9 f53d a675 9dbd e1f0 aabd d4af bbbd
000003b0: 6daf 883d 82f1 a53d 897c d53b 4dc3 00b8
000003c0: c282 f5bb 2237 c2bc 8f08 1dbd 497a 3fbd
000003d0: 22f9 fabd b239 88bd 86c0 bf3d cb02 c43d
000003e0: 6d00 b73d cf47 5bbb 7128 2c3e 41f3 0abd
000003f0: 8d8d e1bc f91d e2bd 9899 40bd cacf 183d
-0.021176334 0.046442386 -0.0946093 0.09540736 0.068792365 0.029963097 0.024416149 -0.000637073
-0.06764967 0.109939024 0.014560649 0.3537388 0.10439764 -0.04945851 -0.019498872 -0.069061324
-0.025947148 -0.06528261 -0.038038816 0.014269101 -0.14798346 0.08144061 0.14667515 -0.07373406
0.00951063 -0.012897752 -0.4843538 0.06425999 0.06320201 0.0074156253 -0.05938485 -0.14742896
0.17398319 -0.10483527 -0.09173425 0.10098 -0.15894392 -0.03917895 0.012952067 -0.07300763
0.057408936 -0.024850661 0.029599551 -0.0062516057 -0.046746626 0.070931084 -0.1884342 -0.09888732
-0.0045240936 0.019021366 -0.033660054 -0.2575053 -0.444507 -0.024876108 0.10587067 -0.093221836
0.031625282 0.12527828 -0.10116732 0.003294895 -0.041088104 0.10170985 0.0634567 0.014390031
-0.030590786 0.053055286 -0.026542647 -0.16956244 -0.042408925 -0.024557749 0.062221024 0.028770022
0.013231667 0.022617871 -0.0364657 -0.116765335 -0.047659956 -0.039743442 0.051270522 0.21356079
0.03386211 0.064825185 0.057198133 0.00069270376 -0.0769243 -0.1342969 0.15498704 -0.09775337
-0.034806613 0.070578866 -0.0397492 0.03486867 0.11523417 0.00079345284 -0.034734346 0.0712147
0.002519668 0.16680245 -0.054058656 -0.107881874 -0.029555209 0.07728748 0.031756047 0.056393284
-0.19453372 -0.06370231 0.00675996 0.06660298 0.00201311 -0.010825455 0.02804805 -0.09624248
-0.0142897945 0.038158078 -0.068578385 -0.007852991 0.18236236 -0.052366 -0.0069767553 0.15547001
0.05080576 -0.03980795 -0.013460432 0.050287604 -0.030738827 0.067513876 0.04408008 -0.13268483
0.08066806 -0.073458135 -0.041668348 -0.033626664 0.07072557 0.031650685 -0.026836582 -0.19116361
-0.04074271 0.021833437 -0.07468327 0.09559869 0.121232755 0.14408784 0.07917049 0.053708307
-0.039899047 0.113609925 0.09107118 0.03832329 -0.34185863 0.089275055 0.00011791605 0.14557445
0.1651517 0.012204427 0.082383156 -0.21088758 -0.15044548 0.0035668379 -0.04043881 0.0026523394
0.05841792 0.06324707 -0.12511812 -0.13726856 0.038388442 0.023125544 -0.049522277 0.0005678375
0.11527541 0.10388082 0.0635171 -0.20661208 -0.04421004 0.23380123 0.16550748 0.024399688
-0.04095448 0.032546207 -0.009394744 0.3950389 0.16831183 -0.018018343 0.024755476 0.09473689
0.07224967 0.19653888 0.042708807 0.040535793 0.11577157 -0.03830279 0.050159857 -0.015353301
-0.021597013 0.11048809 -0.0069203293 -0.28295982 0.09223563 -0.0013236634 -0.07218859 0.034401797
-0.20365413 -0.10051579 -0.0023627568 -0.011638671 0.027807908 0.056028906 0.0049054623 0.035520572
-0.043959748 -0.047126457 0.08147578 -0.06394934 -0.05951356 0.10326059 -0.35641164 0.01716465
0.21346202 0.071900666 0.07001693 0.05833407 -0.06395564 -0.09101728 0.07698204 -0.43397644
-0.058362156 0.28869617 -0.13287844 -0.0371001 0.09636351 -0.07296581 0.08856329 0.091738865
0.120073326 -0.07688455 -0.08346725 -0.09164396 0.06674085 0.081027046 0.00651509 -3.0699466e-05
-0.007492394 -0.02370793 -0.03833824 -0.04674748 -0.122545496 -0.066516295 0.09362893 0.09570845
0.08935628 -0.003345955 0.16812302 -0.03392339 -0.027533317 -0.11040873 -0.04702148 0.037307538

layer4.bias f4 [22]
00000000: 2680 0b3d eb54 973b 517f ac3d f788 513c
00000010: c978 053d c1eb 023d 92e4 123d 4ed6 b93d
00000020: 8930 a63c 083d 963d b94a 193d 9610 213d
00000030: 6734 2e3e dd53 a43c 2161 6f3d 5385 823d
00000040: 0d06 8c3d 475f 303e 14a6 053d 415c 103e
00000050: e84b 8e3d 5a01 943d
0.03405776 0.0046182773 0.08422721 0.012789003 0.032585893 0.031963114 0.035862513 0.090740785
0.020286815 0.073358595 0.037424777 0.03932246 0.17012177 0.02005952 0.05844224 0.06373086
0.068370916 0.17223845 0.032629088 0.14097692 0.06948072 0.0722682

exp_avg f4 [32, 22]
00000000: dbc8 20a4 db55 0ea5 4836 9624 ee93 aca4
00000010: b826 0da5 0a83 2e24 910e aca4 ae63 4ea5
00000020: 575f f8a4 9531 63a4 129d 0da5 e369 cda4
00000030: 4836 1625 ee93 2ca5 b826 8da5 0a83 ae24
00000040: 910e 2ca5 ae63 cea5 575f 78a5 9531 e3a4
00000050: 129d 8da5 e369 4da5 66d0 4e9b fba7 781c
00000060: 7206 f199 3e55 8118 aa3f ab98 41e8 6897
00000070: 61eb 0419 b8ed 1e19 4a18 3a19 143a 7c99
00000080: 09a5 209a 98e2 0f1a 7206 719a 3e55 0119
00000090: aa3f 2b99 41e8 e897 61eb 8419 b8ed 9e19
000000a0: 4a18 ba19 143a fc99 09a5 a09a 98e2 8f1a
000000b0: 71b8 31b5 63fc 2bb7 a4b2 4536 1aa0 b536
000000c0: c21f 5336 79da d435 ea61 9536 5cd5 1eb6
000000d0: 59d1 8536 dabf e836 765d c636 e45a bb36
000000e0: a4b2 c536 1aa0 3537 c21f d336 79da 5436
000000f0: ea61 1537 5cd5 9eb6 59d1 0537 dabf 6837
00000100: 765d 4637 e45a 3b37 c28e 03b8 7f52 2338
00000110: a215 29b8 2738 13b8 350d 14b8 c4dd 82b8
00000120: f826 71b8 9631 84b8 62cf 26b8 68eb f2b7
00000130: a367 6fb8 491d 13b8 a215 a9b8 2738 93b8
00000140: 350d 94b8 c4dd 02b9 f826 f1b8 9631 04b9
00000150: 62cf a6b8 68eb 72b8 a367 efb8 491d 93b8
00000160: 1b66 2037 4d45 4eb4 f91e 8036 059f 2037
00000170: 0209 2137 6c71 aa36 3e34 4537 723d 3137
00000180: 5a6b c936 a815 1b37 122e 3137 8b0e ff36
00000190: f91e 0037 059f a037 0209 a137 6c71 2a37
000001a0: 3e34 c537 723d b137 5a6b 4937 a815 9b37
000001b0: 122e b137 8b0e 7f37 b340 f137 0073 2f37
000001c0: d800 0837 1f51 b737 c6fe 9837 bcba 89b5
000001d0: 7bb7 ae37 f586 7fb7 8500 9637 26bf f537
000001e0: a452 ac37 a4f1 f837 d800 8837 1f51 3738
000001f0: c6fe 1838 bcba 09b6 7bb7 2e38 f586 ffb7
00000200: 8500 1638 26bf 7538 a452 2c38 a4f1 7838
00000210: f2df 1482 1085 1382 3a80 1882 31d5 1d02
00000220: f840 1102 220f 1082 9bc3 1802 b2dc 1902
00000230: 4376 1c02 24e0 1982 88b7 1202 da69 1682
00000240: a2e1 1182 5bfb 1602 3c63 1a02 2b1e 1982
00000250: 1822 1202 fa2e 1302 a9ab 1502 4732 1382
00000260: 59f1 1b02 2cdf 1f82 5caa 1982 5857 1d82
00000270: b6e2 1d82 45c3 1b02 67ec 1a82 c24e 1802
00000280: d3a0 1e02 bbf7 1e82 5537 1102 1cf0 1b82
00000290: 0823 1602 9b05 1182 4a08 1782 6f00 1502
000002a0: e532 1482 52b2 1102 27be 1702 4811 1882
000002b0: fd58 1a02 542b 1582 e693 1f02 2424 1a82
000002c0: 40f5 1d82 075f 1182 5630 1c02 7936 1b02
000002d0: 3ef2 1602 18c4 1702 938c 1802 036d 1a02
000002e0: 2dc7 1302 e4b3 1582 1121 1d02 30ec 1602
000002f0: c568 1502 c079 1402 ee64 1002 ab2d 1102
00000300: 73ed 1102 08b9 1302 1312 1d02 c61d 1f82
00000310: 0c4f 1602 245f 1002 a277 c134 7c98 0ab5
00000320: c377 a334 98ec 1334 88aa 2334 a27e 2f32
00000330: 4536 5d32 258c 3735 e607 6335 83dd 8935
00000340: 685c f334 a3d1 1835 c377 2335 98ec 9334
00000350: 88aa a334 a27e af32 4536 dd32 258c b735
00000360: e607 e335 83dd 0936 685c 7335 a3d1 9835
00000370: e4d7 a6a2 278b f922 2116 c421 f353 0722
00000380: 457e f722 84d6 0fa2 5f50 de22 4cf6 1123
00000390: 02c0 95a2 9d99 1d22 e4cd fc22 2849 8920
000003a0: 2116 4422 f353 8722 457e 7723 84d6 8fa2
000003b0: 5f50 5e23 4cf6 9123 02c0 15a3 9d99 9d22
000003c0: e4cd 7c23 2849 0921 4f7a 82b7 84d1 43b7
000003d0: a7aa b436 0727 e237 c1f4 5536 fef1 60b6
000003e0: 3c7b f036 f561 c0b7 e99a 2737 83eb b437
000003f0: e1bd 2e37 3f1c ba35 a7aa 3437 0727 6238
-3.48646e-17 -1.2345626e-16 6.5144086e-17 -7.484371e-17 -1.2242919e-16 3.784123e-17 -7.4617786e-17 -1.7901425e-16
-1.0771437e-16 -4.9264776e-17 -1.2283018e-16 -8.908396e-17 1.3028817e-16 -1.4968742e-16 -2.4485838e-16 7.568246e-17
-1.4923557e-16 -3.580285e-16 -2.1542873e-16 -9.852955e-17 -2.4566036e-16 -1.7816791e-16 -1.7107258e-22 8.2273426e-22
-2.4921419e-23 3.343179e-24 -4.426675e-24 -7.525639e-25 6.8717744e-24 8.2164155e-24 9.62088e-24 -1.30398234e-23
-3.322054e-23 2.9754748e-23 -4.9842838e-23 6.686358e-24 -8.85335e-24 -1.5051278e-24 1.3743549e-23 1.6432831e-23
1.924176e-23 -2.6079647e-23 -6.644108e-23 5.9509496e-23 -6.6206036e-07 -1.0251158e-05 2.945927e-06 5.4128586e-06
3.1459936e-06 1.5858815e-06 4.4519447e-06 -2.3668026e-06 3.98808e-06 6.9364733e-06 5.91174e-06 5.5836153e-06
5.891854e-06 1.0825717e-05 6.291987e-06 3.171763e-06 8.9038895e-06 -4.7336052e-06 7.97616e-06 1.38729465e-05
1.182348e-05 1.1167231e-05 -3.1365787e-05 3.893906e-05 -4.0312887e-05 -3.5099827e-05 -3.529825e-05 -6.24019e-05
-5.749517e-05 -6.3034866e-05 -3.9770624e-05 -2.8958268e-05 -5.707856e-05 -3.5074805e-05 -8.0625774e-05 -7.0199654e-05
-7.05965e-05 -0.0001248038 -0.00011499034 -0.00012606973 -7.954125e-05 -5.7916535e-05 -0.00011415712 -7.014961e-05
9.560516e-06 -1.9210457e-07 3.818303e-06 9.573768e-06 9.598445e-06 5.079599e-06 1.1754279e-05 1.05643285e-05
6.002764e-06 9.243762e-06 1.0560749e-05 7.6012852e-06 7.636606e-06 1.9147536e-05 1.919689e-05 1.0159198e-05
2.3508557e-05 2.1128657e-05 1.2005528e-05 1.8487524e-05 2.1121497e-05 1.52025705e-05 2.8759567e-05 1.0457588e-05
8.106428e-06 2.1853075e-05 1.823845e-05 -1.0261642e-06 2.0827856e-05 -1.5230607e-05 1.7881635e-05 2.9295286e-05
2.054248e-05 2.9676426e-05 1.6212856e-05 4.370615e-05 3.64769e-05 -2.0523285e-06 4.1655712e-05 -3.0461213e-05
3.576327e-05 5.8590573e-05 4.108496e-05 5.9352853e-05 -1.0937592e-37 -1.0838041e-37 -1.1203996e-37 1.1595721e-37
1.0671563e-37 -1.0583792e-37 1.1223332e-37 1.1304001e-37 1.1495009e-37 -1.130499e-37 1.0779057e-37 -1.1050637e-37
-1.0717671e-37 1.1092395e-37 1.1342612e-37 -1.1249323e-37 1.073617e-37 1.0813336e-37 1.0996055e-37 -1.0814283e-37
1.1456865e-37 -1.1745522e-37 -1.1289555e-37 -1.1559605e-37 -1.1599601e-37 1.1443641e-37 -1.1381977e-37 1.1189799e-37
1.1654161e-37 -1.1679102e-37 1.0668797e-37 -1.145651e-37 1.1030313e-37 -1.0654526e-37 -1.1096107e-37 1.0946916e-37
-1.0887929e-37 1.0704093e-37 1.1148299e-37 -1.1172156e-37 1.1339672e-37 -1.0959226e-37 1.172392e-37 -1.1324505e-37
-1.1604922e-37 -1.0680189e-37 1.1474942e-37 1.1403234e-37 1.108978e-37 1.1150004e-37 1.1207539e-37 1.1345418e-37
1.0857015e-37 -1.0998417e-37 1.1544028e-37 1.1088042e-37 1.0976859e-37 1.0908263e-37 1.0608415e-37 1.0666024e-37
1.0721062e-37 1.0852956e-37 1.1539725e-37 -1.169002e-37 1.1042945e-37 1.0606753e-37 3.6036096e-07 -5.16309e-07
3.0448254e-07 1.3776514e-07 1.5242597e-07 1.0215134e-08 1.28762325e-08 6.837675e-07 8.4575584e-07 1.0271764e-06
4.5329512e-07 5.6929474e-07 6.089651e-07 2.7553028e-07 3.0485194e-07 2.0430267e-08 2.5752465e-08 1.367535e-06
1.6915117e-06 2.0543528e-06 9.0659023e-07 1.1385895e-06 -4.5222973e-18 6.763892e-18 1.3287334e-18 1.8340354e-18
6.7083177e-18 -1.9493677e-18 6.0258317e-18 7.912621e-18 -4.0589827e-18 2.135879e-18 6.852273e-18 2.3257114e-19
2.6574668e-18 3.668071e-18 1.34166354e-17 -3.8987355e-18 1.2051663e-17 1.5825242e-17 -8.1179654e-18 4.271758e-18
1.3704546e-17 4.6514227e-19 -1.5554162e-05 -1.1671687e-05 5.3842846e-06 2.6959473e-05 3.188194e-06 -3.351946e-06
7.1669037e-06 -2.2933798e-05 9.9900435e-06 2.156734e-05 1.0415418e-05 1.3866301e-06 1.0768569e-05 5.3918946e-05

exp_avg_sq f4 [32, 22]
00000000: 11e0 5e2f 3025 d030 a3c8 9e2e f4f6 612f
00000010: a088 852f 70e7 292f 1c4e a82f b204 6430
00000020: e27f 0630 0efa 8d2f 0f83 eb2f be70 0f2f
00000030: a3c8 9e2f f4f6 6130 a088 8530 70e7 2930
00000040: 1c4e a830 b204 6431 e27f 0631 0efa 8d30
00000050: 0f83 eb30 be70 0f30 d207 e630 4e04 3430
00000060: 26b4 7430 d139 6430 9b5c 562f e7be b130
00000070: f9a3 332e fee1 6730 9369 b530 e719 c62e
00000080: 7c2f ae30 1a51 c730 26b4 7431 d139 6431
00000090: 9b5c 5630 e7be b131 f9a3 332f fee1 6731
000000a0: 9369 b531 e719 c62f 7c2f ae31 1a51 c731
000000b0: eead 5a31 4aca fa31 cc39 e830 d2b8 1231
000000c0: 7b93 ec30 491e f330 0255 ea30 c41a 0a31
000000d0: 9ef7 e630 c552 fa30 fe52 4731 3032 1c31
000000e0: cc39 e831 d2b8 1232 7b93 ec31 491e f331
000000f0: 0255 ea31 c41a 0a32 9ef7 e631 c552 fa31
00000100: fe52 4732 3032 1c32 a966 bd32 cbf2 7233
00000110: bfa8 5632 2059 5832 6fc1 5e32 be59 6d32
00000120: 82e4 6532 5d4e 6632 fdf4 4a32 120e 5532
00000130: 5291 4e32 325b 5832 bfa8 5633 2059 5833
00000140: 6fc1 5e33 be59 6d33 82e4 6533 5d4e 6633
00000150: fdf4 4a33 120e 5533 5291 4e33 325b 5833
00000160: a82b 8331 f022 1e31 8562 5831 4880 3a31
00000170: 2b41 8331 cc4b 6931 8166 7531 532f 7331
00000180: 1d73 4031 4b2e 7c31 2173 3331 473a 9631
00000190: 8562 5832 4880 3a32 2b41 8332 cc4b 6932
000001a0: 8166 7532 532f 7332 1d73 4032 4b2e 7c32
000001b0: 2173 3332 473a 9632 579f f332 e344 9c33
000001c0: 5e2b 8b32 a7a6 8032 04bf 8832 f84f 9332
000001d0: 10c3 8d32 cbbe 9a32 b15f 8d32 d5e4 8c32
000001e0: e9d7 8a32 5e64 a032 5e2b 8b33 a7a6 8033
000001f0: 04bf 8833 f84f 9333 10c3 8d33 cbbe 9a33
00000200: b15f 8d33 d5e4 8c33 e9d7 8a33 5e64 a033
00000210: 2cc6 1c2d 2278 842c 8b4f 2d2b fb9e 1825
00000220: 2a23 1127 1e07 2526 f50b 7427 d379 302b
00000230: 5419 cf25 9ba2 a325 8972 842a 9f6e 8d25
00000240: 8b4f 2d2c fb9e 1826 2a23 1128 1e07 2527
00000250: f50b 7428 d379 302c 5419 cf26 9ba2 a326
00000260: 8972 842b 9f6e 8d26 6ad6 142f 53d3 4b30
00000270: 6f32 702e 1a7b b22f 9c63 ad2e 5211 052e
00000280: d77e 662e 90be bb2d d493 1e2e 0b7f 822e
00000290: 57b6 892e 7f85 a82e 6f32 702f 1a7b b230
000002a0: 9c63 ad2f 5211 052f d77e 662f 90be bb2e
000002b0: d493 1e2f 0b7f 822f 57b6 892f 7f85 a82f
000002c0: d500 e32f fb6c a02f d507 262e 0287 a62d
000002d0: a971 7e2d 8d8c 832d c4a7 aa2d 9c3e 1a2e
000002e0: 8851 c82c 9c19 ed2c b510 722d 33c4 012d
000002f0: d507 262f 0287 a62e a971 7e2e 8d8c 832e
00000300: c4a7 aa2e 9c3e 1a2f 8851 c82d 9c19 ed2d
00000310: b510 722e 33c4 012e 9eba 3c2e 8133 0830
00000320: 32d0 702d d638 792d 0176 a52d 9ae6 db2d
00000330: c118 5f2d c9da 2e2d b976 8f2d b865 382f
00000340: 871c 852d d880 5f2d 32d0 702e d638 792e
00000350: 0176 a52e 9ae6 db2e c118 5f2e c9da 2e2e
00000360: b976 8f2e b865 3830 871c 852e d880 5f2e
00000370: 0f30 162f 20c5 b42f e688 022e 510b f42e
00000380: a232 e72e b213 b62e efae e72d c6de 002f
00000390: 1b6a 9e2e 81a1 f82e 1045 162e e18d 9d2e
000003a0: e688 022f 510b f42f a232 e72f b213 b62f
000003b0: efae e72e c6de 0030 1b6a 9e2f 81a1 f82f
000003c0: 1045 162f e18d 9d2f e686 c932 df72 7f33
000003d0: 05b4 4332 378e 3432 7c61 4d32 ee0e 6032
000003e0: 0e82 5432 a9fc 5832 aa05 2b32 1562 3832
000003f0: c703 2a32 d025 4532 05b4 4333 378e 3433
2.0270387e-10 1.5144561e-09 7.2206484e-11 2.0551366e-10 2.4289637e-10 1.5452684e-10 3.0614522e-10 8.295259e-10
4.893065e-10 2.5825425e-10 4.2839374e-10 1.3045828e-10 2.8882594e-10 8.2205465e-10 9.715855e-10 6.1810734e-10
1.2245809e-09 3.3181036e-09 1.957226e-09 1.033017e-09 1.713575e-09 5.2183313e-10 1.6736925e-09 6.5489736e-10
8.902269e-10 8.302808e-10 1.9496087e-10 1.2932703e-09 4.0845525e-11 8.4358465e-10 1.3199489e-09 9.008599e-11
1.2673662e-09 1.4502206e-09 3.5609076e-09 3.3211232e-09 7.7984347e-10 5.173081e-09 1.633821e-10 3.3743386e-09
5.2797957e-09 3.6034395e-10 5.069465e-09 5.8008824e-09 3.1822043e-09 7.298955e-09 1.6896649e-09 2.1350854e-09
1.7213176e-09 1.7689185e-09 1.7049901e-09 2.0096858e-09 1.680508e-09 1.8213419e-09 2.9005487e-09 2.2729516e-09
6.7586594e-09 8.540342e-09 6.8852706e-09 7.075674e-09 6.8199606e-09 8.038743e-09 6.722032e-09 7.2853674e-09
1.1602195e-08 9.091806e-09 2.204918e-08 5.6565835e-08 1.2494808e-08 1.2593119e-08 1.2966082e-08 1.3815621e-08
1.3381511e-08 1.340558e-08 1.1813651e-08 1.2401431e-08 1.202382e-08 1.259359e-08 4.997923e-08 5.0372478e-08
5.186433e-08 5.5262483e-08 5.3526044e-08 5.362232e-08 4.7254606e-08 4.9605724e-08 4.809528e-08 5.037436e-08
3.817565e-09 2.3011886e-09 3.1488139e-09 2.7139482e-09 3.8200105e-09 3.3949048e-09 3.571046e-09 3.5388055e-09
2.8005112e-09 3.669714e-09 2.6113371e-09 4.3722e-09 1.25952555e-08 1.0855793e-08 1.5280042e-08 1.3579619e-08
1.4284184e-08 1.4155222e-08 1.1202045e-08 1.4678856e-08 1.0445349e-08 1.74888e-08 2.8361383e-08 7.2768465e-08
1.620145e-08 1.4976946e-08 1.5919348e-08 1.7149418e-08 1.6503265e-08 1.8014722e-08 1.6458076e-08 1.6402206e-08
1.6163499e-08 1.8672093e-08 6.48058e-08 5.9907784e-08 6.367739e-08 6.859767e-08 6.601306e-08 7.205889e-08
6.58323e-08 6.560882e-08 6.4653996e-08 7.468837e-08 8.911576e-12 3.765003e-12 6.1572335e-13 1.3237763e-16
2.0141855e-15 5.725552e-16 3.3868284e-15 6.2696826e-13 3.592594e-16 2.8386178e-16 2.3527385e-13 2.453456e-16
2.4628934e-12 5.295105e-16 8.056742e-15 2.2902208e-15 1.3547314e-14 2.507873e-12 1.4370376e-15 1.1354471e-15
9.410954e-13 9.813824e-16 1.3536697e-10 7.415128e-10 5.4614476e-11 3.246548e-10 7.8848233e-11 3.0256082e-11
5.2408602e-11 2.1344065e-11 3.605634e-11 5.934283e-11 6.262429e-11 7.663469e-11 2.184579e-10 1.2986192e-09
3.1539293e-10 1.2102433e-10 2.0963441e-10 8.537626e-11 1.4422535e-10 2.3737132e-10 2.5049715e-10 3.0653877e-10
4.129165e-10 2.9181266e-10 3.7750986e-11 1.893197e-11 1.4463466e-11 1.4955393e-11 1.9401265e-11 3.5071154e-11
5.6933937e-12 6.7387883e-12 1.3759817e-11 7.376366e-12 1.5100395e-10 7.572788e-11 5.7853864e-11 5.982157e-11
7.760506e-11 1.4028462e-10 2.2773575e-11 2.6955153e-11 5.503927e-11 2.9505464e-11 4.2912e-11 4.9549703e-10
1.3688649e-11 1.4166631e-11 1.8810732e-11 2.4999825e-11 1.2681579e-11 9.939335e-12 1.6309941e-11 1.677084e-10
1.5133018e-11 1.27046915e-11 5.4754597e-11 5.6666526e-11 7.524293e-11 9.99993e-11 5.0726316e-11 3.975734e-11
6.5239765e-11 6.708336e-10 6.053207e-11 5.0818766e-11 1.3659494e-10 3.2881875e-10 2.9680168e-11 1.10978456e-10
1.0513658e-10 8.2799004e-11 2.6339346e-11 1.1720677e-10 7.203856e-11 1.1306423e-10 3.416739e-11 7.164736e-11
1.1872067e-10 4.4391382e-10 4.2054632e-10 3.3119602e-10 1.0535738e-10 4.688271e-10 2.8815425e-10 4.5225693e-10
1.3666956e-10 2.8658945e-10 2.3460824e-08 5.947629e-08 1.1391426e-08 1.0509715e-08 1.1954736e-08 1.3041911e-08
1.2369595e-08 1.2630303e-08 9.954798e-09 1.0732511e-08 9.896161e-09 1.1475507e-08 4.5565702e-08 4.203886e-08

exp_avg f4 [32]
00000000: 0466 8126 7801 f11b 07d3 7a38 5941 35ba
00000010: ae55 ae38 3947 32b9 579b 1a02 658b 1e02
00000020: fb37 af02 09b3 e7b6 7deb 6f24 8ac9 0539
00000030: 482a 28b9 cbac c185 d9b3 1202 e52e 81b1
00000040: 6cd9 87b6 2ced beb4 8e10 95b8 de81 0338
00000050: 0282 a3b7 2ff4 9539 ca1e da39 a5a5 053a
00000060: 0377 8439 0a2c 01ba cad0 e722 f827 0b38
00000070: 98cd 5bb8 c086 17b7 6812 6b3a 0f12 8e2d
8.978825e-16 3.9871055e-22 5.980118e-05 -0.00069143396 8.312926e-05 -0.00017001935 1.1358713e-37 1.1648011e-37
2.574607e-37 -6.905179e-06 5.202433e-17 0.00012758948 -0.0001603748 -1.8213107e-35 1.0778e-37 -3.7597254e-09
-4.0486248e-06 -3.5562823e-07 -7.107957e-05 3.1353782e-05 -1.9491654e-05 0.00028601426 0.0004160314 0.00050982303
0.00025265673 -0.0004927522 6.283374e-18 3.3177406e-05 -5.2405143e-05 -9.031675e-06 0.00089672813 1.615155e-11

exp_avg_sq f4 [32]
00000000: 5292 be32 2e12 3133 4958 a034 2d01 4336
00000010: a8f2 4134 c43e 5a36 3fec 842a 8982 2931
00000020: 152e 5430 3e57 1232 5cee e531 681f 2a36
00000030: 1798 7636 032a e731 5124 2e2f 9a85 1031
00000040: d81d fb37 82c1 1e34 6648 4c36 a0a3 1835
00000050: 38ac 4034 3f1a c935 6292 2836 761d 7c36
00000060: ab75 7337 3c80 1837 fa39 3331 daad 7d36
00000070: 832d 7134 2af4 1635 ce98 4936 b910 4c32
2.218545e-08 4.122756e-08 2.9866558e-07 2.9057949e-06 1.8062804e-07 3.2521066e-06 2.361184e-13 2.4666937e-09
7.7190637e-10 8.518155e-09 6.6918755e-09 2.5350255e-06 3.6745384e-06 6.727761e-09 1.583811e-10 2.1030702e-09
2.9935429e-05 1.4785294e-07 3.044051e-06 5.686252e-07 1.7944046e-07 1.4983306e-06 2.5119157e-06 3.7568075e-06
1.4511325e-05 9.089763e-06 2.6080884e-09 3.7801133e-06 2.2461431e-07 5.623466e-07 3.0040278e-06 1.1878165e-08
