checkpoints/MLP_bs32_lr0.001_win50-30-20_vTrue_scTrue_ep0.pth (torch, 178894 bytes, 24 tensors)

layer1.weight f4 [32, 22]
0	0x3d4c339d	0.04985391
1	0xbe34ac1f	-0.17643784
2	0xbdbacf33	-0.09121551
3	0xbda9cdd9	-0.082912154
4	0x3f117918	0.568254
5	0xbf0ca632	-0.54941094
6	0xbeb37cb4	-0.35056078
7	0x3d60ddba	0.054898955
8	0x3da01b87	0.078177504
9	0xbe238991	-0.15970446
10	0x3e357964	0.17722088
11	0x3e0bfa6b	0.13669746
12	0x3d9cacf0	0.07650173
13	0xbdc1a6c8	-0.09455639
14	0x3f093b2c	0.53605914
15	0xbec954c9	-0.39322498
16	0xbdc90103	-0.09814646
17	0x3e0c0394	0.1367324
18	0x3ddbca13	0.10731902
19	0xbe9b04de	-0.3027715
20	0xbe124169	-0.14282764
21	0xbced7c98	-0.028990075
22	0xbd369b81	-0.044581894
23	0x3e2cc9b7	0.16873823
24	0xbe3510a0	-0.17682123
25	0xbde58429	-0.11206848
26	0xbd967a77	-0.07347577
27	0x3e40be2b	0.18822543
28	0x3d851d1b	0.06499692
29	0x3e1398ad	0.1441371
30	0xbdb099d3	-0.0862309
31	0xbe2c6902	-0.16836932
32	0x3d959700	0.073041916
33	0x3f06c8b4	0.5265
34	0xbe4e14eb	-0.20125167
35	0xbf005c4e	-0.50140846
36	0xbe3559a9	-0.17709984
37	0x3da8c101	0.082399376
38	0xbd761909	-0.06008247
39	0xbdf382d6	-0.11890189
40	0xbeb42a5d	-0.3518857
41	0xbc0b45e7	-0.008500553
42	0x3e6fa660	0.23403311
43	0x3f38292c	0.71937823
44	0xbda7ec5e	-0.0819938
45	0xbd465516	-0.048420988
46	0xbecaacce	-0.39584965
47	0xbc61ce2f	-0.013782068
48	0x3eabbd05	0.33542648
49	0x3e59c9c3	0.21268372
50	0xbed245c1	-0.41068843
51	0x3e7ecf16	0.24883685
52	0xbed2682e	-0.41095108
53	0x3e440ed0	0.19146276
54	0x3ea4ff21	0.32225898
55	0xbe071db2	-0.13194922
56	0xbebfeef3	-0.3748699
57	0xbd5637b7	-0.052299228
58	0x3eb784dd	0.35843554
59	0xbe4c3a56	-0.19944128
60	0xbe131337	-0.14362799
61	0x3e1dbc18	0.15403783
62	0xbe355730	-0.1770904
63	0xbbd42a07	-0.0064747366
64	0x3efc96c8	0.49333787
65	0x3da3041b	0.079597674
66	0x3d776053	0.060394596
67	0x3c37815a	0.011200273
68	0xbe1c5875	-0.15268119
69	0xbf155d88	-0.5834584
70	0xbdc695e2	-0.09696557
71	0x3e33423d	0.17505737
72	0x3e243627	0.16036282
73	0x3e1ff9b1	0.15622593
74	0xbf056eeb	-0.5212237
75	0x3d7bad33	0.061444473
76	0x3e19b1a1	0.15009166
77	0xbe49decf	-0.19713901
78	0x3d87c4ff	0.06629371
79	0xbf255878	-0.6458812
80	0x3dcf03b7	0.101081304
81	0x3e841cec	0.25803316
82	0x3f06a67a	0.52597773
83	0x3d3265a3	0.04355396
84	0xbe95d706	-0.29265612
85	0x3d2b0288	0.04175046
86	0x3ea71ca8	0.3263905
87	0xbe2fae84	-0.17156416
88	0x3d8704c9	0.065927096
89	0x3cd339a0	0.025784314
90	0x3e8f0be5	0.27938762
91	0x3e9cf73b	0.30657372
92	0xbee474c1	-0.44620326
93	0xbea3f3f4	-0.3202206
94	0x3e840541	0.25785258
95	0x3dc2a3a2	0.09503867
96	0x3e7960a6	0.24353275
97	0xbe4cc417	-0.19996677
98	0x3e0f77de	0.1401057
99	0xbe9a3d3e	-0.3012485
100	0x3e379c8d	0.17930813
101	0x3e3f28b5	0.18667872
102	0xbef864fe	-0.4851455
103	0xbe60b654	-0.21944553
104	0xbdf2aaa7	-0.118489556
105	0xbe141d54	-0.14464313
106	0x3e76cb11	0.24100901
107	0x3dc1e58c	0.09467611
108	0x3cc0f743	0.023555404
109	0xbe850215	-0.2597815
110	0x3c9990c3	0.018745786
111	0x3b698981	0.0035634937
112	0xbf2bcfd6	-0.6711401
113	0xb945e00e	-0.00018870851
114	0xbda0284c	-0.07820186
115	0xbd7ea30b	-0.06216721
116	0x3e0ff0c6	0.14056692
117	0xbdb6b7e5	-0.08921794
118	0x3e6bf803	0.23043828
119	0x3e82b3fb	0.2552794
120	0xbdf942ff	-0.121709816
121	0x3f00d1c3	0.5032007
122	0xbf31262d	-0.69198877
123	0x3e30a2c7	0.17249595
124	0x3c017440	0.007901251
125	0xbdd1bec3	-0.10241463
126	0x3e936233	0.28785858
127	0xbda1a212	-0.078922406
128	0xbdca7082	-0.098847404
129	0x3ebcf563	0.36905965
130	0xbe932137	-0.28736278
131	0x3ebec99e	0.37263197
132	0x3e972da0	0.29526997
133	0xbb6a0781	-0.003571004
134	0xbee08d80	-0.43857956
135	0x3e5c2dc5	0.21501835
136	0x3e9a87f7	0.30181858
137	0x3ecb78cf	0.39740607
138	0x3e38139b	0.17976229
139	0x3ea2988e	0.31757015
140	0x3db14355	0.08655421
141	0xbf1397d4	-0.57653546
142	0x3d9c3df4	0.07629004
143	0xbee674aa	-0.45010883
144	0xbf0ee9a1	-0.5582524
145	0x3e2d20bf	0.16907023
146	0x3e590f84	0.21197325
147	0x3e822605	0.25419632
148	0x3ea11ca6	0.3146717
149	0x3e9acc4d	0.30233994
150	0xbe73cd0e	-0.23808691
151	0xbefbfb6b	-0.49215254
152	0xbe26feb3	-0.16308098
153	0xbef07e4b	-0.46971354
154	0x3d6afdff	0.057371136
155	0x3e1f906b	0.15582435
156	0x3cc695cc	0.02424135
157	0x3e2e0e4a	0.16997638
158	0x3e112c6b	0.141771
159	0x3d0cf5d1	0.034414116
160	0xbe208491	-0.1567557
161	0xbec32142	-0.3811131
162	0x3c4e271e	0.012582568
163	0x3e468cc7	0.1938964
164	0x3ea1d892	0.31610543
165	0xbecf88aa	-0.40533954
166	0x3d27d8e7	0.04097834
167	0x3ddae2d2	0.10687794
168	0x3ecba073	0.3977085
169	0xbc8e9502	-0.017405037
170	0x3df307de	0.11866735
171	0xbe9a7b8e	-0.3017239
172	0x3ab5282c	0.0013821176
173	0x3dde6493	0.10859027
174	0x3cab4c07	0.020910276
175	0xbefa5f8c	-0.4890102
176	0xbd698659	-0.05701289
177	0xbbd75e8d	-0.0065725506
178	0xbed3b604	-0.41349804
179	0xbea1ed78	-0.31626487
180	0x3de681cb	0.11255225
181	0x3dcc3906	0.09971814
182	0xbe40a833	-0.18814163
183	0x3d9a06e1	0.07520843
184	0x3d9a9aff	0.075490944
185	0xbe51d94f	-0.20493053
186	0xbdc58556	-0.096445724
187	0xbda85378	-0.082190454
188	0xbf027571	-0.5096045
189	0xbe4a1ce3	-0.19737582
190	0xba9a3de9	-0.0011767718
191	0x3e696989	0.22794165
192	0x3d16626f	0.036714967
193	0x3d94f110	0.072725415
194	0xbde20e78	-0.11037916
195	0xbe8c5f00	-0.2741623
196	0xbe051c01	-0.12998964
197	0xbe87c061	-0.2651396
198	0x3e486122	0.19568303
199	0xbbca2b91	-0.0061697443
200	0xbee670b4	-0.4500786
201	0xbe520f0b	-0.20513551
202	0x3dd3aade	0.10335325
203	0xbd7a0bf9	-0.061046574
204	0x3d89fcf1	0.06737698
205	0x3e946f97	0.28991386
206	0x3d759d9a	0.059964754
207	0xbe8e868f	-0.27837035
208	0xbe178874	-0.14798146
209	0xbe0c2be9	-0.13688625
210	0xbf05cc78	-0.5226512
211	0x3d95043a	0.07276197
212	0x3e3a4968	0.18192065
213	0x3e30fe19	0.1728443
214	0x3ebef66f	0.3729739
215	0x3c9e3b1d	0.019315297
216	0x3dd7fb6c	0.10546002
217	0xbea451e3	-0.32093725
218	0xbe5a55ce	-0.21321794
219	0xbc882b61	-0.016622247
220	0x3d2c40ae	0.04205387
221	0xbc5d6dba	-0.01351493
222	0xbdf274be	-0.11838673
223	0xbf31627b	-0.69290894
224	0x3d8f6cae	0.07003151
225	0xbcbc93b3	-0.023019647
226	0x3e3e4619	0.18581428
227	0x3e19c390	0.15016007
228	0xbe8cb8d2	-0.27484757
229	0xbef3a580	-0.47587204
230	0x3c5dae07	0.013530261
231	0x3d1a4c09	0.03767017
232	0xbcd8e5bd	-0.026476735
233	0xbf11500a	-0.56762755
234	0x3ea401ba	0.32032567
235	0x3d129321	0.035784844
236	0x3e045db7	0.12926374
237	0x3e355810	0.17709374
238	0xbe80c7fe	-0.25152582
239	0xbe2863ef	-0.16444372
240	0xbd1d14c0	-0.038349867
241	0x3cee3fbc	0.029083125
242	0xbc080dbf	-0.008304059
243	0xbd9f7b92	-0.07787241
244	0x3dae2958	0.085039794
245	0xbdb14973	-0.086565875
246	0x3ebef8bb	0.3729914
247	0x3ee511ca	0.44740134
248	0x3d7e7ffe	0.06213378
249	0xbdaab1e8	-0.08334714
250	0x3dee367f	0.11631488
251	0x3d8bb7fe	0.06822203
252	0xbe96bf0a	-0.29442626
253	0x3f05b9d7	0.52236694
254	0x3e44d641	0.19222356
255	0xbdbb32d3	-0.09140553

layer1.bias f4 [32]
0	0xbea71454	-0.32632697
1	0xbe5d63e0	-0.2162013
2	0xbcdeea0a	-0.027211208
3	0x3e1da91f	0.15396546
4	0xbeb132f3	-0.34609184
5	0x3e11679b	0.14199679
6	0xbe773330	-0.2414062
7	0xbe987ca8	-0.29782605
8	0x3e7ef77d	0.24899097
9	0xbeba881f	-0.36431977
10	0xbeaf1923	-0.34198865
11	0x3dd04f65	0.10171393
12	0x3e47ca61	0.19510795
13	0xbe83c463	-0.2573577
14	0xbeb1348e	-0.3461041
15	0xbed7bdc4	-0.42136967
16	0x3dc03515	0.093851246
17	0x3e1f64ac	0.15565747
18	0x3e1485ad	0.14504118
19	0xbd82889c	-0.063737124
20	0xbdfb8b1d	-0.12282393
21	0xbe349f6c	-0.1763894
22	0x3e5590ae	0.20855972
23	0x3dfbfc87	0.12304025
24	0xbe0a742b	-0.13520877
25	0x3e56c9e0	0.20975447
26	0xbe630d24	-0.22172982
27	0x3e0a3b98	0.13499296
28	0xbe2872f5	-0.16450103
29	0xbe09c4ad	-0.13453932
30	0x3e09f2c0	0.13471508
31	0xbeac5bd5	-0.33663812

layer2.weight f4 [64, 32]
0	0xbea6dd17	-0.32590553
1	0xbe90ac69	-0.2825654
2	0x3d8769e6	0.066119954
3	0xbe7fbf0b	-0.24975221
4	0x3cbc7b0e	0.023007896
5	0x3e8c0717	0.2734916
6	0x3dad2b94	0.084555775
7	0xbe8f01cb	-0.27931055
8	0xbebdc982	-0.370678
9	0xbe99a7c5	-0.3001081
10	0xbe4cbe3c	-0.19994444
11	0x3c44b648	0.01200635
12	0xbecf7b0b	-0.40523562
13	0xbe46a09e	-0.19397208
14	0xbf19caea	-0.6007525
15	0xbebef0b1	-0.37293008
16	0xbde64e3b	-0.1124539
17	0xbed46365	-0.41482082
18	0xbecd4cfa	-0.4009779
19	0xbe645dd4	-0.22301418
20	0xbe24a5d3	-0.16078882
21	0xbdfdbb35	-0.123892225
22	0xbdbca1fe	-0.09210585
23	0xbf2e1feb	-0.6801745
24	0xbca6a634	-0.020342924
25	0xbdb2e71a	-0.087354854
26	0xbdd16c4c	-0.10225734
27	0xbdc4c015	-0.09606949
28	0x3d873f7a	0.06603904
29	0x3ddde2c5	0.108342685
30	0x3e0362c7	0.1283065
31	0xbf02cfd3	-0.51098365
32	0xbe1481bb	-0.14502613
33	0xbd71973a	-0.05898211
34	0xbe002cd2	-0.12517098
35	0x3dbf074f	0.09327566
36	0xbe31b86c	-0.17355508
37	0xbe8f678d	-0.2800869
38	0x3e23c415	0.15992768
39	0xbdceff16	-0.101072475
40	0x3d27a1cc	0.040925786
41	0xbed4e3f4	-0.41580164
42	0xbe0abdd3	-0.13548975
43	0xbf24b393	-0.6433651
44	0xbee00ff1	-0.43762162
45	0xbe4ae796	-0.19814906
46	0xbeaae1f0	-0.33375502
47	0xbed646fd	-0.41851035
48	0xbf0fb383	-0.5613329
49	0xbe4594be	-0.19295022
50	0xbbf7ddc4	-0.0075642783
51	0x3c5e474b	0.013566802
52	0xbdc21169	-0.09475977
53	0xbc35af45	-0.011089151
54	0xbe99b832	-0.30023342
55	0xbdd8669b	-0.105664454
56	0x3d5a931a	0.053362943
57	0x3ce3a639	0.027789222
58	0xbc1f74c2	-0.009732427
59	0xbe7b26f3	-0.24526577
60	0x3e530df0	0.20610785
61	0x3d1a2a36	0.03763791
62	0xbd884bb0	-0.06655061
63	0xbde97005	-0.11398319
64	0xbdd82d5b	-0.10555526
65	0x3ddd7466	0.10813217
66	0x3ee662c2	0.4499722
67	0x3e88e8d0	0.26740122
68	0xbe0c92a0	-0.13727808
69	0xbf276d53	-0.6540119
70	0x3da82782	0.082106605
71	0x3dc7f898	0.09764212
72	0x3eadfaf7	0.33980533
73	0xbd56b51c	-0.052418813
74	0x3d0d170e	0.034445815
75	0x3e9b3a60	0.30317974
76	0x3e660255	0.22461827
77	0x3b44723e	0.002997532
78	0xbe94ae31	-0.29039147
79	0xbf12e819	-0.573854
80	0xbee2849e	-0.44241804
81	0x3da94463	0.08264997
82	0xbe6df094	-0.23236305
83	0xbeee3086	-0.46521395
84	0x3e453749	0.19259371
85	0xbedbbc82	-0.42917258
86	0xbe5a4f0c	-0.21319216
87	0xbf2c7b7f	-0.6737594
88	0xbdaa172f	-0.08305203
89	0x3d4305e5	0.047613043
90	0x3ec5960c	0.3859104
91	0x3e65857e	0.22414204
92	0x3e251ba9	0.16123833
93	0x3d4a8f35	0.04945298
94	0xbe22b3b9	-0.15888871
95	0xbe7d2037	-0.2471932
96	0xbb6efec2	-0.0036467765
97	0xbdd3d8b0	-0.10344064
98	0x3d8e999d	0.06962893
99	0xbed88800	-0.4229126
100	0xbc94c2cf	-0.018159298
101	0x3ddfbdad	0.1092485
102	0x3c96b7f1	0.018398257
103	0xbe9587e0	-0.29205227
104	0xbe203a21	-0.15647174
105	0xbd9154ff	-0.0709629
106	0x3d330d2e	0.04371374
107	0x3d408b8a	0.047008075
108	0x3ce13fb2	0.027496193
109	0xbf10a43d	-0.5650061
110	0xbe90f5d5	-0.28312555
111	0xbdddf891	-0.10838426
112	0xbd7fa4ff	-0.062413212
113	0x3e381571	0.17976929
114	0xbd89453e	-0.0670266
115	0xbe37ab94	-0.17936546
116	0x3d9fea42	0.07808353
117	0xbe9a23fe	-0.30105585
118	0x3e94961a	0.29020768
119	0xbe3a1a81	-0.18174173
120	0xbcd9081c	-0.026493125
121	0xbe9a3023	-0.3011485
122	0x3e28c8e4	0.16482884
123	0x3e46dfdd	0.19421335
124	0x3dd360fc	0.10321233
125	0xbe725fae	-0.23669311
126	0x3f34d3d0	0.706357
127	0xbe9df523	-0.30851087
128	0x3e8f692e	0.28009933
129	0x3e9d7d9a	0.3075989
130	0x3e5ffd8c	0.21874064
131	0x3e20a43b	0.15687649
132	0xbbbe406a	-0.0058060186
133	0x3db895cc	0.090129465
134	0x3ef00c21	0.46884254
135	0x3f04c3c8	0.5186124
136	0x3e813bc6	0.25240916
137	0x3e98a239	0.29811266
138	0x3f2d18f5	0.67616206
139	0x3eb652a9	0.3560994
140	0xbe8ef870	-0.27923918
141	0x3e86708d	0.26257744
142	0x3ed8ebb4	0.42367327
143	0x3ee10680	0.43950272
144	0x3e09eb4d	0.13468666
145	0x3e2ec3d1	0.17066886
146	0x3e02b3fe	0.12763974
147	0x3d29ca2f	0.041452583
148	0x3cf9ff37	0.030517204
149	0x3f023e2f	0.50876135
150	0x3ceef9aa	0.029171783
151	0x3d08a2ad	0.033358265
152	0x3e06b0b6	0.13153347
153	0x3c24b44c	0.010052752
154	0x3f135bdb	0.57562035
155	0x3d7762bd	0.0603969
156	0x3ef9ea43	0.4881154
157	0x3e8ad5ae	0.2711615
158	0x3d114b63	0.035472285
159	0x3ef97ff6	0.4873044
160	0xbe92042a	-0.28518802
161	0xbd771caa	-0.06033007
162	0xbd154b67	-0.036448862
163	0x3daa74a0	0.08323026
164	0x3df1406b	0.11779865
165	0xbd50f86b	-0.05101816
166	0xbed4f2ab	-0.4159139
167	0xbe5447a6	-0.20730457
168	0xbe38cf2c	-0.1804778
169	0x3e06d487	0.1316701
170	0xbe9a803b	-0.30175957
171	0xbe90bb4a	-0.2826789
172	0xbf2f5a49	-0.6849714
173	0x3e89bf34	0.2690369
174	0xbed75606	-0.42057818
175	0x3deeb862	0.11656262
176	0xbc992bc1	-0.018697621
177	0xbf24d851	-0.6439257
178	0xbf01012e	-0.50392425
179	0x3d00873a	0.031378962
180	0xbe8f0405	-0.27932754
181	0x3cf6fb5b	0.030149153
182	0xbe771b4a	-0.24131504
183	0xbed01478	-0.40640616
184	0xbe6a9d65	-0.22911604
185	0x3e0676b4	0.13131219
186	0x3d738e99	0.059462164
187	0x3c94b7bf	0.018154023
188	0x3e279083	0.1636372
189	0xbdc792d3	-0.09744801
190	0xbe0055d1	-0.12532736
191	0xbe3326d5	-0.17495282
192	0xbef0fe0c	-0.47068822
193	0xbe9f7038	-0.31140304
194	0x3e685ab5	0.22690852
195	0x3e8d5b88	0.27608895
196	0xbed93c5f	-0.42428872
197	0x3c4fa070	0.012672529
198	0xbd30c656	-0.043157898
199	0xbe1971ba	-0.1498479
200	0xbf17a8d8	-0.5924201
201	0xbe3063be	-0.17225549
202	0xbebfcb04	-0.37459576
203	0x3e5f8cd8	0.21831071
204	0xbe959c57	-0.2922084
205	0x3eb302f0	0.3496318
206	0xbeb6e22a	-0.35719424
207	0xbd9951f8	-0.074863374
208	0x3ec5c88e	0.38629574
209	0x3e0f62f4	0.14002591
210	0x3e0ee4bf	0.13954447
211	0xbec160e3	-0.3776923
212	0xbe9c8af8	-0.30574775
213	0xbdeb1274	-0.11478129
214	0xbf43cf41	-0.7648812
215	0xbe1f6024	-0.15564018
216	0xbe8a0c46	-0.2696249
217	0xbdf54150	-0.11975348
218	0xbcaeb30c	-0.02132561
219	0xbd80fa0a	-0.06297691
220	0xbdbbecca	-0.09176023
221	0x3e295597	0.16536556
222	0xbc8fa2fc	-0.017533772
223	0xbd2dc177	-0.04242083
224	0xbd8bccb5	-0.06826154
225	0x3f0b1967	0.54335636
226	0x3e0f1efd	0.13976665
227	0xbc8d4ae9	-0.017247634
228	0x3dab0440	0.0835042
229	0x3e539fb9	0.20666398
230	0xbe470ef3	-0.19439296
231	0xbe22f26a	-0.15912786
232	0x3e28ab46	0.16471586
233	0xbd0535ed	-0.03252213
234	0x3d14b13e	0.036301844
235	0x3e0bfffa	0.13671866
236	0xbd7c0e29	-0.06153694
237	0xbd0b2de9	-0.03397933
238	0x3e798f53	0.2437108
239	0x3e7b5419	0.245438
240	0x3d65f6d7	0.056143608
241	0xbeaa433b	-0.33254418
242	0xbc08c9ec	-0.008348923
243	0x3d97809c	0.07397577
244	0xbdda7f9a	-0.10668869
245	0xbd31c8c3	-0.043404352
246	0xbdd862b1	-0.10565699
247	0xbea122a8	-0.31471753
248	0xbe611a14	-0.21982604
249	0x3d650f21	0.05592263
250	0x3e9a8f5d	0.30187503
251	0xbc89095c	-0.016728096
252	0xbd19d06c	-0.037552282
253	0xbd269537	-0.040669646
254	0xbe7526e5	-0.23940618
255	0x3daa493a	0.08314748

layer2.bias f4 [64]
0	0xbe305acc	-0.17222136
1	0xbd4146f0	-0.047186792
2	0xbdd926b0	-0.10603082
3	0x3de3e9ea	0.111286
4	0xbf227cc4	-0.6347163
5	0xbb9d1332	-0.004793548
6	0xbdd976d8	-0.10618371
7	0xbd572b65	-0.05253162
8	0xbea10896	-0.31451863
9	0x3cb0e30c	0.02159264
10	0x3d0d789e	0.034538858
11	0xbd8310ef	-0.06399714
12	0xbde4452b	-0.11146005
13	0xbea2fa8a	-0.3183177
14	0xbdbf9ffa	-0.09356685
15	0xbdc77c54	-0.097405106
16	0xbe1a26c3	-0.15053849
17	0x3d551e66	0.052030943
18	0xbeb2bc20	-0.34909153
19	0xbd51f0bc	-0.051254973
20	0xbd871ded	-0.06597505
21	0x3c9e4d3c	0.019323938
22	0x3d5ae8be	0.053444616
23	0x3dcd1825	0.10014371
24	0xbe859630	-0.26091146
25	0xbdd3d89f	-0.103440516
26	0xbea0f921	-0.3144007
27	0xbe1e19de	-0.15439555
28	0x3e5c3270	0.21503615
29	0xbdd8335a	-0.105566695
30	0xbe26a5ac	-0.16274136
31	0xbdb834ac	-0.08994421
32	0xbe56f771	-0.20992829
33	0x3c9c397b	0.019070378
34	0xbe1c5edc	-0.15270561
35	0xbc75bc1e	-0.014998464
36	0x3d74500c	0.05964665
37	0xbe4f5868	-0.20248568
38	0xbdaa43f2	-0.08313741
39	0x3e72856f	0.23683713
40	0xbe4fe97a	-0.20303908
41	0x3d421fe3	0.04739369
42	0xbe1df0c2	-0.15423873
43	0xbdf2d3cc	-0.11856803
44	0xbf473654	-0.77817273
45	0x3bf96715	0.0076111653
46	0x3c836768	0.016040519
47	0xbc423a00	-0.011854649
48	0xbf055b93	-0.52092856
49	0xbe09d777	-0.134611
50	0xbf0e66b6	-0.55625474
51	0xbe678ecf	-0.22613071
52	0x3d5fe851	0.054664914
53	0xbe0dce38	-0.13848197
54	0xbd37d778	-0.04488322
55	0xbd8d76a2	-0.06907393
56	0x3ddd2222	0.10797526
57	0xbc3c6f88	-0.0115012005
58	0xbd73623a	-0.059419848
59	0xbe0e5365	-0.13899
60	0xbdb0c0ee	-0.086305484
61	0xbdebe71d	-0.11518691
62	0xbd76b98d	-0.06023555
63	0x3cb434ad	0.021997774

layer3.weight f4 [128, 64]
0	0xbe0d0717	-0.13772236
1	0x3df609a8	0.120135605
2	0x3e8db800	0.27679443
3	0xbec873f7	-0.39150974
4	0xbea4a5e2	-0.3215781
5	0x3e784319	0.24244346
6	0xbebbe04b	-0.3669456
7	0xbd5adcd2	-0.053433247
8	0xbe5fc0c8	-0.21850884
9	0x3ee4cba9	0.4468663
10	0xbedc2c6e	-0.43002647
11	0xbdb80ab8	-0.089864194
12	0xbd047fb0	-0.032348335
13	0xbe816c26	-0.25277823
14	0x3d4a3335	0.04936524
15	0xbece1e65	-0.40257564
16	0x3d781796	0.06056937
17	0x3eb1ff02	0.34764868
18	0xbe955012	-0.2916265
19	0x3e18c2e3	0.14918093
20	0x3cd5e455	0.026109854
21	0xbda61c44	-0.0811086
22	0xbdf1ac52	-0.118004456
23	0xbd9df001	-0.07711793
24	0xbd9de34e	-0.077093706
25	0xbe329fc2	-0.17443755
26	0xbe30974e	-0.17245218
27	0x3e93b56f	0.2884936
28	0xbf0776ae	-0.52915466
29	0xbd58782d	-0.052848984
30	0xbe121fca	-0.14269939
31	0xbd042ba5	-0.032268185
32	0xbdffd723	-0.12492206
33	0xbf80d9aa	-1.0066426
34	0x3d748442	0.059696443
35	0xbefd5d24	-0.49485123
36	0xbe98027c	-0.29689395
37	0x3dbacfbf	0.09121656
38	0x3e6f7005	0.23382576
39	0x3d61af67	0.055098917
40	0x3df17257	0.11789387
41	0xbd3b1902	-0.045678146
42	0xbd757610	-0.059927046
43	0x3cc7c238	0.024384603
44	0xbe5b1e47	-0.21398269
45	0xbe0a877e	-0.13528249
46	0x3d2574d8	0.040394634
47	0x3decf765	0.11570624
48	0xbec1d9d4	-0.37861502
49	0xbd66767e	-0.056265347
50	0xbf4bb987	-0.7957997
51	0xbb82eecb	-0.0039957515
52	0xbe01b0c3	-0.12665085
53	0x3e55ac42	0.20866492
54	0x3e154a77	0.14579187
55	0xbe63a130	-0.22229457
56	0x3ce8039e	0.028322037
57	0xbe97947a	-0.29605466
58	0x3c345c22	0.011008294
59	0xbd66319f	-0.056199666
60	0x3ddc8465	0.1076744
61	0x3d663e4d	0.05621176
62	0xbe291c62	-0.16514733
63	0xbe98b78c	-0.29827535
64	0x3d520249	0.05127171
65	0xbda52cb3	-0.08065166
66	0xbe6b883a	-0.23001185
67	0xbdd45d5b	-0.10369369
68	0xbe23d45d	-0.15998979
69	0xbe238bdf	-0.15971325
70	0x3c16ce96	0.009204527
71	0xbb9b57f7	-0.004740711
72	0xbdfce590	-0.12348473
73	0x3d9918cc	0.07475433
74	0xbe8a98e3	-0.27069768
75	0xbdb1520f	-0.086582296
76	0x3b329c80	0.0027253926
77	0x3d810971	0.06300629
78	0x3cb2c2f8	0.021821484
79	0x3d1359aa	0.035974182
80	0x3c396071	0.011314497
81	0xbeba328f	-0.36366698
82	0xbd897051	-0.06710876
83	0x3d4a5893	0.049400877
84	0x3c63b618	0.013898395
85	0xbd8550f8	-0.06509584
86	0xbe968aa2	-0.29402643
87	0xbdaf59fe	-0.085620865
88	0xbc0c12eb	-0.008549432
89	0xbd8d5ef9	-0.0690288
90	0x3d06962c	0.03285806
91	0xbdd6a21d	-0.104801394
92	0x3dab89e4	0.0837591
93	0xbdbc85be	-0.09205197
94	0x3dff930f	0.12479221
95	0xbd43a899	-0.04776821
96	0xbdded3b4	-0.10880223
97	0xbe1c0af9	-0.1523856
98	0xbd94fa40	-0.07274294
99	0xba6a042d	-0.0008927014
100	0xbdf73c9f	-0.120721094
101	0xbd803e58	-0.06261891
102	0x3d774348	0.0603669
103	0xbdf4268d	-0.119214155
104	0x3d9a967c	0.07548234
105	0xbd7a78d1	-0.061150376
106	0x3d649da6	0.055814408
107	0xbc310a48	-0.010805674
108	0xbd0ddf60	-0.034636855
109	0xbdc8599d	-0.097827174
110	0x3dada6fe	0.08479117
111	0x3cdd5d19	0.027021931
112	0x3d992e40	0.074795246
113	0x3d8e53a1	0.06949545
114	0x3d703309	0.05864242
115	0x3d78cc1a	0.06074152
116	0xbe8f9886	-0.28046054
117	0xbdfb1cd4	-0.12261358
118	0xbcff8755	-0.031192461
119	0xbde79ba7	-0.11308985
120	0xbe57f72f	-0.21090387
121	0xbde4861d	-0.111583926
122	0x3d160d2b	0.03663365
123	0x3c4a89c6	0.012361949
124	0xbdd9b439	-0.10630078
125	0xbd97dd16	-0.07415216
126	0xbd79c27a	-0.060976483
127	0xbdd55f9e	-0.10418628
128	0xbd93fad3	-0.07225575
129	0x3c86f08f	0.01647213
130	0x3c2a9011	0.010410325
131	0xbc5155dd	-0.012776819
132	0xbe112558	-0.14174402
133	0xbd9281c6	-0.071536586
134	0xbdf4143d	-0.11917923
135	0xba042e5e	-0.00050423096
136	0xbdf68e3c	-0.12038848
137	0x3ddd0dfe	0.107936844
138	0xbd828db3	-0.06374683
139	0xbe58dccb	-0.21177976
140	0xbdda4df4	-0.106594
141	0x3d0d309a	0.03447018
142	0x3df76b25	0.12080983
143	0xbe82b4ec	-0.25528657
144	0xbb13d945	-0.0022559923
145	0xbd4ee772	-0.050513692
146	0x3da23a9a	0.079213336
147	0x3d50625a	0.050875045
148	0xbd0b952c	-0.03407781
149	0x3de952a9	0.11392719
150	0xbe04bbfd	-0.12962337
151	0xbe27474c	-0.16335791
152	0x3d8c48ef	0.068498485
153	0xbd3ab738	-0.045584887
154	0xbe2d8aab	-0.16947429
155	0xbd7206f1	-0.05908865
156	0x3d040297	0.032229032
157	0xbc86f844	-0.016475804
158	0xbdb9c66f	-0.09071051
159	0x3d2d65e8	0.042333513
160	0x3d653340	0.05595708
161	0xbde47025	-0.11154202
162	0xbd9c19a3	-0.07622077
163	0xbdd1c7e0	-0.10243201
164	0xbdb949a6	-0.090472504
165	0xbbb555d4	-0.005533913
166	0x3d17f50b	0.037098926
167	0xbe05adbb	-0.13054554
168	0xbd52e3bf	-0.051486727
169	0xbdb4d3e5	-0.08829478
170	0x3ddd6286	0.108098075
171	0x3d3cbda4	0.046079293
172	0x3c9566ec	0.018237554
173	0xbdab6346	-0.08368544
174	0xbe50d30d	-0.2039301
175	0xbdc71bd8	-0.09722108
176	0xbe02149b	-0.12703173
177	0xbe01d7fb	-0.12680046
178	0xbbd0ae6b	-0.0063684485
179	0x3dbc193e	0.09184502
180	0x3d88fe11	0.06689084
181	0x3cded113	0.027199304
182	0xbb9135c0	-0.0044314563
183	0xbe05af32	-0.13055113
184	0xbca7e393	-0.020494258
185	0xbccd6cc1	-0.025076272
186	0xbd9a30c5	-0.07528833
187	0xbdf8f934	-0.12156907
188	0xbe36407c	-0.17798036
189	0xbccbd7f0	-0.02488324
190	0xbcb41721	-0.021983685
191	0xbda7412b	-0.08166727
192	0xbd737c06	-0.05944445
193	0xbd1df578	-0.038564175
194	0xbe023ac3	-0.12717728
195	0xbc82f25f	-0.015984712
196	0xbd553a3d	-0.052057493
197	0x3b8a321e	0.0042174
198	0xbc3e2160	-0.011604637
199	0x3d960c4b	0.073265634
200	0x3ce46130	0.027878374
201	0xbd9b0c67	-0.07570725
202	0xbd1e2074	-0.03860517
203	0xbe0baaff	-0.13639449
204	0xbd323c7a	-0.043514706
205	0x3da9a75b	0.08283874
206	0xbcdbfe44	-0.026854642
207	0x3c9fc0a7	0.019501043
208	0xbe01afce	-0.1266472
209	0xbe0c203e	-0.13684174
210	0xbd65c4b2	-0.056095786
211	0xbe27e902	-0.16397479
212	0x3c6a0661	0.014283747
213	0xbddd8c5e	-0.108177885
214	0xbdd804fe	-0.10547827
215	0xbd6376e7	-0.055533316
216	0x3ca7eae4	0.020497747
217	0x3c1bc1e0	0.009506673
218	0xbd2dbd71	-0.042416994
219	0xbda3fba9	-0.08006985
220	0xbe18403c	-0.14868253
221	0x3d47752d	0.048695732
222	0xbe1a1bb6	-0.15049633
223	0xbe1586ce	-0.14602205
224	0xbd8e5d5b	-0.069514
225	0xbe1ccfc8	-0.15313637
226	0xbdbe4aeb	-0.09291633
227	0xbe0f10b9	-0.13971223
228	0xbd695768	-0.056968123
229	0xbdacfb1c	-0.08446333
230	0xbcda90e8	-0.026680425
231	0xbb82f1e7	-0.003996122
232	0x3dbe4205	0.09289936
233	0xbd062657	-0.032751407
234	0xbd2fa418	-0.0428811
235	0xbca2be6f	-0.019866196
236	0xba32aec1	-0.00068162015
237	0x3ceb8922	0.028751913
238	0xbd839657	-0.064251594
239	0xbd9d3152	-0.07675423
240	0xbd980a5b	-0.0742385
241	0x3dcde8b6	0.10054152
242	0xbcb7465a	-0.022372413
243	0xbdc4cc22	-0.09609248
244	0xbdeb31d2	-0.11484112
245	0xbd3498eb	-0.044091146
246	0xbd7428e3	-0.059609305
247	0x3c8a12c9	0.01685466
248	0xbdb270d8	-0.087129295
249	0xbe1fb4e3	-0.15596347
250	0xbd54b03e	-0.05192589
251	0x3cd858dd	0.02640956
252	0x3c8dbf91	0.01730326
253	0x3e0ce2e5	0.13758428
254	0x3ca6a7fb	0.020343771
255	0xbd262246	-0.04056003

layer3.bias f4 [128]
0	0x3d9f330a	0.07773407
1	0xbd03feec	-0.032225534
2	0xbdddbeba	-0.10827394
3	0xbc102565	-0.008797978
4	0xbd886dde	-0.066615805
5	0xbdc1bd3f	-0.09459924
6	0xbde0360d	-0.10947809
7	0xbdcd682d	-0.100296356
8	0xbda720e4	-0.0816057
9	0x3dd21b81	0.10259152
10	0xbd6572a1	-0.05601752
11	0xbc9f10ef	-0.019417254
12	0xbd8caaa8	-0.068684876
13	0xbd78b1eb	-0.06071655
14	0xbdccb612	-0.09995665
15	0xbdb9b1b8	-0.090671
16	0xbcac9ccc	-0.02107086
17	0xbe0285ce	-0.12746355
18	0xbe0ca977	-0.1373652
19	0x3c6a4423	0.014298472
20	0xbd60b30d	-0.054858256
21	0xbdce9ea5	-0.10088853
22	0x3bf69ca8	0.007525999
23	0xbddb2af2	-0.107015505
24	0xbd0e7f2e	-0.034789257
25	0xbe03bc34	-0.12864763
26	0xbe4c672b	-0.1996123
27	0x3e1e8e81	0.15484048
28	0xbdf06ac1	-0.11739112
29	0xbe37421a	-0.1789631
30	0xbe4a2b2d	-0.19743033
31	0xbab4f072	-0.0013804568
32	0xbd7f9617	-0.062398996
33	0xbd077f6e	-0.03308051
34	0xbbf99cf3	-0.0076175868
35	0xbe3a06fa	-0.18166724
36	0xbe299578	-0.16560924
37	0x3dfc5a20	0.123218775
38	0xbe3e22ae	-0.18567917
39	0xbe11f939	-0.14255227
40	0xbe073a56	-0.13205847
41	0xbe0c5510	-0.13704324
42	0xbdcf2b57	-0.10115688
43	0xbdcecbbf	-0.10097455
44	0x3d80b68e	0.062848195
45	0xbe1843f2	-0.14869669
46	0xbd75dabd	-0.06002306
47	0xbe1b0c11	-0.15141322
48	0x3cb1e2a9	0.021714525
49	0xbe39519b	-0.18097536
50	0xbccaf71e	-0.024776038
51	0xbd642f4a	-0.05570916
52	0xbdc6832c	-0.09692988
53	0xbdeb1cfa	-0.11480136
54	0xbe11cc5e	-0.14238116
55	0xbbff8f2f	-0.0077990512
56	0xbe156f1a	-0.14593163
57	0xbda8b49d	-0.08237574
58	0xbe321adb	-0.17393057
59	0xbe1899dd	-0.14902444
60	0xbe0c4cac	-0.13701123
61	0xbca0e564	-0.019640632
62	0xbd99d5be	-0.07511471
63	0xbe460b83	-0.19340329
64	0xbd5464b8	-0.051853865
65	0xbdbee592	-0.09321131
66	0xbdbe64e5	-0.09296588
67	0xbd6c9029	-0.05775467
68	0xbd90b187	-0.07065111
69	0xbd20ab71	-0.039226
70	0xbe0d7a46	-0.13816175
71	0xbe159354	-0.14606982
72	0xbdf7ac9d	-0.1209347
73	0xbdc2d626	-0.09513502
74	0xbe1d3f92	-0.15356281
75	0xbdce0063	-0.100586675
76	0xbdf0e81d	-0.11763022
77	0xbe2ee4cf	-0.17079471
78	0xbdf71060	-0.1206367
79	0xbdeec68a	-0.11658962
80	0x3e8d3768	0.27581334
81	0x3c2bc739	0.01048451
82	0xbe06cad5	-0.13163312
83	0x3e1547d9	0.14578189
84	0xbc41b285	-0.0118223475
85	0xbe039ab3	-0.12851982
86	0xbd3f8204	-0.046754852
87	0xbe15e198	-0.14636838
88	0xbd41901f	-0.047256585
89	0x3daec2cf	0.085332505
90	0xbd253d46	-0.040341638
91	0xbdb29646	-0.08720069
92	0xbddfe7e9	-0.10932905
93	0x3d8f7095	0.07003895
94	0xbe590253	-0.21192293
95	0xbd8ed95f	-0.06975054
96	0xbe6b1ca0	-0.22960138
97	0xbda7e785	-0.08198456
98	0xbe2de9c5	-0.16983707
99	0xbda3a85e	-0.07991098
100	0xbe1071e6	-0.14105949
101	0xbe4cc752	-0.1999791
102	0xbde1f76a	-0.110335186
103	0xbe187c5b	-0.14891188
104	0xbd8963e9	-0.067085095
105	0xbe02d6b3	-0.12777214
106	0xbe038531	-0.12843777
107	0xbc850337	-0.016236885
108	0xbe180a95	-0.14847787
109	0xbc375d53	-0.011191684
110	0xbd338956	-0.043832146
111	0xbe0e03fc	-0.13868707
112	0xbdedb0df	-0.11606001
113	0xbd42f05c	-0.047592506
114	0xbe127b74	-0.14304906
115	0xbdc77e4e	-0.097408876
116	0xbd997594	-0.074931294
117	0xbd2998af	-0.041405376
118	0xbd58c4cf	-0.052922066
119	0xbe06e9f0	-0.13175178
120	0xbe163995	-0.14670403
121	0xbd9b4dae	-0.075831756
122	0x3ac95283	0.0015359673
123	0xbd308467	-0.04309502
124	0xbe02c2f5	-0.12769683
125	0xbdd0755f	-0.10178637
126	0xbc9e6c5a	-0.019338775
127	0xbe0a3d9f	-0.13500069

layer4.weight f4 [22, 128]
0	0xbe4a8332	-0.1977661
1	0x3d4dd656	0.050253235
2	0x3c5be203	0.013420585
3	0x3d7fd13d	0.062455405
4	0x3d8ce303	0.068792365
5	0x3cf5752b	0.029963097
6	0x3be4cec6	0.006982657
7	0xbc36c95c	-0.011156406
8	0xbd8a8be9	-0.06764967
9	0x3e22575e	0.1585364
10	0x3d754358	0.059878677
11	0x3c19eebd	0.009395299
12	0x3dc67c69	0.09691698
13	0x3dad5bd2	0.08464779
14	0xbc9fbc19	-0.019498872
15	0xbda0a55f	-0.07844042
16	0x3c85878c	0.016299985
17	0xbd85b2e4	-0.06528261
18	0xbb9f63f6	-0.004864211
19	0xbc44b187	-0.012005216
20	0xbd0fe6c5	-0.03513219
21	0x3da5e646	0.08100562
22	0x3ceeee2e	0.029166307
23	0xbd836432	-0.06415595
24	0x3bda2fe1	0.0066585396
25	0xbc535118	-0.012897752
26	0xbd591432	-0.052997775
27	0x3c0095c2	0.007848205
28	0x3d5b7179	0.053575013
29	0x3cd58865	0.026066015
30	0xbd733d87	-0.05938485
31	0xbe0aacbd	-0.13542457
32	0x3e25bb1a	0.16184655
33	0x3d80fdb2	0.062983885
34	0xbd454dd1	-0.048169915
35	0x3d91e703	0.0712414
36	0xbe68aae5	-0.22721441
37	0xba8e3bb2	-0.0010851531
38	0xbcf973b8	-0.030450687
39	0xbdab1236	-0.08353083
40	0x3d6a9ead	0.05728023
41	0xbd77c7df	-0.060493346
42	0x3af71eb2	0.0018853752
43	0x3b0f11f8	0.0021830779
44	0xbdbd813b	-0.092531644
45	0x3d914451	0.070931084
46	0xbdac7a44	-0.08421758
47	0x3ce9f0bf	0.02855718
48	0x3bcc4ece	0.00623498
49	0x3c9bd2b2	0.019021366
50	0x3b9431b3	0.004522526
51	0x3d1afb62	0.037837394
52	0xbed32e21	-0.4124613
53	0xbc0c2040	-0.008552611
54	0xbcf51cca	-0.029920954
55	0xbd95852a	-0.0730079
56	0x3d018983	0.031625282
57	0x3dca38f1	0.09874142
58	0xbdcf30d0	-0.10116732
59	0x3b57ef2a	0.003294895
60	0xbd284c00	-0.041088104
61	0x3d823702	0.06358148
62	0x3d81f596	0.0634567
63	0x3c6bc42a	0.014390031
64	0xbc7fcd4c	-0.015612911
65	0xba93a81a	-0.0011265308
66	0xbc6fa70e	-0.014627231
67	0xbcb15cd1	-0.021650704
68	0xbd3e3b7b	-0.046443444
69	0x3c41c1f7	0.01182603
70	0x3d7edb79	0.062221024
71	0x3d4784b7	0.04871055
72	0x3c58c9a2	0.013231667
73	0xbc9df51c	-0.019281916
74	0xbd155d0f	-0.0364657
75	0xbdef22aa	-0.116765335
76	0xbd198fb9	-0.03749058
77	0x3ceb2187	0.02870251
78	0x3d73f6e9	0.059561644
79	0x3d833392	0.06406321
80	0x3bbf5329	0.005838771
81	0xbcc8e7d3	-0.024524605
82	0x3d35a265	0.044344325
83	0x3bb2b78f	0.005454011
84	0xbd65ae5b	-0.05607448
85	0x3d217700	0.039420128
86	0x3d785034	0.060623363
87	0xbe01f2c2	-0.12690261
88	0xbccffe88	-0.025389925
89	0x3da79fde	0.08184789
90	0xbcf1d5c8	-0.029520884
91	0x3d0ed273	0.03486867
92	0x3dccbc55	0.09996859
93	0x3cd324c0	0.02577436
94	0xbd0e459a	-0.034734346
95	0xbddb3ac2	-0.107045665
96	0x3ce9a8b2	0.028522823
97	0xbc92b920	-0.01791054
98	0x3b87a5e5	0.004139649
99	0xbc943936	-0.018093687
100	0xbcf21dc4	-0.029555209
101	0x3d892037	0.066955976
102	0xbc35e172	-0.011101114
103	0x3db3d350	0.08780539
104	0xbe40624f	-0.18787502
105	0xbd82765b	-0.06370231
106	0x3d567e20	0.052366376
107	0x3db26c80	0.08712101
108	0x3afdde63	0.0019368645
109	0xbc812b36	-0.015767675
110	0x3ce5c506	0.02804805
111	0xbdc51ac7	-0.09624248
112	0xbc6a1fbe	-0.0142897945
113	0x3d145e6a	0.036222853
114	0xbd09158e	-0.03346782
115	0xbc00a9d5	-0.007852991
116	0x3e374fbf	0.17901514
117	0x3de4786b	0.111557804
118	0xbd731f44	-0.05935599
119	0xbdd50a57	-0.10402363
120	0x3d985e4a	0.07439859
121	0x3d140c6e	0.036144666
122	0x3cf13393	0.029443538
123	0x3dd24f38	0.10269016
124	0xba181e1a	-0.00058028253
125	0x3dc155a4	0.09440163
126	0x3d7a553c	0.061116442
127	0xbe07de88	-0.13268483
128	0xbce1dc3e	-0.02757084
129	0xbd08c16d	-0.03338759
130	0xbd4afac3	-0.04955555
131	0x3c4cc9d7	0.012499294
132	0x3d90d891	0.07072557
133	0x3d01a426	0.031650685
134	0xbdba5041	-0.090973385
135	0x3cf98055	0.030456701
136	0xbd26e1d4	-0.04074271
137	0xbca6affb	-0.020347586
138	0xbddf1065	-0.10891799
139	0x3c994c46	0.018713128
140	0x3e1e76b7	0.15474974
141	0xbdf39e78	-0.1189546
142	0x3da22423	0.07917049
143	0x3cc0a2be	0.023515102
144	0x3b441e63	0.0029925338
145	0x3de8ac52	0.113609925
146	0x3d6410f1	0.05568022
147	0x3d68385d	0.056694377
148	0x3d5539bf	0.052057024
149	0x3dbe5a9e	0.092946276
150	0xbd92a427	-0.07160216
151	0x3e2fa409	0.17152418
152	0x3d946f13	0.07247748
153	0x3c47f514	0.012204427
154	0x3e9ae3f2	0.30252033
155	0xbe3011fe	-0.17194363
156	0xbe3070bc	-0.17230505
157	0xbcd32d49	-0.02577843
158	0xbd25a32a	-0.04043881
159	0x3d63f87a	0.055656888
160	0x3d626d9c	0.055280313
161	0xbd3da9e3	-0.046304595
162	0x3c08b01a	0.008342767
163	0xbde1b9da	-0.110217765
164	0x3e041dd6	0.12902007
165	0xbd129631	-0.035787765
166	0xbbe214bd	-0.006899445
167	0xbcfd1363	-0.030893033
168	0x3dec3f77	0.115355425
169	0xbd06d6b9	-0.03291962
170	0xbca341fd	-0.019928927
171	0xbe11d494	-0.14241248
172	0xbd27c9cb	-0.04096393
173	0x3e6f6997	0.23380123
174	0x3e08e54f	0.13368724
175	0x3bcb2f32	0.0062006945
176	0xbb33ee2f	-0.00274552
177	0x3d054f2c	0.032546207
178	0xbcfb89af	-0.030705301
179	0xbd23fa17	-0.040033426
180	0x3e558595	0.20851739
181	0xbd4644b1	-0.048405353
182	0x3dbd8607	0.09254079
183	0xbb66e310	-0.0035230555
184	0x3d93f7a3	0.07224967
185	0x3daba72e	0.08381496
186	0x3d2eef6e	0.042708807
187	0x3d2608dc	0.040535793
188	0x3ded19a5	0.11577157
189	0xbd08615d	-0.033295978
190	0x3d4d746c	0.050159857
191	0xbc7b8c69	-0.015353301
192	0x3d10d950	0.035363495
193	0xbd369034	-0.044571117
194	0x3c37efce	0.0112266075
195	0x3ba4fb11	0.0050348123
196	0x3e01c4f0	0.12672782
197	0x3d4b1d43	0.049588453
198	0xbd93d79d	-0.07218859
199	0x3c860466	0.01635952
200	0xbe508ab5	-0.20365413
201	0xbd6adccb	-0.05733947
202	0xbb1ad87b	-0.0023627568
203	0xbc3eb020	-0.011638671
204	0x3a8de5dd	0.0010825951
205	0xbd11d2cc	-0.035601422
206	0x3ca511fc	0.020150177
207	0xbde95dfd	-0.1139488
208	0xbd076e06	-0.03306391
209	0xbe071fe3	-0.13195758
210	0x3e1f3ed0	0.15551305
211	0xbd8293c3	-0.063758396
212	0xbcdaf71a	-0.026729155
213	0xbd0e19fe	-0.034692757
214	0xbd683a19	-0.05669603
215	0xbc33e3ce	-0.010979606
216	0x3dbabff7	0.09118646
217	0x3d513aa0	0.0510813
218	0x3984f0e9	0.00025356494
219	0x3d6eefb5	0.05833407
220	0xbe08daf3	-0.13364772
221	0xbc91a0c9	-0.017776864
222	0x3d9da8c3	0.07698204
223	0xbd3f4081	-0.046692375
224	0xbd5d8885	-0.054085273
225	0xbc839dd1	-0.016066464
226	0xbe096781	-0.1341839
227	0xbd3e5108	-0.046463996
228	0x3dc55a3b	0.09636351
229	0xb9cd9e69	-0.00039218672
230	0x3d1bdc2d	0.038051773
231	0x3dfae079	0.12249846
232	0x3dfaf817	0.12254351
233	0xbd9d75a6	-0.07688455
234	0xbd4b3a26	-0.049616
235	0xbdcf8f86	-0.10134797
236	0x3c4fee19	0.012691044
237	0xbd5ce9ec	-0.053934023
238	0x3bd57c89	0.00651509
239	0xb800c34d	-3.0699466e-05
240	0xbbf582c2	-0.007492394
241	0xbc92e825	-0.01793296
242	0x3c06dac5	0.00823087
243	0xbd3f7a49	-0.04674748
244	0xbdf6e38b	-0.12055119
245	0x3c12458f	0.008927717
246	0x3db5b762	0.08872868
247	0x3d419781	0.047263626
248	0x3e1f89ef	0.15579961
249	0xbd6aa79d	-0.057288755
250	0x3b841217	0.004030477
251	0xbd184470	-0.037174642
252	0x3d16a16f	0.03677505
253	0x3daea63f	0.08527803
254	0xbdfd0709	-0.123548575
255	0x3d18cfca	0.037307538

layer4.bias f4 [22]
0	0x3c826e4a	0.01592173
1	0xbb1d67a0	-0.0024018064
2	0x3db520ff	0.08844184
3	0x3d336b3d	0.043803442
4	0x3c730db0	0.014834806
5	0x3d4992f9	0.04921243
6	0x3c2d297e	0.010568975
7	0x3d68dfc9	0.056854043
8	0xbc850028	-0.016235426
9	0x3d1129c3	0.035440218
10	0x3cf41028	0.02979286
11	0x3d093edb	0.03350721
12	0x3e2fa472	0.17152575
13	0x3dac1450	0.08402312
14	0x3cce01f0	0.025147408
15	0x3dcd5a0d	0.100269414
16	0x3c895eb0	0.016768783
17	0x3de06d9c	0.10958406
18	0xbd18e44f	-0.037327107
19	0x3d8664ca	0.06562193
20	0x3d584998	0.05280456
21	0x3d815d1e	0.06316589

exp_avg f4 [32, 22]
0	0xa90408b8	-2.931745e-14
1	0xab17590e	-5.3769565e-13
2	0xaa1b3d3f	-1.3788015e-13
3	0xa9f79c4f	-1.0996119e-13
4	0xa95a23ce	-4.843678e-14
5	0xaa2fc295	-1.5610632e-13
6	0xaa075dbf	-1.2022933e-13
7	0xa9f7b031	-1.0999568e-13
8	0xa9f21df9	-1.0752158e-13
9	0xa9cf8bdf	-9.2169104e-14
10	0xa72ef5aa	-2.4280526e-15
11	0xa8ab275c	-1.9001883e-14
12	0xaa9b3d3f	-2.757603e-13
13	0xaa779c4f	-2.1992237e-13
14	0xa9da23ce	-9.687356e-14
15	0xaaafc295	-3.1221263e-13
16	0xaa875dbf	-2.4045867e-13
17	0xaa77b031	-2.1999136e-13
18	0xaa721df9	-2.1504317e-13
19	0xaa4f8bdf	-1.8433821e-13
20	0xa7aef5aa	-4.856105e-15
21	0xa92b275c	-3.8003766e-14
22	0x346d5d78	2.2106349e-07
23	0x347b9264	2.3429453e-07
24	0xb33f2899	-4.4507576e-08
25	0xb48373e8	-2.4484984e-07
26	0xb3c3a771	-9.1108525e-08
27	0xb4943d77	-2.761187e-07
28	0xb3e273b0	-1.05449885e-07
29	0xb4a9e418	-3.1644663e-07
30	0x33a7128d	7.779918e-08
31	0x347f5f47	2.3783387e-07
32	0xb3b7b6f4	-8.5548805e-08
33	0x33ce4331	9.6048446e-08
34	0xb3bf2899	-8.901515e-08
35	0xb50373e8	-4.896997e-07
36	0xb443a771	-1.8221705e-07
37	0xb5143d77	-5.522374e-07
38	0xb46273b0	-2.1089977e-07
39	0xb529e418	-6.3289326e-07
40	0x3427128d	1.5559836e-07
41	0x34ff5f47	4.7566775e-07
42	0xb437b6f4	-1.7109761e-07
43	0x344e4331	1.9209689e-07
44	0x3800f9d0	3.0750234e-05
45	0x372f1303	1.0435239e-05
46	0x365cb481	3.2887622e-06
47	0x37c73ccd	2.3750961e-05
48	0x377f3c5c	1.5213238e-05
49	0x3780f34e	1.5372087e-05
50	0x37c4ddaa	2.3468241e-05
51	0x381023e2	3.4365694e-05
52	0x3784f8a2	1.5851405e-05
53	0x373985b3	1.1057989e-05
54	0x37c80dec	2.384834e-05
55	0x36faab1c	7.4705003e-06
56	0x36dcb481	6.5775243e-06
57	0x38473ccd	4.7501922e-05
58	0x37ff3c5c	3.0426476e-05
59	0x3800f34e	3.0744173e-05
60	0x3844ddaa	4.6936482e-05
61	0x389023e2	6.873139e-05
62	0x3804f8a2	3.170281e-05
63	0x37b985b3	2.2115977e-05
64	0x38480dec	4.769668e-05
65	0x377aab1c	1.4941001e-05
66	0xb8861bb8	-6.394781e-05
67	0xb8c8f680	-9.5826574e-05
68	0xb89d9d49	-7.51564e-05
69	0xb88c8ffa	-6.702538e-05
70	0xb8313dde	-4.2257707e-05
71	0xb8b30e2c	-8.538025e-05
72	0xb885676e	-6.3611995e-05
73	0xb81a7b7e	-3.6831472e-05
74	0xb8acce6c	-8.240048e-05
75	0xb88dcd13	-6.761602e-05
76	0xb8a48c0e	-7.8462166e-05
77	0xb86020cd	-5.343631e-05
78	0xb91d9d49	-0.0001503128
79	0xb90c8ffa	-0.00013405076
80	0xb8b13dde	-8.451541e-05
81	0xb9330e2c	-0.0001707605
82	0xb905676e	-0.00012722399
83	0xb89a7b7e	-7.3662944e-05
84	0xb92cce6c	-0.00016480096
85	0xb90dcd13	-0.00013523204
86	0xb9248c0e	-0.00015692433
87	0xb8e020cd	-0.00010687262
88	0x360dc82d	2.1127155e-06
89	0xb5eb4480	-1.75288e-06
90	0x35a22359	1.2080228e-06
91	0x35d8d217	1.6154398e-06
92	0x34c9fdac	3.7623738e-07
93	0x35c77919	1.48619e-06
94	0x356a4b84	8.728168e-07
95	0x35c70c6b	1.483027e-06
96	0x35b2732b	1.3295552e-06
97	0x358a0464	1.0283079e-06
98	0x35a9b7d9	1.2644988e-06
99	0x33c89024	9.339445e-08
100	0x36222359	2.4160456e-06
101	0x3658d217	3.2308797e-06
102	0x3549fdac	7.5247476e-07
103	0x36477919	2.97238e-06
104	0x35ea4b84	1.7456337e-06
105	0x36470c6b	2.966054e-06
106	0x3632732b	2.6591104e-06
107	0x360a0464	2.0566158e-06
108	0x3629b7d9	2.5289976e-06
109	0x34489024	1.867889e-07
110	0x3714601e	8.843866e-06
111	0x385bab52	5.2373223e-05
112	0x37821508	1.5507001e-05
113	0x38830a38	6.24847e-05
114	0x37e8f4da	2.7770573e-05
115	0x37ee6826	2.8420309e-05
116	0x38403d34	4.5833367e-05
117	0xb6f6808c	-7.346336e-06
118	0x38433ee8	4.655021e-05
119	0x385f4b52	5.323749e-05
120	0x3861a621	5.37989e-05
121	0x380b4d7c	3.3212345e-05
122	0x38021508	3.1014002e-05
123	0x39030a38	0.0001249694
124	0x3868f4da	5.5541146e-05
125	0x386e6826	5.6840618e-05
126	0x38c03d34	9.1666734e-05
127	0xb776808c	-1.4692672e-05
128	0x38c33ee8	9.310042e-05
129	0x38df4b52	0.00010647498
130	0x38e1a621	0.0001075978
131	0x388b4d7c	6.642469e-05
132	0x3555c67c	7.9637516e-07
133	0x365a3c68	3.2519692e-06
134	0x3554f112	7.932696e-07
135	0x3502e3a8	4.876006e-07
136	0xb60d0a50	-2.101664e-06
137	0x362b8f94	2.556456e-06
138	0xb5ea9208	-1.7476859e-06
139	0xb2d21258	-2.445556e-08
140	0x36597b94	3.2407452e-06
141	0xb600f94b	-1.9218594e-06
142	0xb5bb30ee	-1.3946826e-06
143	0xb6fb28d6	-7.485137e-06
144	0x35d4f112	1.5865392e-06
145	0x3582e3a8	9.752011e-07
146	0xb68d0a50	-4.203328e-06
147	0x36ab8f94	5.112912e-06
148	0xb66a9208	-3.4953719e-06
149	0xb3521258	-4.891112e-08
150	0x36d97b94	6.4814903e-06
151	0xb680f94b	-3.843719e-06
152	0xb63b30ee	-2.7893652e-06
153	0xb77b28d6	-1.4970274e-05
154	0x90eabb40	-9.258523e-29
155	0x921e1ee4	-4.9894085e-28
156	0x118260b4	2.0569981e-28
157	0x954fe48b	-4.1983606e-26
158	0x10ee6b0c	9.403938e-29
159	0x9599c70d	-6.2110255e-26
160	0x15878df0	5.4750004e-26
161	0x1571a000	4.879578e-26
162	0x90de799d	-8.7750935e-29
163	0x92e2660c	-1.4287762e-27
164	0x1025e05f	3.2713362e-29
165	0x100ce60c	2.7787353e-29
166	0x120260b4	4.1139963e-28
167	0x95cfe48b	-8.396721e-26
168	0x116e6b0c	1.8807876e-28
169	0x9619c70d	-1.2422051e-25
170	0x16078df0	1.0950001e-25
171	0x15f1a000	9.759156e-26
172	0x915e799d	-1.7550187e-28
173	0x9362660c	-2.8575523e-27
174	0x10a5e05f	6.5426723e-29
175	0x108ce60c	5.5574707e-29
176	0x360a15d0	2.05763e-06
177	0x392db5f9	0.00016566356
178	0xb8451de7	-4.699631e-05
179	0xb8146702	-3.5381883e-05
180	0xb826310a	-3.9623155e-05
181	0xb8b3aa3b	-8.567093e-05
182	0xb892f8d3	-7.0081696e-05
183	0xb8fb3f7d	-0.00011980438
184	0x3515f1a2	5.585845e-07
185	0xb260a6c0	-1.3076431e-08
186	0xb854b24a	-5.0710783e-05
187	0xb6f9f242	-7.448981e-06
188	0xb8c51de7	-9.399262e-05
189	0xb8946702	-7.076377e-05
190	0xb8a6310a	-7.924631e-05
191	0xb933aa3b	-0.00017134186
192	0xb912f8d3	-0.00014016339
193	0xb97b3f7d	-0.00023960877
194	0x3595f1a2	1.117169e-06
195	0xb2e0a6c0	-2.6152861e-08
196	0xb8d4b24a	-0.00010142157
197	0xb779f242	-1.4897962e-05
198	0x821dd7de	-1.1596489e-37
199	0x02157710	1.098096e-37
200	0x821d114e	-1.1539505e-37
201	0x0211ffbc	1.072631e-37
202	0x821cef11	-1.1529679e-37
203	0x02148908	1.0912649e-37
204	0x0213ccf3	1.0858672e-37
205	0x021d49ad	1.1555682e-37
206	0x821f5ad8	-1.1707546e-37
207	0x021d28f7	1.1546295e-37
208	0x021be2b9	1.1452668e-37
209	0x0212f558	1.0796796e-37
210	0x82163ffa	-1.103862e-37
211	0x021b2dfe	1.1400801e-37
212	0x82161f38	-1.1029219e-37
213	0x021de01f	1.1598858e-37
214	0x021d1835	1.1541485e-37
215	0x021675e6	1.1054095e-37
216	0x82187019	-1.1199367e-37
217	0x0216569b	1.1045114e-37
218	0x02151e87	1.0955552e-37
219	0x021c330e	1.1475722e-37
220	0x3252c3f1	1.2268161e-08
221	0x3302ce0c	3.0455382e-08
222	0x31f3a420	7.0908897e-09
223	0x324123a0	1.1242179e-08
224	0xb1324a99	-2.5944813e-09
225	0x320b5b24	8.111588e-09
226	0x3086801e	9.786196e-10
227	0x2e8922c6	6.236216e-11
228	0x328c9cdd	1.6369478e-08
229	0x320136a7	7.521215e-09
230	0x32008c0f	7.482426e-09
231	0xb0711e28	-8.7718144e-10
232	0x3273a420	1.4181779e-08
233	0x32c123a0	2.2484357e-08
234	0xb1b24a99	-5.1889626e-09
235	0x328b5b24	1.6223176e-08
236	0x3106801e	1.9572393e-09
237	0x2f0922c6	1.2472431e-10
238	0x330c9cdd	3.2738956e-08
239	0x328136a7	1.504243e-08
240	0x32808c0f	1.4964852e-08
241	0xb0f11e28	-1.7543629e-09
242	0x3815aed6	3.5687197e-05
243	0xb961d554	-0.00021537143
244	0x3753ac5e	1.2616712e-05
245	0x3466f240	2.1508549e-07
246	0x37cc7eb0	2.4377689e-05
247	0x3814ea97	3.550443e-05
248	0x380a5e50	3.29896e-05
249	0x38ddfdb2	0.000105853556
250	0xb80aadfc	-3.30638e-05
251	0xb7f48db6	-2.9153056e-05
252	0x36a06594	4.780197e-06
253	0xb732efae	-1.0665432e-05
254	0x37d3ac5e	2.5233425e-05
255	0x34e6f240	4.3017099e-07

exp_avg_sq f4 [32, 22]
0	0x30063a0d	4.883141e-10
1	0x30cf3b9c	1.5078174e-09
2	0x300ccf9b	5.122673e-10
3	0x3039427e	6.73971e-10
4	0x2fde8698	4.04772e-10
5	0x2eef7769	1.0889673e-10
6	0x301b9272	5.6596783e-10
7	0x2fcb7697	3.7009748e-10
8	0x2fa8fe9e	3.0739938e-10
9	0x2fd62a1b	3.895629e-10
10	0x300a4770	5.0305626e-10
11	0x2fff3815	4.6424078e-10
12	0x310ccf9b	2.0490691e-09
13	0x3139427e	2.695884e-09
14	0x30de8698	1.619088e-09
15	0x2fef7769	4.3558693e-10
16	0x311b9272	2.2638713e-09
17	0x30cb7697	1.4803899e-09
18	0x30a8fe9e	1.2295975e-09
19	0x30d62a1b	1.5582516e-09
20	0x310a4770	2.012225e-09
21	0x30ff3815	1.8569631e-09
22	0x315687dc	3.1218326e-09
23	0x3142c807	2.8344418e-09
24	0x311c7455	2.2767115e-09
25	0x30e647d9	1.6755123e-09
26	0x30385209	6.705539e-10
27	0x31420558	2.8233753e-09
28	0x306717bc	8.407104e-10
29	0x310a9460	2.0165984e-09
30	0x313bc833	2.7325882e-09
31	0x303fceaa	6.977908e-10
32	0x312ed590	2.5441729e-09
33	0x3155ae34	3.1094602e-09
34	0x321c7455	9.106846e-09
35	0x31e647d9	6.702049e-09
36	0x31385209	2.6822156e-09
37	0x32420558	1.1293501e-08
38	0x316717bc	3.3628416e-09
39	0x320a9460	8.066394e-09
40	0x323bc833	1.0930353e-08
41	0x313fceaa	2.7911633e-09
42	0x322ed590	1.01766915e-08
43	0x3255ae34	1.2437841e-08
44	0x31f3d034	7.0959008e-09
45	0x32854886	1.5516218e-08
46	0x318d5317	4.1130863e-09
47	0x3252643f	1.2246402e-08
48	0x318ed813	4.1573087e-09
49	0x32b820c7	2.1435325e-08
50	0x3293ea94	1.7219726e-08
51	0x327ed806	1.4833864e-08
52	0x31a2464c	4.7228124e-09
53	0x316e9e25	3.4723453e-09
54	0x31a2d252	4.738731e-09
55	0x3190d7c0	4.2154795e-09
56	0x328d5317	1.6452345e-08
57	0x3352643f	4.898561e-08
58	0x328ed813	1.6629235e-08
59	0x33b820c7	8.57413e-08
60	0x3393ea94	6.8878904e-08
61	0x337ed806	5.9335456e-08
62	0x32a2464c	1.889125e-08
63	0x326e9e25	1.3889381e-08
64	0x32a2d252	1.8954925e-08
65	0x3290d7c0	1.6861918e-08
66	0x330c8cc7	3.2724326e-08
67	0x33ea0ccc	1.0898802e-07
68	0x32c2c6c0	2.2674953e-08
69	0x32a33bd7	1.900291e-08
70	0x329e11ff	1.8401805e-08
71	0x32b609e2	2.1192083e-08
72	0x32ab2517	1.9923887e-08
73	0x32b9abc9	2.1614953e-08
74	0x32aebc4d	2.0341895e-08
75	0x32abe372	2.001045e-08
76	0x32bd1817	2.201345e-08
77	0x32b96d0c	2.1586423e-08
78	0x33c2c6c0	9.0699814e-08
79	0x33a33bd7	7.601164e-08
80	0x339e11ff	7.360722e-08
81	0x33b609e2	8.476833e-08
82	0x33ab2517	7.9695546e-08
83	0x33b9abc9	8.645981e-08
84	0x33aebc4d	8.136758e-08
85	0x33abe372	8.00418e-08
86	0x33bd1817	8.80538e-08
87	0x33b96d0c	8.634569e-08
88	0x314d6329	2.9887792e-09
89	0x31559e7c	3.1085667e-09
90	0x307c6598	9.182144e-10
91	0x30e46b6b	1.6619713e-09
92	0x2f06285a	1.2201565e-10
93	0x30bd6acb	1.3781912e-09
94	0x300f5b4b	5.215283e-10
95	0x30bfc8f4	1.3954193e-09
96	0x30991721	1.1138789e-09
97	0x303fe8fa	6.9816475e-10
98	0x308efd44	1.0403842e-09
99	0x2e9a913e	7.0289094e-11
100	0x317c6598	3.6728576e-09
101	0x31e46b6b	6.6478854e-09
102	0x3006285a	4.880626e-10
103	0x31bd6acb	5.512765e-09
104	0x310f5b4b	2.0861133e-09
105	0x31bfc8f4	5.5816773e-09
106	0x31991721	4.4555155e-09
107	0x313fe8fa	2.792659e-09
108	0x318efd44	4.161537e-09
109	0x2f9a913e	2.8115638e-10
110	0x32f1761d	2.8109804e-08
111	0x33a9ce56	7.907208e-08
112	0x328b6743	1.6228688e-08
113	0x328c08ea	1.6302199e-08
114	0x3284ef60	1.5475678e-08
115	0x328fed28	1.6755237e-08
116	0x3291cb4f	1.6972676e-08
117	0x329d36b5	1.8302083e-08
118	0x32af49a4	2.040617e-08
119	0x32957481	1.7398863e-08
120	0x329cd052	1.8255523e-08
121	0x32a4d8ac	1.9190644e-08
122	0x338b6743	6.491475e-08
123	0x338c08ea	6.5208795e-08
124	0x3384ef60	6.190271e-08
125	0x338fed28	6.702095e-08
126	0x3391cb4f	6.78907e-08
127	0x339d36b5	7.3208334e-08
128	0x33af49a4	8.162468e-08
129	0x33957481	6.959545e-08
130	0x339cd052	7.302209e-08
131	0x33a4d8ac	7.6762575e-08
132	0x313d4306	2.7541218e-09
133	0x31e3f3ed	6.6343007e-09
134	0x3134e31c	2.6322544e-09
135	0x3179391f	3.6266739e-09
136	0x313b4326	2.725025e-09
137	0x312f0634	2.5469378e-09
138	0x31023ed0	1.8953195e-09
139	0x313ce70a	2.7488931e-09
140	0x31242d95	2.3891051e-09
141	0x31091cf0	1.9952573e-09
142	0x31080482	1.9793167e-09
143	0x3121c6ad	2.3541518e-09
144	0x3234e31c	1.0529018e-08
145	0x3279391f	1.4506695e-08
146	0x323b4326	1.09001e-08
147	0x322f0634	1.0187751e-08
148	0x32023ed0	7.581278e-09
149	0x323ce70a	1.09955725e-08
150	0x32242d95	9.5564205e-09
151	0x32091cf0	7.981029e-09
152	0x32080482	7.917267e-09
153	0x3221c6ad	9.416607e-09
154	0x2f2dac46	1.5795462e-10
155	0x2f99f7c0	2.8006575e-10
156	0x2ec8426d	9.1067466e-11
157	0x3301d885	3.0232076e-08
158	0x2f1d4ce9	1.4306391e-10
159	0x338ddb41	6.605706e-08
160	0x335c7500	5.1329152e-08
161	0x332f4bfa	4.0814463e-08
162	0x2eefcfe1	1.09053884e-10
163	0x2f4c4ba2	1.8580562e-10
164	0x2fc51bdf	3.5853895e-10
165	0x2ed686b3	9.755521e-11
166	0x2fc8426d	3.6426986e-10
167	0x3401d885	1.209283e-07
168	0x301d4ce9	5.7225563e-10
169	0x348ddb41	2.6422825e-07
170	0x345c7500	2.0531661e-07
171	0x342f4bfa	1.6325785e-07
172	0x2fefcfe1	4.3621554e-10
173	0x304c4ba2	7.432225e-10
174	0x30c51bdf	1.4341558e-09
175	0x2fd686b3	3.9022083e-10
176	0x3381719a	6.0276946e-08
177	0x34590a94	2.0213548e-07
178	0x3319e942	3.5835235e-08
179	0x3346f4ea	4.6323215e-08
180	0x33556e71	4.9693373e-08
181	0x338715fb	6.2904256e-08
182	0x33448c7a	4.576257e-08
183	0x337287cb	5.646852e-08
184	0x333933d7	4.3120817e-08
185	0x332c7af4	4.0158696e-08
186	0x332d03e8	4.0283254e-08
187	0x3319559e	3.5700957e-08
188	0x3419e942	1.4334094e-07
189	0x3446f4ea	1.8529286e-07
190	0x34556e71	1.9877349e-07
191	0x348715fb	2.5161702e-07
192	0x34448c7a	1.8305028e-07
193	0x347287cb	2.2587407e-07
194	0x343933d7	1.7248327e-07
195	0x342c7af4	1.6063478e-07
196	0x342d03e8	1.6113302e-07
197	0x3419559e	1.4280383e-07
198	0x2f536a2f	1.9228062e-10
199	0x2f2a7175	1.5501718e-10
200	0x2e2e8879	3.968423e-11
201	0x2e6e03c1	5.411827e-11
202	0x2f2ef789	1.591315e-10
203	0x2d4a9904	1.1516347e-11
204	0x2f8cada3	2.5589228e-10
205	0x2bd39379	1.5033384e-12
206	0x2c5aa410	3.1070736e-12
207	0x2d426a90	1.1051285e-11
208	0x2c88842d	3.880027e-12
209	0x2d5cf14e	1.25591326e-11
210	0x2f2e8879	1.5873693e-10
211	0x2f6e03c1	2.1647308e-10
212	0x302ef789	6.36526e-10
213	0x2e4a9904	4.6065388e-11
214	0x308cada3	1.0235691e-09
215	0x2cd39379	6.0133534e-12
216	0x2d5aa410	1.24282945e-11
217	0x2e426a90	4.420514e-11
218	0x2d88842d	1.5520108e-11
219	0x2e5cf14e	5.023653e-11
220	0x2e29ad6d	3.8580184e-11
221	0x2f8e49e7	2.588216e-10
222	0x2da0e8a4	1.8293207e-11
223	0x302596b1	6.0240796e-10
224	0x2d451be3	1.1204346e-11
225	0x2d92e1a2	1.669848e-11
226	0x2f3e7897	1.7323241e-10
227	0x2d881978	1.547272e-11
228	0x2dd687ab	2.4389232e-11
229	0x2d844d34	1.5040948e-11
230	0x2f0abba8	1.2617696e-10
231	0x2e1f14fe	3.617106e-11
232	0x2ea0e8a4	7.317283e-11
233	0x312596b1	2.4096318e-09
234	0x2e451be3	4.4817382e-11
235	0x2e92e1a2	6.679392e-11
236	0x303e7897	6.9292966e-10
237	0x2e881978	6.189088e-11
238	0x2ed687ab	9.755693e-11
239	0x2e844d34	6.016379e-11
240	0x300abba8	5.0470783e-10
241	0x2f1f14fe	1.4468424e-10
242	0x33ac913b	8.0357914e-08
243	0x34832eb2	2.4434627e-07
244	0x336a2e66	5.452457e-08
245	0x33597454	5.063005e-08
246	0x337ff3cf	5.9593557e-08
247	0x337ad231	5.839883e-08
248	0x337a3ac8	5.8261122e-08
249	0x33848706	6.1712896e-08
250	0x33504130	4.848806e-08
251	0x335ff745	5.2146124e-08
252	0x33805eb0	5.977688e-08
253	0x33521be6	4.891981e-08
254	0x346a2e66	2.1809828e-07
255	0x34597454	2.025202e-07

exp_avg f4 [32]
0	0x2b80ab1e	9.142442e-13
1	0x35c1b7eb	1.4433148e-06
2	0x399e37ba	0.00030177628
3	0xba83b78d	-0.0010049209
4	0x37033ced	7.822394e-06
5	0x39d36c78	0.00040325872
6	0x3828c9ce	4.0242267e-05
7	0x93d4c8db	-5.3714383e-27
8	0xba646994	-0.0008713242
9	0x021d02f0	1.1535381e-37
10	0xb402853f	-1.2155668e-07
11	0x39001a44	0.00012216816
12	0x39387b34	0.00017593504
13	0x38f039bb	0.00011454845
14	0x07a5d300	2.4950455e-34
15	0x237c8b57	1.3690454e-17
16	0x398e1bec	0.00027105154
17	0x39e2f69f	0.00043289826
18	0x38abce9c	8.1923994e-05
19	0xb88a1445	-6.584128e-05
20	0xb78a359c	-1.6475846e-05
21	0x37e382ba	2.7121383e-05
22	0x393579a4	0.0001730682
23	0xba4e24e2	-0.00078637723
24	0x392ead24	0.00016658433
25	0x39a19cd4	0.0003082516
26	0x38427584	4.636265e-05
27	0xb9d11b1b	-0.00039883782
28	0xb93cfbea	-0.00018022922
29	0xb893f782	-7.055608e-05
30	0x39dc147e	0.00041976938
31	0xa2f2dd7e	-6.5828745e-18

exp_avg_sq f4 [32]
0	0x32bd7406	2.2055257e-08
1	0x340f4d90	1.334613e-07
2	0x354f7d39	7.729573e-07
3	0x36970869	4.5011298e-06
4	0x33261464	3.8668432e-08
5	0x3676dca7	3.6785293e-06
6	0x34ed97fc	4.4255273e-07
7	0x321d0440	9.139569e-09
8	0x373ff51a	1.1441554e-05
9	0x30712d96	8.774007e-10
10	0x30c65c44	1.443262e-09
11	0x374d86e2	1.2250357e-05
12	0x36b0c4e4	5.26813e-06
13	0x3408cc8f	1.2740405e-07
14	0x31fb7bca	7.3191346e-09
15	0x2f6133d8	2.048205e-10
16	0x37304259	1.0505865e-05
17	0x3697cdd0	4.5241104e-06
18	0x368fdcd8	4.2874417e-06
19	0x35baf855	1.3930354e-06
20	0x3470bcf9	2.242049e-07
21	0x35a4e848	1.2286555e-06
22	0x372fed5d	1.0486078e-05
23	0x36c01123	5.724041e-06
24	0x3724975a	9.810401e-06
25	0x36c812af	5.9626395e-06
26	0x3528baf1	6.285691e-07
27	0x36a74b05	4.9857213e-06
28	0x34f8cc6c	4.6342336e-07
29	0x3491b06b	2.7136716e-07
30	0x3677666b	3.6865483e-06
31	0x3192b143	4.2693116e-09
